player_model.pt (torch, 146771 bytes, 8 tensors)

net.0.weight f4 [128, 84]
00000000: bc12 983d f509 f63c 7842 0d3d fcd3 193e
00000010: f421 6d3d b583 1b3d 0306 c23d c449 03be
00000020: 2e21 eabc 00eb d43d da60 46bd 2343 d0bd
00000030: 5978 cf3c 4dcc 6ebd 586c 94bd e169 7d3d
00000040: d34d 363d 608b 9d3d bcef 62bd 6873 9b3c
00000050: 8644 e03d 7b21 4cbd 2ad2 2fbd 6c46 2b3d
00000060: 0951 903c 2bcf 1bbd 4b5a 17bd 7295 26be
00000070: f77c d33d fb47 a8bd 4f38 d33d f60b 5cbb
00000080: ce68 d33d bcc1 acbc cd9c ad3d 6853 2abe
00000090: 15c0 84bd 4d79 6a3d 8bd2 f23c 82fc f2bc
000000a0: d7fa c6bd ac8c fa3c 80b8 303d bf02 ccbd
000000b0: 2b8d c23d 658b 9c3d b3cd c13d 98cc a3bd
000000c0: 120e 99bd bce3 703c 4121 acbd 294d 873d
000000d0: 2934 08bd 5a33 9fbd ab63 73bd 1286 003d
000000e0: d08f e73d fa21 1e3d 0faf ad3d cd9c 65bd
000000f0: 5f8d 40bc 7361 82bd 799c 6f3d 940d 83bd
00000100: aac7 6e3d 8d5f 8a3d fc32 be3c ac53 aabd
00000110: 4451 e43c 4352 923d 66a3 1b3d 3cbd 973c
00000120: 5b5c 9f3d 4be3 dc3d cf68 d13d aede 173d
00000130: 8004 023b 24e3 b83c 3239 4b3d 64de c0bd
00000140: 2e19 293d dcad 8fbc 3964 b73d d482 2cbd
00000150: 4121 dabd abae c83d f4e8 b1bd 5529 04be
00000160: a161 c63d 585d a7bd 754e 80bd 13a0 20bd
00000170: feb7 4ebd e681 583c c63e 41bd 25dc 3f3c
00000180: bbef 363c 8ff3 a33c 35bd c3bc dc59 1a3d
00000190: 50ea 8d3d 580f 5e3d 7c79 69bd 7d29 a03d
000001a0: 1295 94bd a1d9 863d 42bd c23d c69e 0dbd
000001b0: cd49 3b3d 8635 adbd 4d58 e53c 1827 233d
000001c0: 531c 843d d0c1 9e3d 638e 943b 7e97 053e
000001d0: e914 4abd 107d eabc 5c4f c3bd 1253 343e
000001e0: 8353 89bd c2b5 563d 49d2 b53d 413b 6c3d
000001f0: 0a9c 81bd 4771 80bd 724f 9e3d 4cd0 313e
00000200: 4a78 cc3d 691c 9c3c ac93 cdbd d0f9 2c3e
00000210: 0e91 debb 2eda 5ebb bf95 92bc e5c9 653d
00000220: a480 833c 8eec bdbd e0d7 36bb 5238 ff3d
00000230: d2cb d13d 184a 883d ac23 583d 70ea d63d
00000240: 9f1b 0ebe c086 28bd 559a 31bd fbea 0dbe
00000250: d256 4e3d f06a 0a3c 5c19 87bc 5c04 2fbd
00000260: baee 14bd 8317 d53d 8488 a0bc 4c72 a13c
00000270: 2f83 bd3d 8d9f c2bd 0d73 c3bd db63 cf3d
00000280: 6a5d 093d 8dce 873d 04f4 2bbd c5e8 79bd
00000290: ba72 04bd 0fcc 8f3d 57e4 8b3d d4e8 c23c
000002a0: 2122 ca3d a70c 193e 802a 053e 43b9 b0bd
000002b0: d9d5 57bd bc77 90bd 43c3 b13d 6f92 353d
000002c0: bd2a 003b 14ad a23d f640 173b 01c3 a7bc
000002d0: 508d 813c 4b80 0e3d fc66 ca3c a280 8f3b
000002e0: 273e bdbd 69be 463c 1cd6 f53d 49a6 a8bd
000002f0: a102 95bd 368a 9abd d0d4 9bbc 85dd 08be
00000300: efdf 5f3d 282d e7bd ae92 c73d e576 c8bc
00000310: 3dbb ba3d d647 dabd 11b3 7ebd 2bd4 f2bd
00000320: 2c6c 9cbc 4be5 52bd 6796 d4bd 892a 723c
00000330: 4e9d 713c f2b0 b6bd 2297 523d 6328 a1bc
00000340: de0b 67bd b258 d9bd 0452 c13c b03e 4bbd
00000350: 55ee 763d 721c d8b8 0a0e 8dbd 9ed0 0e3e
00000360: c4a3 953d 30f4 42bd 3f1f 70bd 31e5 1d3e
00000370: 1a4e d13d 6abb b5bd b1e2 cf3d 0fdb 2d3e
00000380: 647d 3cbd fcc3 903d 0c32 443d ceb7 c23d
00000390: fb33 10bc b841 163b b4ac 12bd 0008 fc3d
000003a0: ffc1 b93d 08a2 b1bd 04ef 9a3c 689c 78bd
000003b0: f440 1cbd d427 0ebd 2145 ccbd f219 073d
000003c0: e070 713b 00a2 1739 0036 a2b9 6efb 8bbd
000003d0: 86ae adbd 809c 8fbc cb8f c93d 3e08 5e3d
000003e0: 3524 c3bd a91e 953d dad6 b2bd 048c b7bd
000003f0: ca42 1d3e 4e92 863c fbaa 16be d707 433d
0.07425448 0.030034045 0.034487218 0.15022272 0.05789371 0.037967402 0.09473803 -0.12821108
-0.028580274 0.10396385 -0.04843221 -0.10169055 0.02532594 -0.058300305 -0.072472274 0.061868552
0.044507813 0.07692599 -0.05540441 0.018975928 0.1095057 -0.049836617 -0.042925037 0.041815206
0.017616766 -0.038039368 -0.036951344 -0.16267946 0.103265695 -0.08216854 0.103134744 -0.0033576465
0.10322724 -0.021088473 0.08477173 -0.1663338 -0.06481949 0.057244588 0.02964141 -0.02966142
-0.09715813 0.030584656 0.043144703 -0.09961461 0.09499582 0.07643775 0.09463062 -0.079980075
-0.07473387 0.014702734 -0.0840478 0.06606514 -0.03325287 -0.077734664 -0.059421223 0.03137786
0.11306727 0.03860662 0.084806554 -0.05605774 -0.0117524555 -0.06366243 0.058498833 -0.06399074
0.058295883 0.06756506 0.02321767 -0.083167404 0.027870782 0.071445964 0.037997626 0.018522851
0.07781287 0.1078554 0.10225069 0.0370776 0.0019839108 0.022569247 0.049615093 -0.09417418
0.04128378 -0.017538957 0.08954663 -0.042116955 -0.10650874 0.0979894 -0.086870104 -0.12906392
0.0968659 -0.08172101 -0.062649645 -0.03921516 -0.050468437 0.013214564 -0.047179006 0.011710201
0.011165555 0.020013599 -0.023893932 0.037683353 0.06929457 0.05421385 -0.057000622 0.07820413
-0.072549954 0.06584478 0.09508754 -0.034575246 0.04572468 -0.084574744 0.027996207 0.039832205
0.06450715 0.077518106 0.0045335754 0.13046071 -0.049336348 -0.028624088 -0.09536621 0.17609814
-0.06705382 0.05241943 0.08877999 0.057673696 -0.0632859 -0.06271606 0.07729997 0.17364615
0.09983881 0.019056516 -0.10037932 0.16892171 -0.006792194 -0.0034004557 -0.01789367 0.056100745
0.016052552 -0.09273635 -0.0027899668 0.12461914 0.10243954 0.06654757 0.052768394 0.10493934
-0.13877724 -0.041144133 -0.043360073 -0.13859169 0.050375767 0.008448347 -0.016491584 -0.042728767
-0.03636048 0.10404875 -0.019596346 0.019707821 0.09253537 -0.09503088 -0.095434286 0.10126468
0.033536352 0.06631193 -0.04198076 -0.061013002 -0.032335974 0.07021343 0.06830662 0.023792662
0.09869791 0.14946233 0.13004494 -0.08629086 -0.052694175 -0.070540875 0.08679821 0.044329103
0.0019556724 0.07943168 0.0023079491 -0.020478727 0.015814453 0.03479032 0.02470731 0.004379348
-0.0924037 0.012130358 0.12003729 -0.082348414 -0.07275892 -0.07545893 -0.019022375 -0.13365753
0.05465692 -0.1128791 0.09744774 -0.024470756 0.09117744 -0.10658233 -0.06218249 -0.11856874
-0.01909455 -0.051488202 -0.103802495 0.014780649 0.014746977 -0.089204684 0.051413663 -0.019672578
-0.0564078 -0.106126204 0.023598678 -0.04962033 0.060285885 -0.00010304981 -0.06887443 0.13946769
0.073066264 -0.047596157 -0.05862355 0.15419461 0.10219975 -0.08873637 0.1015066 0.16978095
-0.04601802 0.07068631 0.04789929 0.09507714 -0.008801456 0.0022927355 -0.035809234 0.123062134
0.09070205 -0.08673483 0.0189128 -0.060696036 -0.03814788 -0.03470595 -0.09974123 0.032983728
0.003684096 0.00014460832 -0.0003093928 -0.06835066 -0.08480553 -0.01753068 0.098418795 0.05420708
-0.0952839 0.072812386 -0.08732386 -0.08962253 0.1535751 0.016427185 -0.14713661 0.0476149

net.0.bias f4 [128]
00000000: 7332 37bd d582 ba3d 6810 e63d a64b 4a3d
00000010: d9e2 32bb ce0b db3d 147c ce3d 2037 2ebd
00000020: 8627 883d a72c 3d3d 46ec e13d 1fc2 ae3c
00000030: 4304 eb3d 75b7 f23d f41e 043e 770d 1d3c
00000040: 12a6 89bd 9095 37bc 05d6 b3bc 2abe 263e
00000050: a666 83bd 5853 debc 90aa 2ebc 48ee 0c3d
00000060: c5a3 383e 99b3 c13d 3b60 ab3d 15d2 d23d
00000070: 2c2d 51bd 5ed7 de3d d6b0 293d bc58 923b
00000080: d6b3 043e 7b03 03bc c100 513d 8c9f 4a3d
00000090: 80b3 d33d 3d5c 023e 8f3e b83d 4422 39bd
000000a0: af50 1f3d 199f 28bd c48b a53d 81be 1abd
000000b0: eeb0 653d 9fa5 163d ac2d 7aba 53ca 4fbd
000000c0: 071d 2a3d d4a6 a1bb 753d d83c c7da 1f3e
000000d0: af1f dc3d 26d3 713d d243 1b3e b452 aa3d
000000e0: f25e 163d 0dd9 bc3c ffca 2c3d 9359 783c
000000f0: 07ff 4fbd a92e cd3d c69f 513d 64c8 c43d
00000100: ee83 a2bc ea77 b1bd a7b2 0d3d ed44 013e
00000110: ef8c 02bc 6cb5 9cbc a681 67ba ad68 ce3d
00000120: 7688 6ebd 330b 373c 602b 37bd 6d98 f6bd
00000130: cf7c 39bd dcf6 b83c efd0 043e fb72 42bd
00000140: b39d 893c 6233 8b3d 762a 53bb fce3 843d
00000150: 9042 1f3c d335 69bd 0ec0 c6bd 2fdf 6a3d
00000160: 4b3f d33d 0782 f53d 1ae9 abbd 8bea ac3d
00000170: 97a3 fabb 8367 f43d fac5 cf3c 1ece 163d
00000180: 1ef3 eb3b 1933 d4bd 4ae5 d63d 2904 86bd
00000190: 6cf5 1b3d d8e2 8ebc 85df 2c3d 2b1a 2e3d
000001a0: d4e9 edbc 64f7 5fbc 2b76 173e e144 4ebd
000001b0: 39b1 263d 1449 3abc 3ca3 9c3d 6fa3 d3bb
000001c0: 7416 fc3d 9795 393d b688 303e 115d a23b
000001d0: 8106 e13d d665 173d a388 143d 202d a1bd
000001e0: d083 a1bd 7039 143e 969d ee3b 57c5 ff3a
000001f0: 34a7 f83d fac9 893c 818e 9e3c dbd9 72bc
-0.044725846 0.091069855 0.11233598 0.04938855 -0.0027295856 0.10695611 0.1008226 -0.04253304
0.066481635 0.046185162 0.11031394 0.021332799 0.11475422 0.11851398 0.12902433 0.00958573
-0.067211285 -0.011205092 -0.021952638 0.1628348 -0.06416063 -0.02713935 -0.010660782 0.03440693
0.18031223 0.09458084 0.08367964 0.10293976 -0.05106847 0.10880922 0.04142841 0.0044661444
0.12959227 -0.007996435 0.05102611 0.049468562 0.10336971 0.12730499 0.08996307 -0.045198694
0.038895305 -0.041167352 0.08083299 -0.037779335 0.056076936 0.036779042 -0.0009543549 -0.05073006
0.04153159 -0.0049332175 0.026396492 0.156108 0.10748231 0.059039257 0.1516259 0.083165556
0.03671164 0.023052717 0.04218578 0.015158075 -0.050780322 0.10018665 0.051177762 0.09608534
-0.0198383 -0.0866545 0.034594204 0.1262395 -0.0079681715 -0.019129477 -0.000883127 0.10078559
-0.058235608 0.011172104 -0.0447191 -0.12040792 -0.045285042 0.02257865 0.12970327 -0.047472935
0.01679883 0.0679691 -0.0032221354 0.06488797 0.00972046 -0.056936096 -0.097046 0.05734175
0.103148066 0.119876914 -0.0839407 0.08443173 -0.007648896 0.11933806 0.025362957 0.036817662
0.0072006127 -0.103613086 0.10492952 -0.06543762 0.03807585 -0.017442152 0.042205352 0.042505424
-0.029042162 -0.013669822 0.14791171 -0.050358657 0.040696356 -0.011369962 0.07648322 -0.006458692
0.1230897 0.045308676 0.17239651 0.004954942 0.10987569 0.036962353 0.03626312 -0.07869935
-0.07886469 0.14475036 0.0072819693 0.0019513768 0.121412665 0.016819943 0.01935506 -0.014822449

net.2.weight f4 [128, 128]
00000000: 3c6a 1e3d 7f33 a5bc 503f 2f3d a07d bd3b
00000010: 9f05 463c 6e3c 2bbd d3c7 083d f8ce 243d
00000020: 1e51 97bd 56f8 1abd 7287 71bd fd92 fe3c
00000030: b771 f63d b522 d3bc aab2 96bc cfd7 923c
00000040: 3f6b 4fbb 97ec 953d 5495 833d 2e94 a43d
00000050: 7b9b 14bd 70bf 84bd 831b 87bc b7af 4fbc
00000060: ac04 253e 544e 173d 665b c6bd 6772 0b3d
00000070: 1c41 113b 1f19 1d3d 3e6e 1fbd ded4 82bd
00000080: 84cd f53c e05e 6b3d 443f 873d e3ee 883c
00000090: 52c9 62bd 1671 b03d 775d f93d 045d 5c3d
000000a0: b79e 60bd 7fab cd3d bf5f 773d a000 c23d
000000b0: e57d 0cbd a309 d4bd 5793 5b3c fe15 cc3d
000000c0: eb4d c73c 49f2 983c ea92 a43d 8216 80bc
000000d0: c8ef e83b 52e3 633d 8e5e fe3d fc1f 853d
000000e0: 0352 993d 369a 84bd 22c5 8f3d 60fb 803d
000000f0: a942 003e f423 6c3d d8fd 69bd b472 6c3c
00000100: fa34 873d 0608 fd3d f5f0 773d 280d b1bd
00000110: fa19 9c3d eea2 85bd 76bf 523c 4782 52bc
00000120: 2b10 493d e9a7 39bc d9a1 5cbd 2c04 403d
00000130: d67d 94bc 5bd2 0c3e 7883 c23d b55b ea3c
00000140: 9dc1 803d ec6c 71bd ff8e 3cbd c7a1 e4bc
00000150: 2ec4 2cbd ab42 903d 0515 8c3d b038 8b3c
00000160: cfd1 6abc dab9 a0bd 5116 bbbd 72c8 0b3d
00000170: 98e3 cbbc 5caa 17bd ee39 46bd eb49 02bd
00000180: af54 873d 00ea aa3d 028a 9dbd a426 b4bd
00000190: 150c 623c bbe8 413c 2396 98bb 22cd 2c3d
000001a0: b192 a53c 59e6 5e3d 67b7 0a3e f628 edbc
000001b0: 28ae 74bc 2d00 0ebd 5d04 65bd 8020 873d
000001c0: a82f ce3d 7c9f 063d 0eac 103e 2453 683d
000001d0: 8798 0b3d 5b0a 4fbd dd6a 303d 5d7c 46bd
000001e0: 18ca 17bc 823c 6aba a007 bc3d 4da2 24bd
000001f0: c76a 23bd f6cd 1a3d d568 6dbd 1a9d 893d
00000200: 868e b7bd 0676 f73b 1d81 d1bc 0276 39bd
00000210: 26d9 a1bd 1a9f 8bbc 1de5 46bc 4ba2 583d
00000220: d7b5 733c 341d 893d 4d18 c1bd aaed 0cbc
00000230: 9f73 96bd e2ca 0f3d 7573 8b3c 6649 153d
00000240: 724d 2d3c aa98 803d bd32 a43d 8f3b 15bd
00000250: 0e80 3cbc c18e e93c f20d 47bd 8cbd 92bc
00000260: 10ae 41bc cc3c b3bd 2deb 0dbc a9f7 babd
00000270: 2191 8fbd d13d 613d 81e2 d6bc 9e3d a4bd
00000280: 2f0b 953d 96da 103c 7f28 083d 8e6b a13c
00000290: bc24 b1bc 75fc 1cbd 8d38 b7bd 066a 8c3d
000002a0: e62b 5f3d d35f 6ebd 4eeb d63c fb6b acbd
000002b0: b9ee 7c3c ee31 18bd 926a d63c e73d a43c
000002c0: a3cc ee3c 8809 35bc 6f1e c3bd de7d 923d
000002d0: d502 8abd 3393 dcbc a1d5 9c3d b9c6 98bd
000002e0: 4bc5 663d e53f b33b b8e7 93bb 9e0f 9f3c
000002f0: a048 a63c b413 adbd cbd8 9c3d 51e8 e0bc
00000300: be8c 81bd 3c43 b3bc 8b45 1c3c aa31 9abd
00000310: 8dcd 11bd 2548 043d db43 45bd 8e04 723d
00000320: ec21 913d 5f3e b93b 7f0f bf3c 0d53 52bd
00000330: 9186 483c 881f 8b3d 1ce3 a9bc 30e7 c8bb
00000340: 6e1a 4d3d a85e 32bd ec2b 6a3d 7f78 a2bd
00000350: 8571 8d3d cf0a 813b a661 19bd ed1c 103d
00000360: ca25 813c ac12 a2bd 4819 cdbd bc5a 4ebb
00000370: 4c28 d63c d49a 58bd 4147 c83c 9aa4 56b8
00000380: d35c 8ebb 05ca 56bc 9c72 253d f1d5 393c
00000390: 5de4 2a3d 4556 733b 89e9 fa3b cb64 aabd
000003a0: 1ba6 b2bd 2fe9 6d3b 9025 86bc f803 9dbd
000003b0: 66c9 59bd 156f acbd 0940 5d3c 2872 42bc
000003c0: f227 7fbd b755 ffbc 8af3 14bd cdd0 50bd
000003d0: d694 97bd 8714 8e3d 3392 c2bd d905 753c
000003e0: 596a c53c d646 e5bc f9d4 9ebd aefa 433c
000003f0: 87a3 6a3d 840c 703d 3bf2 b5ba 1124 cbbc
0.03867553 -0.020166157 0.04278499 0.005782798 0.012086301 -0.041805677 0.033393692 0.040236443
-0.07388519 -0.037834488 -0.05896706 0.031075949 0.12033408 -0.025773386 -0.01839574 0.017925171
-0.0031649617 0.073205166 0.064249665 0.080360755 -0.03628109 -0.06481826 -0.01649261 -0.012676171
0.16115063 0.036939934 -0.096854016 0.03404465 0.0022164052 0.038354035 -0.038923495 -0.063882574
0.030005224 0.057463527 0.06603864 0.016715473 -0.055367775 0.086153194 0.1217603 0.053799644
-0.054838862 0.10042476 0.060394045 0.094727755 -0.03429975 -0.103534006 0.013401828 0.09965132
0.024329146 0.018670218 0.08035834 -0.015635733 0.0071086623 0.05563671 0.124203786 0.06500241
0.074863456 -0.06474726 0.07020022 0.06297946 0.12525429 0.057651475 -0.05712685 0.014431644
0.06601901 0.12355046 0.06053253 -0.086450875 0.07622142 -0.06525217 0.012863031 -0.012848443
0.049087685 -0.011331537 -0.053865287 0.04687898 -0.01812641 0.13752119 0.09497732 0.028608182
0.06286929 -0.058941767 -0.04603481 -0.027909173 -0.04217928 0.07043966 0.06839947 0.016994804
-0.014332249 -0.07847948 -0.09135116 0.034126706 -0.024888799 -0.0370277 -0.04839509 -0.031808775
0.06607949 0.08345413 -0.076923385 -0.087964326 0.013796826 0.011835272 -0.0046565696 0.042187817
0.02021155 0.054418895 0.13546525 -0.028950196 -0.0149341 -0.034668136 -0.055912364 0.06597996
0.100676835 0.03286694 0.14128134 0.056719914 0.03408101 -0.050546985 0.043070663 -0.048458446
-0.0092644915 -0.0008935408 0.09181142 -0.040193845 -0.039896753 0.037794076 -0.057961304 0.06719418
-0.08962731 0.0075519113 -0.025574261 -0.045278557 -0.07902746 -0.017043639 -0.012139586 0.05288915
0.014874897 0.06695023 -0.09428463 -0.008601585 -0.07346272 0.035105594 0.017022828 0.03644695
0.010577546 0.06279118 0.0801749 -0.036433753 -0.01150514 0.028510453 -0.048597284 -0.017912649
-0.011821285 -0.087518305 -0.008662027 -0.09129269 -0.07010103 0.054990593 -0.026231052 -0.08019565
0.07277524 0.008841177 0.033241745 0.019704606 -0.021623962 -0.0383267 -0.08946333 0.0685616
0.054485224 -0.058196854 0.026235249 -0.08419033 0.015437775 -0.03715699 0.026173864 0.020049049
0.029150313 -0.011049636 -0.09527289 0.071529135 -0.067388214 -0.026925659 0.07657934 -0.07459778
0.056340497 0.0054702633 -0.004513707 0.019416627 0.020298302 -0.08451024 0.076585375 -0.027454527
-0.063256726 -0.021882646 0.009538065 -0.07529004 -0.03559642 0.032295365 -0.048160415 0.059086375
0.07086548 0.005653187 0.023322819 -0.051348735 0.012239114 0.067931235 -0.020738177 -0.0061310753
0.050074033 -0.043547302 0.057170793 -0.07933139 0.06906418 0.003938056 -0.03744664 0.035183836
0.01576509 -0.07913718 -0.10014588 -0.0031487187 0.026142262 -0.05288203 0.024448039 -5.1174873e-05
-0.0043445616 -0.013109689 0.040392503 0.0113425115 0.04172169 0.0037130278 0.007657234 -0.08320006
-0.08723088 0.0036302318 -0.016375333 -0.076667726 -0.053170584 -0.08419625 0.013504037 -0.011868037
-0.062293954 -0.031168802 -0.03636507 -0.050980378 -0.07401435 0.06937509 -0.095005415 0.0149550075
0.024098562 -0.027987879 -0.07755465 0.011961622 0.057284858 0.058605686 -0.0013881394 -0.024797471

net.2.bias f4 [128]
00000000: 0d72 88bd 3042 40bd 0902 10bc 27ea d73d
00000010: 2b11 423d 86a8 d63d 70a6 4d3d 5653 dfbc
00000020: 200e 32bd f3d3 a4bd e2d0 cb3c 6acc 34bc
00000030: 15e1 823d 1c2a a3bd d833 de3c 3d95 d73c
00000040: c0c3 96bd 7879 273d 6359 9bbc c2b9 c33c
00000050: 6a90 90bd 67d3 273d 5f28 963d d4e9 223d
00000060: cd88 e63b 9d47 06bc efef 6b3d 37ef debc
00000070: a138 80bd 1415 863d 68e2 753d d288 723d
00000080: 342d 4a3d 5789 913d c998 57bb 8c3c 7abb
00000090: e3e3 443d c177 7bbc 80d9 8abc 3b28 943d
000000a0: d318 66bd aca3 8bbd fbe8 e43d a19e 90bc
000000b0: 54bb 153d 9e6e d53d 9c0d 893d 2808 32bd
000000c0: 8857 8eba c4a6 3a3d 3560 ac3c 69cd 643c
000000d0: 2afe 7f3c 3857 c3b9 4f7a 2e3d bcbd 26bd
000000e0: e192 73bd 8973 4c3d 4383 833d a2c6 95bd
000000f0: 6919 053e ed24 91bd 913a 913d 9d5c e03d
00000100: c700 8c3d 4d76 d6bb a0ab 903d fc0f 28bd
00000110: 638d 24bd dc26 a73c 4096 8ebc 7a79 d0bc
00000120: 2473 84bd 3c4e a33d 2d3d 5b3d 794b d3bc
00000130: 0043 8abd a556 e83a e25d 063d 0bb6 983c
00000140: b6b5 53bd 6ede 313d 6e0e ea3b 8280 04bc
00000150: 63e2 a63d 260c cebb d044 a83d d89c e7bc
00000160: 7cfe 17bd 40ec d83d c2ca 5cbd 3bc4 04bd
00000170: 1d68 df3d aff6 073d f520 323d 13aa 42bd
00000180: 97c6 a8bd e071 f43d 530f c73d 677d 813d
00000190: 4af7 2dbb 3659 1ebd df1e a5bc e94c 8d3d
000001a0: 023a 113c d80c e83d 0728 5e3d 0413 e13d
000001b0: 0e1d 4a3d ce24 743c 7f75 ce3b 2169 523d
000001c0: cd46 be3d b698 79bb 4156 983c b011 ecbc
000001d0: c03a 62bd e5f4 4bbd 980f e33d b3d5 adbc
000001e0: ff2d 883b afd8 633d 5508 58bd a405 c0bc
000001f0: c929 13bc b40b 5dbd ba01 91bc 95a9 36bd
-0.066623785 -0.04693812 -0.008789548 0.10542708 0.047379654 0.10481362 0.050207555 -0.027261417
-0.043470502 -0.080482386 0.024879877 -0.011035064 0.06390587 -0.07967016 0.02712433 0.02631628
-0.07361555 0.040887326 -0.018963521 0.023892287 -0.07058795 0.040973093 0.07331919 0.039773777
0.007035351 -0.008195785 0.057601865 -0.027213676 -0.06260801 0.06546989 0.06003037 0.059212513
0.049359515 0.071062736 -0.0032897464 -0.0038183061 0.048068892 -0.015348376 -0.016949415 0.07234236
-0.056176018 -0.06818327 0.1117725 -0.017653765 0.036555603 0.10421489 0.06692049 -0.04346481
-0.0010859827 0.045569196 0.021041969 0.013964989 0.015624562 -0.0003725828 0.04259711 -0.04070829
-0.059466247 0.04991487 0.064215206 -0.07313277 0.12997974 -0.07087121 0.07091249 0.109551646
0.06836086 -0.0065448643 0.07063985 -0.04103087 -0.0401739 0.020404272 -0.01740563 -0.02544855
-0.06467274 0.079739064 0.05352514 -0.025792824 -0.067510605 0.0017726017 0.032804377 0.018641492
-0.051686965 0.043425016 0.0071428334 -0.008087279 0.081486486 -0.0062880693 0.0821625 -0.028273031
-0.03710793 0.10591936 -0.053904302 -0.032413702 0.1090853 0.03319424 0.04348846 -0.047525477
-0.08241003 0.119357824 0.0971972 0.06322747 -0.00265451 -0.038659297 -0.020156322 0.06899435
0.008863928 0.11330575 0.05423739 0.10989955 0.049344115 0.014901353 0.0063006277 0.05136979
0.09290848 -0.0038085408 0.018595817 -0.028817028 -0.05523181 -0.049794096 0.11086959 -0.021220064
0.004155874 0.055626567 -0.05274232 -0.02344019 -0.00898213 -0.05396624 -0.017701019 -0.04459532

net.4.weight f4 [64, 128]
00000000: 3af8 523d c31d 233b f769 863d 0639 963c
00000010: 07f0 29bd e8d7 44bd 6d79 39bc 1fc6 00bd
00000020: f2f5 a93d 0329 063d 773a c23d 8ce4 513d
00000030: 43e6 6cbd 9f23 323c 4a2f a1bd c76a 26bd
00000040: 1649 933d 613b ccbc 3d99 b23d 7940 353d
00000050: 491a c83d bbc7 b3bc 3da5 48bd 152e 75bd
00000060: 255a 893d 0514 cf3c 6725 6c3c b6a5 cabc
00000070: 71c4 18bc a071 46bd 358f f3bc 3bc9 9f3b
00000080: 6611 54bb d834 d73d 978a 47ba 3752 14bd
00000090: e07e 13b9 9fb6 debb a4fc 8ebd 56cb 85bc
000000a0: 314d 343c 52fc f83b 9afa 4a3d 778a e43d
000000b0: a7d6 65bd 8c0d 9c3d 7694 28bd 3a14 52bd
000000c0: 5c1b 34bd 9fce dabc 66ba b93d 9185 bfbd
000000d0: bbdf 9a3d 2b6d 733d 29b5 d93d b101 1e3e
000000e0: 1ff4 213b a101 fc3d 4461 9c3d 6202 cbbb
000000f0: b3c9 05bd 2c34 c73d 7415 13bc 0475 513d
00000100: f0a2 903d 69b8 783d 4811 e53d f92e e5bd
00000110: a26e d5bd 037e 51bd f8ed 21bb 9673 0a3e
00000120: 0bc7 06bc 8ac8 67bd d38b 95bd e157 123e
00000130: 5eda d33d e61f 68bd 3f7b 93bd def0 a93d
00000140: 2e9a 82bd 8077 13bc 8410 273d 1b88 783d
00000150: 8fa4 2cbc a465 f03d fd1f 4bbd 94bb 92bc
00000160: e064 b4bc 7aa6 21bd c4f8 b23c 497c 9e3d
00000170: b43a 47bd fed1 37bd 5811 df3d 3cfb b53d
00000180: 0fc1 3a3d 8058 623d 9a44 183d 875a 9f3c
00000190: 41db 8a3d e592 51bc 31f2 d83b dd96 4e3d
000001a0: 30e2 82bc fe2a f93d b568 b5bc f2ea aabc
000001b0: aa33 1a3d 64d9 993d 33c1 a13d 1b75 db3d
000001c0: aed4 94bd 8d08 e13d b128 c4ba 159c 94bc
000001d0: afca ac3d fb6b b3bd fd7b 9c3d f9f5 4c3d
000001e0: 2287 2bbd 2784 45bb 260e 423d b521 febc
000001f0: b7cf 40bd fbde b53d 7a0b ab3d 6369 a3bd
00000200: 78c6 45bc 9b71 b13d 0c92 0a3e 1c82 a5bd
00000210: 3b10 153c 27ad eabc 7403 b43d a97c a83c
00000220: 08a4 9dbc 63ea c53c 988a 71bd fb89 793d
00000230: c5e4 84bd 6c65 833c b72a a23d eac9 1dbd
00000240: 7c3b 90bc 8033 8c3c c264 573c 5094 86bd
00000250: 8b83 0abd 389f 31bc 0c47 b53d 6cd3 a23d
00000260: deb4 96bd b4a6 393d 3e64 2abd 40c4 273b
00000270: c0c1 cb3d d408 81bd c02a bfbb 973d f1bb
00000280: 9a40 cfbd b559 ba3d 0eb4 3cbd 8703 51bc
00000290: 5111 61bd f6a5 bd3c 05fa 1d3d 3935 9a3d
000002a0: 2e7a 89bd df49 1bbd 3dcf d13d 8aad 823d
000002b0: fda5 a23d b3e9 20bb 1d34 78bd d031 10bd
000002c0: da6e 9bbd 5041 1b3e 94ad 26bd 2e09 1dbd
000002d0: 9cb4 c73d 2dd2 9b3d e565 af3c ab45 293e
000002e0: f82c 1abd a58a 103e fdca 043d fad1 48bd
000002f0: e3be b5bc e23d 93bc 0541 0c3d eb9b 4cbd
00000300: dc39 2a3d 9350 803c ebd0 dfbc c385 9dbd
00000310: 21a4 69bd e33b 373d 7523 a73d 17a2 e03d
00000320: 3f2a fdbc 9de2 9a3d effe 0cbc 0b68 033e
00000330: bb0d 453d 5876 a1bd 9426 7fbd 417c fa3c
00000340: 3228 583d e86f dabc 05fb b63d 3e18 3b3d
00000350: b847 95bb 1c09 013d 1f7d 64bd 22c3 84bc
00000360: 4002 103b 2aff 5ebd d184 973d 7c17 323d
00000370: 0037 28b5 9497 7e3d 4396 013c 2609 643d
00000380: 7095 92bd 26da ba3d 71cd 583c 8e33 e6bc
00000390: e798 68bd 527c 1a3c b7f9 b43c 5369 fb3d
000003a0: a422 11be 49b8 bd3d 6f3d 8abc 2a91 97bd
000003b0: 22da c3bd 99a1 f2bb 53f2 b6bd 9313 ac3d
000003c0: dc2c 953d e32a 123c 52f3 82bd 412c 28bd
000003d0: bde4 c43d db21 eabc 9835 803d 0ff6 993a
000003e0: cdd7 8ebd b56a 893d 94dc 753b f051 be3d
000003f0: 71d3 f33c 174d 92bc deaf a83d f2bb e0bc
0.05150626 0.0024889566 0.0656318 0.018337738 -0.041488674 -0.048057467 -0.011320454 -0.031438943
0.082988635 0.032753956 0.094838075 0.05124335 -0.057836782 0.010872751 -0.07870348 -0.040629175
0.071916744 -0.024930658 0.08720634 0.04425094 0.097706385 -0.021945825 -0.04898571 -0.0598584
0.06706647 0.0252781 0.014413214 -0.02473722 -0.009324179 -0.048448205 -0.029731372 0.0048762835
-0.0032359003 0.10508126 -0.0007611899 -0.03621122 -0.00014066277 -0.0067966725 -0.06981781 -0.01633231
0.011004732 0.0075984383 0.0495554 0.111592226 -0.05611291 0.07619771 -0.04115721 -0.05128882
-0.043971404 -0.026709853 0.09068756 -0.09351648 0.075622045 0.059430283 0.10630257 0.15430333
0.0024712158 0.12304998 0.076357394 -0.0061953524 -0.03266306 0.09726748 -0.008977283 0.051136985
0.07062328 0.060722742 0.11184937 -0.111906 -0.10421492 -0.051145565 -0.002470849 0.13520655
-0.0082261665 -0.056587733 -0.0730206 0.14291336 0.103443846 -0.056671046 -0.07201242 0.08297895
-0.06377064 -0.009000659 0.040787235 0.060676675 -0.010537281 0.117381364 -0.049591053 -0.01791171
-0.022020757 -0.039465405 0.021847136 0.07738549 -0.048639968 -0.044878 0.1089198 0.0888581
0.04559427 0.05526018 0.0371748 0.019452346 0.067801006 -0.01279137 0.0066206683 0.050436843
-0.015976995 0.12166403 -0.022144655 -0.020863984 0.037646927 0.07512167 0.07898178 0.107156955
-0.07267128 0.10987959 -0.001496574 -0.018140832 0.08437096 -0.0876083 0.076408364 0.050039265
-0.04187692 -0.0030138583 0.047376774 -0.031021932 -0.047073092 0.08880421 0.08351798 -0.07979085
-0.012071244 0.08664247 0.13532275 -0.08081457 0.009098108 -0.028647019 0.08789721 0.020567255
-0.019243255 0.024159616 -0.058970064 0.060922604 -0.06488947 0.016039573 0.079183035 -0.03852264
-0.01760649 0.0171144 0.013146581 -0.06571257 -0.033816855 -0.010841183 0.08851442 0.07950482
-0.073587164 0.045324996 -0.041599505 0.0025599152 0.09949064 -0.06300512 -0.0058339536 -0.0073620784
-0.10119744 0.090991415 -0.04607015 -0.012757189 -0.054948155 0.023150425 0.038568515 0.07529683
-0.06712757 -0.037912246 0.10244606 0.06380756 0.07941816 -0.0024553358 -0.060596574 -0.035203755
-0.07589503 0.15161633 -0.04069288 -0.038338833 0.097512454 0.07608447 0.021410892 0.16530482
-0.03764054 0.14115389 0.032420147 -0.049028374 -0.022185748 -0.017973844 0.034241695 -0.049953382
0.041559085 0.01566342 -0.0273213 -0.07691529 -0.05704129 0.044734847 0.0816106 0.10968416
-0.030903934 0.07562754 -0.008605703 0.12832658 0.048108798 -0.078839004 -0.06229265 0.030576827
0.05277271 -0.02666469 0.08934597 0.045677416 -0.0045556687 0.031502828 -0.055783387 -0.016206328
0.0021973997 -0.054442562 0.073983796 0.043479428 -6.266491e-07 0.062156275 0.00790936 0.055672787
-0.07157409 0.0912364 0.013232575 -0.028100755 -0.056786444 0.009429054 0.02209173 0.122759484
-0.1417337 0.09263665 -0.016874997 -0.07400735 -0.0956309 -0.007404518 -0.089329384 0.08402171
0.07283947 0.008921358 -0.06394066 -0.04105783 0.09613941 -0.028580597 0.06260222 0.0011746305
-0.069747545 0.06709806 0.0037515508 0.09292972 0.029763909 -0.017859025 0.08236669 -0.02743337

net.4.bias f4 [64]
00000000: 56ad 2d3c 139f 1ebd fe14 5dbc 6fdd 29bc
00000010: 9bc0 bbba c099 db3c cc0b 6dbc 6096 833c
00000020: 279a 94bd 6650 c63d 7d94 3b3d b60a 9c3d
00000030: 153d 193d e899 78bc ecec 8fbd b716 4ebd
00000040: 692b 8c3d 51db b13d a265 66bd e0c4 4e3d
00000050: 1322 c8bd 3962 973d 98a9 013c 743e 43bd
00000060: f300 ab3d de73 533d 9544 ec3c db81 9f3b
00000070: d877 db3c 148a 863d 2527 2b3d 178b 9bbd
00000080: 5128 4e3d 49e7 7e3d 009f ed3a f719 4c3c
00000090: 512b e23b 0096 983d d017 e13d 1634 973d
000000a0: 624c 90bc 79db ddba cdfd a33d f95f 713d
000000b0: d386 fbbc f58d d6bc f8a8 00bd d2a0 953d
000000c0: f385 473d 7a9a 813d 3d2a 90bd a655 3dbc
000000d0: 5b37 8bbb 8416 faba d7ff a1bd b7c0 2fbd
000000e0: e0b0 c73d 0e6b eabb d117 253d dec4 32bd
000000f0: 65c0 5abd e504 973d 5030 7bbd 3b03 2bbd
0.010600409 -0.038725924 -0.013493774 -0.010367735 -0.0014324369 0.026806712 -0.014468145 0.016062915
-0.07255965 0.096833035 0.045795906 0.076192304 0.037411768 -0.015173413 -0.07027611 -0.05031463
0.06844217 0.086844094 -0.05624927 0.050480723 -0.09772124 0.07391781 0.007913969 -0.04766698
0.083497904 0.05162417 0.028841296 0.004867775 0.026790544 0.06569305 0.041785378 -0.07594889
0.050331417 0.06223229 0.0018129051 0.012457362 0.0069021364 0.07450485 0.1099087 0.073829815
-0.017614547 -0.001692637 0.08007393 0.058929417 -0.030703938 -0.026190737 -0.03141114 0.07306065
0.04871173 0.06328292 -0.07039306 -0.011556065 -0.0042485422 -0.0019080197 -0.07910126 -0.042908397
0.09750533 -0.007153875 0.040305916 -0.04364478 -0.053406138 0.073739804 -0.06132537 -0.041751128

net.6.weight f4 [2, 64]
00000000: a204 ed3d 3673 173e a1d0 9c3d 3a30 1a3c
00000010: 6e36 48bb d4ae 413d d0eb a93d 4d65 933c
00000020: afd3 40bd 88c8 81bd a959 da3d 37af aa3d
00000030: 32d8 b13d a08a 8b3c b314 2cbd 99c2 eebc
00000040: bf03 eb3c 830f 44bd e340 2c3d f253 c8bc
00000050: 941a d1bc 2739 0fbd 1008 cdbd 4b17 e03b
00000060: 9cf9 f93d a09f 52bd 6f6f 0dba 183a 47bd
00000070: 865e e53d 6bcf 893d aa5a 9fbd 4436 a1bd
00000080: f541 c5bd 5415 b0bd e4de 3a3d 5676 b73d
00000090: 1969 943d 94bb 1fbd 126a 5cbd 145a c03d
000000a0: 784f ab3d 9771 633d b7fe 55bd 68f2 293d
000000b0: 968e 743d 0cfa 883d b1a4 eebd 3205 d63d
000000c0: 4f75 c9bd 9afb 7b3d 3653 82bd 60e4 a93d
000000d0: 27b6 bebd 8460 8e3c 5dcf acbd 33c6 dcbc
000000e0: ad44 9e3d d352 c93d e537 d5bd 9e3f 83bd
000000f0: c6ba 2ebd beaa b73d 57b8 2c3c a979 8fbc
00000100: 0caf 09bd 9915 3cbd 1547 e73d 58a4 c3bd
00000110: 03dd 5f3d 1aa8 babd c96f ea3d b10c 3cbc
00000120: 4b37 be3d d491 cd3d 1064 2ebd d775 c33d
00000130: abd6 6cbc 0ea6 b93d d37b 3fbd f9e2 d03d
00000140: bc90 043c d6cc d73d 8edc 8b3d 35db cdbd
00000150: 367b 0cbd 4953 26bc b45d 67bd bb3e dcbc
00000160: 6ef6 e0bd 2715 ac3d 5176 08bd 8a30 b23c
00000170: 55bc 00bd c07b c7bc 5a20 6f3d a590 b0bd
00000180: 02ee 043e f695 20bd 9237 9ebd 0859 dabd
00000190: bdb1 a1bd 9844 a53d 0f68 0e3e 6de8 e23b
000001a0: ed75 8abd c94d a8bc d3fc 123e d58f 80bd
000001b0: 3b16 92bd d052 f03c c8ff 48bc 9ede dabd
000001c0: 6de8 cb3c 426a 883c a0a0 c23c 710f da3d
000001d0: e449 da3d b6c1 ee3d 86fd 333d 1771 cf3d
000001e0: e702 cabd 18e8 b93d c844 0b3e 61ab 3e3d
000001f0: ff56 043e 8215 793d 9e71 bdbc 1d2d b1bd
0.11573149 0.14790043 0.0765698 0.009410912 -0.003055002 0.04728587 0.08296931 0.01799264
-0.047076877 -0.063370764 0.106616326 0.08334201 0.08683814 0.017033875 -0.042011928 -0.029145526
0.02868831 -0.047866356 0.04205407 -0.02445409 -0.025525369 -0.034966614 -0.100113034 0.0068387142
0.12205812 -0.05142176 -0.0005395328 -0.048639387 0.111996695 0.06729015 -0.07780965 -0.078716785
-0.09631721 -0.08597818 0.04562272 0.08958118 0.07246608 -0.038997248 -0.053812094 0.09392181
0.08364767 0.05552825 -0.052244868 0.041490942 0.059706293 0.06688318 -0.11652506 0.1045021
-0.09836828 0.061519243 -0.063635275 0.08295512 -0.093120866 0.017380007 -0.08437989 -0.026949978
0.077279426 0.098302506 -0.10411052 -0.064086184 -0.04265859 0.08968113 0.010541997 -0.017514067
-0.033614203 -0.045919035 0.11292855 -0.095528305 0.054654133 -0.09114094 0.114471026 -0.011477635
0.0928789 0.1003758 -0.042575896 0.095439605 -0.014455478 0.090648755 -0.046748947 0.101995416
0.008091148 0.10537116 0.06829177 -0.10051576 -0.03429719 -0.010151693 -0.056485847 -0.026885381
-0.10984503 0.08402472 -0.03331596 0.02175166 -0.031429607 -0.024351 0.058380462 -0.08621339
0.12981418 -0.039205514 -0.07725443 -0.106615126 -0.07895229 0.08069724 0.13906883 0.00692468
-0.06760774 -0.020544903 0.14354257 -0.06277434 -0.071331464 0.029336363 -0.012268014 -0.10686992
0.024891103 0.01665223 0.023758233 0.106474765 0.10658625 0.11658041 0.04394295 0.10128992
-0.09863835 0.090774715 0.13600457 0.04655016 0.12923811 0.060811527 -0.023125466 -0.08651183

net.6.bias f4 [2]
00000000: 29d6 a3bc e470 b93d
-0.01999958 0.09054735
