player_model_ts.pt (torch, 697647 bytes, 12 tensors)

weight f4 [256, 268]
00000000: 6334 063e 4c33 783d cd0e 36bf 8733 973c
00000010: 5998 46be 5e55 06be 255d 553e fcd3 753d
00000020: c484 fdbd 213a f4bd b378 9f3e 1b71 8e3f
00000030: e7d2 143d 6a1d 2abb de91 9ebe 88f0 98be
00000040: 37ab b9bd 38d0 493d 2877 183d ef3b 973d
00000050: ad10 b63c 3234 863d ce9e 49bd 5073 453e
00000060: 2f15 453e d435 793d 2998 07bf 4e2c 1a3c
00000070: 51c4 003e 5e44 473e 8f88 4dbe e627 85be
00000080: 9408 d2bc a174 0b3e c4dd 2bbe c23b dbbe
00000090: 0a12 3ebd e855 63bc 1236 babe 8016 23bf
000000a0: 20e5 f3bd e2df 07bd b9b4 88bd e785 133d
000000b0: e332 b4bd d624 00bb 8cb6 fd3d 71ea a5bc
000000c0: d4ca 00bd 74dd 3abd 47b5 ab3d b502 1cbd
000000d0: d27b 45bd bd51 153d df87 733d bd7b 1b3d
000000e0: 9c8d 6a3c 382b cdbb f722 503d cbfd 343d
000000f0: d203 943c 5646 61bd 4f29 6f3d 6c53 0d3c
00000100: a0c4 abbb a0c1 fbbb b252 c03c 4872 e4bc
00000110: 6f40 08be f5c4 043e a4e4 303e 5b13 22be
00000120: 240f 09be b386 fdbd 39a9 84be 0221 0f3e
00000130: 69e9 e33d af42 60be c83e 71bd fb71 f9bd
00000140: 7131 6a3a 027e 1a3e f33a cb3d b500 b7be
00000150: 5df8 d73d 6a25 833e e931 893e 33cf 193f
00000160: 7a4a 50bd 7966 c13d f736 c4bc 1b13 09bf
00000170: 7e6c 193e 3f06 513b 982d 063e 0d78 613e
00000180: 64d0 983d fe61 d33d 55b2 8bbd e3c0 cf3d
00000190: 553c 383e 4f3f 72bd 8196 86be 9fa1 7fbe
000001a0: e0ea 4b3e b0e9 acbc 84c5 053f 8182 07bd
000001b0: 58dd 5b3d 56b7 da3d 88aa 143e 702d 073e
000001c0: 7b3c 803c 587c 19be 2992 aebd 310d 3ebc
000001d0: 7792 983c 472c 943b c1e2 10be 0cb6 02bf
000001e0: b695 4fbd 9b6b 0cbe 8cbe 053f 719c 9f3e
000001f0: 5792 2bbc 4521 24be 024c 5b3c cd54 3f3e
00000200: 49e6 1dbe 2997 bfbd f27c 0fbe 6d04 9ebe
00000210: 5a5c f8bd b6fd b6bd 7717 c33e a589 013d
00000220: d1dd 4abe 78ae 6e3c b3fb 9fbe 8a0a 353f
00000230: 6f08 51be 03cb a9be e4e8 ca3e 10cf 96bd
00000240: 1a11 46be 65ed 91be ea88 4ebe f67d f0be
00000250: d411 1bbd 44a4 fcbd c0a7 e4bb 4023 01bf
00000260: 7cd5 153d 91f4 ad3b c868 c13e 9f59 babe
00000270: 9614 4ebe 474d 633e dc50 73bc 1034 13bc
00000280: cbcd 89bd 2707 623e 39e6 eabe 3b6e 753c
00000290: 7723 173e 3d83 553e 4e5a 263f 05bd 683d
000002a0: b93d 80bd a1d9 bebc 32f5 aabd 6cad 7dbe
000002b0: 78a1 af3d 2312 8fbd 83d1 8aba 7536 94be
000002c0: 7fed 833e 0ff3 9cbc a37b 303d 0235 2e3e
000002d0: 1a3f 503d 0217 59bd ed6f 9cbe 56b9 eb3e
000002e0: f60d e2bd 3601 eabd 5b80 703e da5f e73e
000002f0: 31ae 60bd 6b74 13bd 992d 98bd 9ad9 243e
00000300: a7e7 51bd 576b eb3a fccd 3dbe 9943 29bf
00000310: 8107 75bc 26e8 3d3e 8292 823e 14d2 763e
00000320: 335c b6bc 9002 fd3d 58bf 44be a245 ab3b
00000330: f86b 34bd f358 b1bd 1792 1fbe dadc 813e
00000340: 0645 2fbd f459 3cbe a63a 93be f99e 5fbe
00000350: 71a9 743e 8db6 e13d d795 963e b45a d43e
00000360: ef5c 9f3d f370 a53d ce24 0cbf a3c9 903d
00000370: 3220 c43d abd4 203e 52c8 9dbb 581a 173d
00000380: bc89 5cbd 03cc a33c 0baa a43e d402 a83e
00000390: 3169 d33c 6ee5 8dbd 3b0e f63d 4809 c7bb
000003a0: 426a f3bc 1f4c a5bc 8011 b8be a3bb 71bd
000003b0: efd4 82bd 40e3 b73d 0103 13bf e527 83be
000003c0: 8d86 90bd 082e a73d f08d c43e ad20 adbd
000003d0: fedd b5bd 54c8 17bd 8fba aebe 1cc0 0b3e
000003e0: c4bc 14bc a6bc 203e 9150 163e 4630 0fbe
000003f0: a2c5 49bd 67a4 ba3d 2ebe b53e b8d1 c33e
0.13105921 0.060595796 -0.71116334 0.018457187 -0.19394054 -0.13118502 0.20836313 0.060016617
-0.12378839 -0.1192515 0.31146774 1.1128267 0.036333945 -0.0025957474 -0.30970663 -0.2987101
-0.0906586 0.04927084 0.03722301 0.07384478 0.022224749 0.06552924 -0.049223714 0.1928227
0.19246362 0.06084235 -0.5296655 0.009409977 0.12574889 0.19459674 -0.20071624 -0.26007003
-0.025638856 0.13618709 -0.16783816 -0.4281903 -0.046403922 -0.013875462 -0.36369377 -0.6370621
-0.119089365 -0.033172496 -0.06675095 0.03601637 -0.08798768 -0.0019553206 0.12388334 -0.020253392
-0.031443432 -0.04562135 0.08384185 -0.03808852 -0.048213787 0.036454905 0.05945575 0.037959803
0.014315989 -0.0062612556 0.050814595 0.04418735 0.018068228 -0.05499872 0.058389004 0.008625846
-0.0052419454 -0.007682994 0.023476932 -0.027886525 -0.1330583 0.12965758 0.1727472 -0.15827696
-0.13384682 -0.123792075 -0.25910357 0.13977435 0.11128504 -0.21900438 -0.058897763 -0.12179943
0.0008933759 0.1508713 0.09923353 -0.35742727 0.105454184 0.25614482 0.2679589 0.60081786
-0.050852276 0.09443373 -0.02395199 -0.5354478 0.14982793 0.0031894592 0.1310333 0.22018452
0.07461622 0.10321425 -0.068211235 0.10144212 0.17991765 -0.059142407 -0.262867 -0.24963997
0.19913816 -0.021107525 0.5225451 -0.033083443 0.053677887 0.106795 0.14518178 0.13200927
0.01565384 -0.1498884 -0.085239716 -0.011599825 0.018624527 0.00452188 -0.14149 -0.5105903
-0.050679885 -0.13712923 0.52243876 0.31174043 -0.010471902 -0.16028316 0.013384821 0.18684693
-0.15419878 -0.093550034 -0.14012507 -0.30862752 -0.1212699 -0.0893511 0.3810384 0.03162541
-0.19811179 0.014567964 -0.3124672 0.70719206 -0.20413373 -0.33162698 0.39630806 -0.07363713
-0.19342461 -0.2850143 -0.20169416 -0.469711 -0.0378588 -0.12336019 -0.006978005 -0.5044441
0.036580548 0.0053086956 0.37775254 -0.363965 -0.2012504 0.22197448 -0.014850821 -0.008984581
-0.06728705 0.22073041 -0.4587877 0.014979894 0.14759623 0.20850845 0.64981544 0.056820888
-0.06261773 -0.023297133 -0.083475485 -0.24773186 0.085757196 -0.06985881 -0.0010591004 -0.28947797
0.25767133 -0.019158868 0.04308666 0.17012408 0.05084143 -0.053000458 -0.30554143 0.46039838
-0.11037819 -0.11426012 0.23486464 0.45190316 -0.054853622 -0.035999697 -0.07430572 0.16098633
-0.05124631 0.0017961067 -0.18535608 -0.6611877 -0.014955402 0.18545589 0.25502402 0.24103576
-0.02226076 0.123540044 -0.19213617 0.0052268067 -0.04404828 -0.08659544 -0.15583073 0.2536381
-0.042790435 -0.1839369 -0.28755683 -0.21837987 0.23892762 0.11021147 0.29411194 0.4147545
0.077813976 0.08078184 -0.5474366 0.07069709 0.09576453 0.15706126 -0.00481514 0.036890358
-0.05384229 0.019994741 0.32160982 0.32814658 0.025806995 -0.06928526 0.12014433 -0.0060741045
-0.029713754 -0.020177899 -0.3595085 -0.059016835 -0.0638827 0.089788914 -0.5742646 -0.25616375
-0.070569135 0.08163077 0.3838954 -0.08453498 -0.08880232 -0.037056282 -0.34126708 0.13647503
-0.009078208 0.15696964 0.14679171 -0.13983259 -0.049260743 0.091133885 0.35496658 0.3824594

bias f4 [256]
00000000: 6db8 3cbe 500b 31bb d723 20be 6c4e 17bd
00000010: 9185 a8bd 49aa 0dbe c11f 0b3e 753e a6bd
00000020: e0e5 26bd 27c9 6cbd 615d b8bd 4d88 8bbd
00000030: 875d 2f3e 6d4d 50bd 95dc d1bd 1b1d 02be
00000040: b760 e8bc 0e94 0abd 3921 b3bc bf8a 25bd
00000050: 12ec c1bd 0f4a c1bd 2145 76bd c3ef e6bd
00000060: 4f20 97bb 2e66 debd 4e35 2b3e 7cc6 d23d
00000070: 9cea 63bc 3e30 a9bd 1b78 c0bd ebec 42bd
00000080: c3ae a93d b9b7 febc f9de 95bd 90cd b53d
00000090: 3877 e8bd 9043 80bd 8d68 6abd c892 a7bd
000000a0: 6f5e 10bd 60eb bfbb 9596 193e 919b 6fbd
000000b0: c318 8f3c e742 06be 97b4 823d 7830 64ba
000000c0: 1f26 54bd f28d 20bd 7a35 4dbc 56c9 edbd
000000d0: 05d0 37bc 09ba 1ebd e843 dbbc 7c26 833d
000000e0: 7f1a 06be 2b8e 0a3c 858c f23c f783 033d
000000f0: d0fc 21bc be03 ecbd 5b20 8ebd c637 03bd
00000100: 21ff a6bd f560 88bd 5b37 5cbd 6bff 133b
00000110: bf2a b0bd 85a6 1e3e fd42 c4bd cd04 13bc
00000120: ca22 14be 039e bcbd 11cb 213d d660 0ebd
00000130: c518 34bb 9826 8ebd 5dab 9a3b 0b06 e0bd
00000140: 64c0 d2bc e051 1d3d 7f68 aebd c067 87bd
00000150: b13a 43bc e642 a8b9 b8fa debc 3e72 02be
00000160: c06b 203b e377 14be bb6a c7bd 1126 153d
00000170: caea 1abe 836c 09bd ae8b a3bd 3b37 1ebe
00000180: b1b4 1fbd 4c29 50bd ca8b b3bc 4668 cdbd
00000190: a0ce 23bd 3481 16bd 8f92 da3c 5c76 68bd
000001a0: 3690 953d 64b1 88bd 0ccb bbbc 31b0 97bd
000001b0: bde7 18be 795e 9cbd 2c56 77bd f174 0fbe
000001c0: d88c dbbd 0856 95bd b582 46bd 830c f2bc
000001d0: 803c 1abd 1ed7 44bd 9020 c7bd 9a4c 12be
000001e0: b5ff c1bc 4a14 01be 8339 2dbe 07fe 7cbd
000001f0: 7e00 c8bd 1ac4 52bd 60ef 983d 017c 653d
00000200: 794b 48bc e41a d7bd 886b c5bd d1ed b8bd
00000210: 939c afbd e0bc 20be abd4 f2bb 022b 36bd
00000220: 9a8f 9fbd 4461 463b 8694 b03d d991 4abd
00000230: 1e40 63bd b35d 02bd 9483 a1bd 64b5 aabc
00000240: c673 36bd bdd3 0fbe a71c 81bd 2c8b ecbd
00000250: 0c65 bebd bc6c 813d 5c12 1d3d a7eb a7bd
00000260: 7822 75bc 5ded 89bd 804d acbd 85cb 10bc
00000270: 9767 7e3c 7ab2 a1bd 63bd 6ebd 5fad 2b3d
00000280: f9a7 bcbc b8cb adbd 49aa b9bd 8a95 fdbc
00000290: bf43 debd bb72 c2bd 5f03 223d f0e9 12bd
000002a0: 7488 5bbd a282 243d cc7a a1bc c2c9 a7bd
000002b0: 873a c5bc c55a 533b dc50 a7bd 53d2 c73d
000002c0: 7a59 85bc 9153 18bb dc5c 413b 54e4 c2bc
000002d0: 230b 08bd ecd6 40bd 098f 81bd 1a37 a3bd
000002e0: 1db0 eb3c c718 babd c541 75bd 51a5 593b
000002f0: 7eff 38be 9304 943d 6d39 8f3c 912c 99bd
00000300: fd2f 03be b83d 38be b071 aa3b 7af6 593d
00000310: b8f7 82bd 0c6a 55bc b973 c2bd 9444 2dbe
00000320: eb1c 523d 2ff7 b0bc 28b2 33bd e560 ddbd
00000330: c1fb 653b c382 2bbd 9358 7abe f1bf 2dbd
00000340: a14a febd a49a b03d 4aa6 3fbc 3907 77bd
00000350: da6c 91bd 814f 56bd 0702 6cbd 41e5 89bd
00000360: 302b b3bd 3554 0cbe 8f0b 06ba 5450 98bb
00000370: 2901 a9bc 23e6 6f3d 9aae 35bd 7e4b 383d
00000380: 0402 a2bd db76 57bd f0e6 9ebc 1bef a8bb
00000390: 7f51 ecbd 11b2 39be fb06 e4bd 5512 bd3c
000003a0: 3a3b 083c e7ae acbc 015e d2bd f8c0 99bd
000003b0: 4349 69bd d1db 3dbd fb0d dcbd f5fa 7a3c
000003c0: 14cc dabc 3d24 99bd a6a2 62bd 9d5c cbbc
000003d0: bea9 113c 8cd1 fdbd dc27 003e 3ce2 cfb8
000003e0: 5377 5fbd b121 6dbd da50 143e d621 cebd
000003f0: b320 d63d 8004 afbd 4ecc 2ebc 3922 8cbd
-0.18429728 -0.00270148 -0.15638672 -0.036940023 -0.08228601 -0.1383449 0.13586332 -0.081173815
-0.04074657 -0.05780902 -0.090021856 -0.06813107 0.17125522 -0.05085509 -0.10247151 -0.12706415
-0.02836643 -0.033832602 -0.021866428 -0.04041552 -0.09468855 -0.09437954 -0.06012452 -0.112762
-0.004612006 -0.10859333 0.16719553 0.10291764 -0.013910916 -0.082611546 -0.09397908 -0.047589224
0.08285286 -0.031093465 -0.07317919 0.088770986 -0.11350864 -0.062628865 -0.057228614 -0.08182293
-0.03524631 -0.0058569163 0.14998849 -0.05849797 0.017467862 -0.13111459 0.06382101 -0.0008704732
-0.051794168 -0.03919787 -0.012524957 -0.116106674 -0.011219029 -0.038751636 -0.026765779 0.06403825
-0.13096045 0.008456747 0.02960802 0.032108273 -0.009886935 -0.11524151 -0.06939765 -0.03203561
-0.08154131 -0.06659118 -0.05376373 0.002258266 -0.08601903 0.1549321 -0.095830895 -0.008973313
-0.14466396 -0.09209826 0.0395003 -0.03476032 -0.0027480584 -0.06940955 0.004720135 -0.109386526
-0.025726505 0.03840816 -0.08516025 -0.066115856 -0.011915849 -0.000320933 -0.027219161 -0.12738892
0.0024478287 -0.14498858 -0.09737154 0.036413256 -0.15128627 -0.03355075 -0.07985626 -0.15450756
-0.03899068 -0.050820634 -0.021917243 -0.10029654 -0.039991975 -0.03674431 0.026681213 -0.0567535
0.07302897 -0.066744596 -0.022923969 -0.07406653 -0.14932151 -0.07635207 -0.060384914 -0.14009453
-0.10720223 -0.072918 -0.048464496 -0.029546982 -0.037655354 -0.048056714 -0.09723008 -0.14287034
-0.0236815 -0.12605396 -0.1691647 -0.061765697 -0.09765719 -0.05145655 0.07467532 0.056026462
-0.012225025 -0.10503176 -0.096396506 -0.09029735 -0.08574786 -0.1569705 -0.007410606 -0.04447461
-0.07791062 0.0030270377 0.086220786 -0.049455497 -0.05548107 -0.03182764 -0.07886425 -0.020838447
-0.044544004 -0.14045615 -0.06304293 -0.115499824 -0.09296617 0.063195676 0.038347587 -0.08199244
-0.014961831 -0.067347266 -0.084132195 -0.008837585 0.015527627 -0.0789537 -0.058286082 0.041913386
-0.023029314 -0.08486122 -0.090656824 -0.030955095 -0.10852765 -0.09494539 0.039553996 -0.03586763
-0.05359693 0.040163644 -0.019711874 -0.08192779 -0.02407576 0.0032250148 -0.081697196 0.09756913
-0.016278017 -0.0023243169 0.0029504811 -0.023790516 -0.033213746 -0.047079965 -0.0632611 -0.07969494
0.0287705 -0.09086757 -0.059877176 0.0033210109 -0.18066213 0.07227435 0.017483437 -0.074792035
-0.12811275 -0.17992294 0.005201541 0.053213574 -0.06394905 -0.013025772 -0.094947286 -0.16920692
0.05129711 -0.021602241 -0.043871075 -0.10809497 0.0035092684 -0.04187275 -0.24447851 -0.042419378
-0.12416578 0.08623245 -0.011697361 -0.060309622 -0.0710084 -0.052321915 -0.05761912 -0.0673318
-0.08748472 -0.13703997 -0.00051134167 -0.0046482477 -0.020630436 0.058569085 -0.044355966 0.04499387
-0.07910541 -0.052603584 -0.019397229 -0.0051554567 -0.11538982 -0.18134333 -0.11134144 0.02308003
0.008314902 -0.021079494 -0.10271836 -0.07507509 -0.056954633 -0.04635221 -0.10744854 0.015318622
-0.02670864 -0.07477615 -0.055330895 -0.024824435 0.008890567 -0.123934835 0.12515205 -9.9126686e-05
-0.054557156 -0.05789346 0.14483967 -0.100650474 0.10455456 -0.0854578 -0.010668827 -0.06842465

weight f4 [256]
00000000: e9c5 733f 639e 503f a7f4 4c3f 384a 553f
00000010: 7e75 8a3f 6485 833f 335d a03f b39d 373f
00000020: 6892 803f 99d9 443f 66be 463f b97f 9e3f
00000030: f451 9d3f 2bf0 533f 2d0f 213f eb87 6c3f
00000040: 4e68 4b3f d410 423f 0882 5d3f 8a00 803f
00000050: 088d 463f 12f6 4a3f 5677 423f 405c 413f
00000060: 8205 3d3f f8d2 463f e757 a03f 7c9a 583f
00000070: b22a 973f a154 a43f 2e57 583f bd64 573f
00000080: 07ff 483f 0335 4b3f e52c 393f 1873 4c3f
00000090: 330c 723f cd71 8d3f 78f5 5a3f 6ec6 5b3f
000000a0: e47d 6c3f 065c 433f 4f91 903f ddce 433f
000000b0: c7ff 5b3f 42a4 813f 9d62 863f 41d0 693f
000000c0: 5af3 313f e7c6 3a3f f782 813f 9414 843f
000000d0: 339e 893f 543b 8b3f 178d 543f 8795 9e3f
000000e0: c18c ac3f bfa9 473f 0862 4c3f e63f e13f
000000f0: 4dbd 763f ce43 3f3f 0afe 553f 4e48 433f
00000100: cd34 893f 56e6 4c3f a9b9 433f 63d3 743f
00000110: 2351 3f3f 0436 843f 8570 4c3f 9eab 453f
00000120: b0f4 9f3f e7c1 393f e6a2 5c3f 6e02 873f
00000130: 2777 433f e2ba a43f 27c8 883f 9664 aa3f
00000140: 9b0d 4b3f 99ce 7a3f 882b 483f a3dc 453f
00000150: 44c9 bf3f 194f 443f 717b 5c3f c241 713f
00000160: 89a4 443f 458d c13f e27c 373f 3270 983f
00000170: 3b70 813f accb 573f 848a 563f 872b ab3f
00000180: f217 753f 79b6 403f 0ea0 453f b477 a83f
00000190: 2ec3 3f3f 22c4 6e3f 9780 3b3f bc1a 443f
000001a0: a0cb 7c3f ed71 cd3f d6b6 443f d03f 433f
000001b0: 6fd7 a83f d42d 3c3f fa53 853f 8f26 1f3f
000001c0: 9283 823f bcd4 443f f89e 2b3f 8795 413f
000001d0: d1ff 463f 5b1e 553f 8399 543f 4760 193f
000001e0: 5eeb 793f 05ef 3b3f 2d61 753f 7d60 443f
000001f0: 53ae 403f 50ba 3e3f b774 843f 9f23 7f3f
00000200: 2ef9 533f 0a3d 803f 9124 8c3f c035 3d3f
00000210: 1911 493f beda 793f 8a75 823f 8cc8 433f
00000220: 5eb4 ab3f 550d 393f 9277 a33f 5fec 7e3f
00000230: bb2b 903f 77c0 a63f 6391 7c3f 187a 613f
00000240: e8d1 953f 0d96 473f a013 0340 c890 a03f
00000250: 0c87 3f3f 0ee2 8e3f 08cd a13f 4030 423f
00000260: 0224 523f beea 6c3f 8037 3c3f d024 4f3f
00000270: 9f4b a63f 4f0d a23f ab45 843f 82a5 4a3f
00000280: ff70 403f cc53 873f aca4 863f 9003 4f3f
00000290: 7c9c 373f 03b8 403f 3a2b 443f 4502 2d3f
000002a0: 23dd 963f ff10 543f 320b 4b3f 38c7 443f
000002b0: 00fd 8e3f 49d1 e23f eaee 733f 9dfa 493f
000002c0: 45c1 603f 3e5d 3f3f cecc 383f cc95 4b3f
000002d0: 0f10 223f be69 493f a4cd 713f b2db 8f3f
000002e0: 9e4b a43f 5fc2 933f dba1 453f 456a 493f
000002f0: c273 9d3f 4b39 853f 0028 473f ad2e 8a3f
00000300: d78d 733f f0f2 893f 1254 5d3f c6b8 483f
00000310: 7344 693f f32d 483f db61 403f 4694 4f3f
00000320: 5014 423f 514c 623f 00c3 433f 9745 453f
00000330: 3e7b 443f cd36 9d3f b0e7 763f 1564 3f3f
00000340: 175d 903f c52b 8f3f 25ed 503f 91b2 993f
00000350: 3a53 9c3f 6296 8b3f a155 773f 8f07 383f
00000360: ed24 2b3f b588 3b3f 9671 4c3f 15c8 7d3f
00000370: c882 463f bdd8 463f e432 433f f971 8c3f
00000380: 801e 8c3f 8284 453f 4dc3 9c3f 4973 473f
00000390: 8a35 3b3f 99d2 ac3f b2b8 623f baf4 7f3f
000003a0: 80e9 6d3f bca0 9f3f 937e 443f c96b 743f
000003b0: 1709 443f 7eed 833f 9e7e 543f 7f28 b03f
000003c0: ff4e 383f 9f77 743f 3ad6 6f3f 5bac 5a3f
000003d0: f9a1 3e3f aec3 8f3f 6224 963f 2e71 563f
000003e0: 66e5 3c3f 306c a83f 8b91 9a3f 1bb3 5c3f
000003f0: c0d7 953f 5111 463f 5b4c 593f 554f 453f
0.9522386 0.8149168 0.8006081 0.83316374 1.0817106 1.0275083 1.2528442 0.71725005
1.004468 0.7689453 0.77634275 1.2382728 1.2290635 0.8278834 0.6291378 0.92394894
0.7945603 0.7580693 0.86526537 1.0000165 0.77558947 0.79281723 0.7596334 0.7553139
0.7383653 0.7766566 1.2526826 0.84610724 1.1809905 1.2838327 0.84508026 0.8413809
0.7851414 0.79377764 0.7233413 0.7986312 0.94549865 1.1050354 0.85530806 0.85849655
0.92379594 0.7631229 1.1294345 0.76487523 0.8593716 1.0128253 1.0498844 0.91333395
0.6951195 0.7295975 1.0118092 1.031878 1.0751404 1.087748 0.83027786 1.2389382
1.3480455 0.77993387 0.79837084 1.7597625 0.963826 0.74712837 0.8359076 0.76282203
1.0719239 0.80038965 0.7645517 0.9563505 0.7473318 1.0328984 0.7985919 0.7721499
1.2496548 0.72561496 0.86186063 1.0547616 0.7635369 1.2869532 1.0686082 1.3311946
0.79317635 0.97971493 0.78191423 0.7728979 1.4983296 0.76683193 0.86125857 0.94240963
0.7681356 1.5121237 0.7167493 1.1909239 1.0112375 0.84295154 0.8380511 1.3372658
0.9573966 0.7527843 0.7719735 1.316153 0.74907196 0.93268025 0.7324309 0.76603293
0.9874821 1.6050392 0.76841486 0.76269245 1.3190745 0.7350743 1.0416253 0.6216821
1.0196402 0.76887107 0.6703944 0.75618786 0.77734095 0.83249444 0.8304674 0.5991253
0.97624767 0.7341159 0.95851403 0.7670973 0.75266 0.7450304 1.0348119 0.9966373
0.82802093 1.0018628 1.0948659 0.7391014 0.78541714 0.975994 1.019212 0.76477885
1.3414419 0.7228597 1.2770865 0.99579424 1.1263345 1.3027486 0.9865934 0.88076925
1.1704683 0.77963334 2.0480728 1.2544184 0.7481544 1.1162736 1.2640696 0.75854874
0.82086194 0.9254569 0.73522186 0.80915546 1.2991828 1.2660311 1.0333761 0.79158795
0.7517242 1.0572448 1.0519004 0.8086481 0.7172315 0.7528078 0.7662846 0.6758159
1.1786236 0.82838434 0.7931396 0.76866484 1.117096 1.7720119 0.9528643 0.7889803
0.87794906 0.7475165 0.7218751 0.79525447 0.63305753 0.78676975 0.9445441 1.1238921
1.2835577 1.1543692 0.77200097 0.7867778 1.2300951 1.040811 0.7779541 1.0795494
0.95138305 1.0777264 0.86456406 0.7840694 0.9112007 0.7819511 0.75149316 0.8108562
0.75812244 0.883977 0.7646942 0.7705931 0.7675055 1.2282349 0.9644728 0.7476209
1.1278409 1.1185232 0.81611854 1.2007619 1.2212899 1.0905268 0.96615034 0.71886533
0.6685322 0.73255473 0.7986082 0.99133426 0.77543306 0.77674466 0.7624953 1.0972282
1.0946808 0.77155316 1.2247101 0.77910286 0.7312857 1.3501769 0.8856307 0.999828
0.9293442 1.2470927 0.76755637 0.9547697 0.7657637 1.0306852 0.830057 1.3762358
0.7199554 0.9549503 0.9368626 0.85419244 0.744659 1.1231592 1.1729853 0.8376645
0.73787534 1.3158016 1.2075666 0.86210793 1.1706467 0.7737017 0.84882134 0.77074176

bias f4 [256]
00000000: aee5 193c 19fd 423e 4250 733e f94d 463e
00000010: d7bf 173d bef3 383e 2e5e e73d 681d 653e
00000020: 1391 eb3c e5fb 7a3e 6ca8 383e e04e ec39
00000030: f4a5 ec3d 7185 3e3e 6284 4a3e c853 f63d
00000040: 3639 8b3e e1c0 613e a0fb 333d 779e debc
00000050: ce4d 693e e4ec 033d fc67 7d3e 4bb9 6b3e
00000060: 488c 673e 2f5f 603e 38f5 973d 8004 433e
00000070: ec72 193c fbbd 8fbd 3f5e 3f3e 5b67 433e
00000080: 476a 523e fa55 493e 2353 623e 07ca 883e
00000090: 922c 9a3d 5c27 c43d 4b44 2f3e 49f1 b93d
000000a0: 0c1d 703e 6e3d 7b3e 83a3 04bd 56a6 7b3e
000000b0: e76f 793e 4684 8d3d c5f0 993d 0d7a 163e
000000c0: f478 5f3e 6e9d 783e f815 043e dbc1 2d3e
000000d0: be57 583d 1ed8 203e 84f2 673e 7a91 093d
000000e0: a49f f83d 0bb2 553e 7019 383e 5497 953d
000000f0: f306 063e 5dec 6f3e 1ade 403e ffdb 723e
00000100: e58e 863d bca9 403e 3103 573e 7d79 0f3e
00000110: f876 723e 36ca e03c 515e 493e af56 7d3e
00000120: 7ead 6f3d 53f0 723e d1f7 5e3e 8183 673d
00000130: 8077 653e 6f46 543c 063e 9e3c 4227 523c
00000140: a80e 543e 8114 e13d 8586 813e d548 7e3e
00000150: e964 ae3c 8044 653e 36d4 d63d e7f3 c6bc
00000160: 54c3 743e 699a abbc ba2e 633e 1f4d c0bc
00000170: 3992 e93d 66c9 053e 24f2 873e 3d55 1dbc
00000180: 593b 483d 07c3 213e 2906 7d3e 8573 1f3e
00000190: 4f5b 6c3e 62e3 d43d 739f 6e3e 5f00 603e
000001a0: 09b5 823d 1ea2 873d eb8d 793e b827 6c3e
000001b0: 777c b03c 5d56 5f3e 0879 193d 862b 623e
000001c0: 1c98 c93d 5a22 793e 3307 6f3e edc0 7a3e
000001d0: 4978 603e b017 c33d c9e6 883e 2654 5b3d
000001e0: f32f 1e3e bf43 6f3e 2eec b7bc 5db9 793e
000001f0: 20b0 6a3e b631 633e 4b4f 303e d268 8e3d
00000200: ad2b ff3d 71cc ef3c 512c 293e d870 6a3e
00000210: 3c64 713e 14c4 db3d 359a 273e 50db 703e
00000220: 153e b9bc a0a6 703e b0ec 9a3c e663 653e
00000230: b991 233e 3496 f73c 4b69 a63d bd5d 4b3e
00000240: b733 5d3d 3c68 6c3d 8718 9f3c 19d0 8bbd
00000250: a4cc 773e dc76 a7bc 5427 383e d9ed 683e
00000260: 2b0f 333e c216 703e a05b 693e 95ad 833e
00000270: 1933 433e 889b b0bd 0b4f 213e b017 823e
00000280: b36a 703e ce25 5f3d 75db 603e 2447 7f3e
00000290: 889c 793e eb80 723e 72b8 733e 9dc2 cc3c
000002a0: a4b6 0a3e 1311 213e d366 083e cc72 773e
000002b0: 9739 7a3d d995 2d3d 8cd8 fe3d 0e72 433e
000002c0: c444 ee3d 898c 793e aec6 793e 45a6 653e
000002d0: 21ef 643e 85eb 263e f955 8d3d 8200 3a3e
000002e0: ffb4 273e c340 513c 651c 6a3e 58f2 573e
000002f0: d7e0 acbd f0de 523e 595a 133e d7c6 0c3e
00000300: 16c6 243e 2c1f 133d ff6b 063e c5f3 563e
00000310: 06d6 223e 4a71 593e e869 6a3e 11f1 783e
00000320: 3b00 8c3e b9a5 343e 19ba 6f3e 61da 4d3e
00000330: 6559 7c3e 774a 003e f379 a73d 9aae 743e
00000340: 8447 903d 692d dc3d 9643 273e d9a8 db3d
00000350: 5eea d23d 946d 49bd 6fd0 4a3d d778 bf3d
00000360: 8816 813e 6c42 743e 2bc9 893e 0d8d 213e
00000370: e90d 803e 3df9 873e fa98 733e a4cf 213e
00000380: 3d10 363d 33fc 243e 5c61 673d 4100 623e
00000390: aec9 743e e52b 013c 8566 993d 9f75 453e
000003a0: 85e8 933d c2a4 713d 0f07 793e 756a 293e
000003b0: 3702 7d3e 092f 233e 7bf9 603e 46bb e23d
000003c0: a87f 623e 2752 e2bd 8b4a 883d 17a3 1a3e
000003d0: b0eb 763e e392 a6bd 9613 8dbc a236 643e
000003e0: 2477 7d3e 8a1a 1d3e 3cf1 2d3c 1bb6 863e
000003f0: 1652 05bd a714 6f3e e5bf da3d e111 763e
0.009393139 0.19041862 0.23761085 0.19365682 0.037048187 0.1806173 0.1129726 0.22374499
0.0287557 0.24510153 0.18032998 0.00045072194 0.115550905 0.18605591 0.19777063 0.12027699
0.27192086 0.22046234 0.04394114 -0.027175171 0.22783586 0.03220834 0.24746698 0.23019902
0.22612107 0.2191131 0.07419819 0.19044685 0.009365778 -0.07018658 0.18688296 0.19082396
0.20548354 0.19661704 0.22102027 0.26716635 0.07528032 0.0957782 0.17115895 0.090792246
0.2344858 0.24535152 -0.0323825 0.24575171 0.24359094 0.06909995 0.07516626 0.14694996
0.21823484 0.24278805 0.12899005 0.16968481 0.052818052 0.15707442 0.22651106 0.033586003
0.12139824 0.20868699 0.17978454 0.07304254 0.13088588 0.23430009 0.18834725 0.23716734
0.06570224 0.18814749 0.20997311 0.14011188 0.23678195 0.027440172 0.19664885 0.24740098
0.058515064 0.23724489 0.21774222 0.056521896 0.22408867 0.012956246 0.019316684 0.012826743
0.20708716 0.10990239 0.25297943 0.2483247 0.021288352 0.22389412 0.10489695 -0.024286224
0.23902637 -0.020947652 0.22185794 -0.023474274 0.11404843 0.13065109 0.26551926 -0.009602842
0.048884723 0.15797053 0.24709381 0.15571411 0.23081706 0.10394932 0.23303013 0.21875142
0.06382186 0.06622718 0.24370544 0.23062027 0.021543724 0.21810289 0.03746894 0.22086915
0.09843466 0.2432951 0.2334259 0.24487658 0.21920885 0.095260024 0.26738575 0.053547047
0.15447979 0.23365687 -0.022451486 0.24387117 0.22918749 0.22186932 0.17217748 0.06953587
0.12459502 0.02927229 0.16520812 0.22894609 0.23573393 0.10730758 0.16367419 0.23521161
-0.02261261 0.23501062 0.01891169 0.2240139 0.15973558 0.03022299 0.08125552 0.19859977
0.054004397 0.057716593 0.019420875 -0.06826801 0.24199158 -0.020442419 0.17983752 0.22746982
0.17486255 0.23446181 0.22788858 0.2571837 0.19062461 -0.08623415 0.15752809 0.25408697
0.23478203 0.054479413 0.21958716 0.24929482 0.24376118 0.23681991 0.23800829 0.024995143
0.13546234 0.1572917 0.13320474 0.24164885 0.06109008 0.042379234 0.12443647 0.19086477
0.1163421 0.24370016 0.24392197 0.22426708 0.22356845 0.16300781 0.069011636 0.18164256
0.16377638 0.012771788 0.22862394 0.2108854 -0.08441322 0.20592856 0.14389934 0.13747726
0.16091189 0.0359184 0.13127135 0.20991428 0.15901956 0.21234623 0.22891963 0.2431071
0.27343926 0.17641343 0.23410834 0.20102836 0.24643476 0.12528406 0.08177557 0.2389473
0.070448905 0.10750849 0.16334376 0.107255645 0.10298608 -0.049176767 0.049515184 0.0934922
0.25212502 0.23853463 0.2691129 0.15776463 0.25010613 0.2655734 0.23788825 0.15801865
0.04444908 0.16111831 0.056489334 0.2207041 0.2390506 0.007884 0.07490257 0.1928315
0.07222084 0.058995016 0.24319099 0.16544516 0.24707876 0.15935911 0.21970169 0.11070876
0.2211901 -0.110508256 0.06654843 0.15101276 0.24113345 -0.08133485 -0.017221253 0.22286466
0.2475248 0.15342155 0.010616597 0.2631081 -0.032548986 0.23347722 0.10681132 0.24030258

weight f4 [256, 256]
00000000: 6c2b e43d d2a0 36bd d84d 36be a51b 66bd
00000010: 825d 8abc fb0c 6fbd f3d4 bdbe 6ded 85bd
00000020: 24cc 1dbd d8e1 6abd d01e 8f3c 829d 6a3e
00000030: 6f26 42bd 4dfe 6dbe e170 febc d3f6 03bc
00000040: 511b 2cbe f8c7 68bd cd75 973d a0b9 683d
00000050: 463e cfbd c722 083e 6ed3 25be a2de c4bd
00000060: 6184 92bd 663d 0bbe b456 a03b d864 66be
00000070: 8fb4 88bd 4585 043e 8a0e 08be 0365 0dbe
00000080: 7409 9abd b5c9 16bd 909c 53bd 00a8 3ebe
00000090: 1c06 193d 1288 66be 827e 18bd aaec 9dbc
000000a0: d7d0 4f3d f4e3 07be 7f35 bebd 985e bcbd
000000b0: bd19 93bd 1f7f d13c 2c01 e33e edcf 52be
000000c0: 7ed8 21be 0f6e 89be 3a70 803d abff 81be
000000d0: cf9e 8ebd e2af a33e a932 99bd 1fa2 c4be
000000e0: 2d40 1abd afd7 79bd 6b30 debd 743f a63e
000000f0: 353f 93bc 769e b33c 63e6 c0bd ccdc f2bd
00000100: bbf0 403d a117 fcbd 1399 20be ea82 b63d
00000110: 3b64 3ebd f95b b9bd a284 0bbe 6940 2dbe
00000120: fa91 0c3e 724e 94bd 2586 05bd 60a5 98bd
00000130: b64c 38be 0595 903e 698b cf3e 7c6e 713d
00000140: 75a7 ecbc 69a3 fcbd 3a18 02be 4ec2 c8bd
00000150: 6306 c93e a325 88bd 24bc 01be 8e48 e03d
00000160: e9a4 11be 1bed b53d 47c6 b3bd 5abc 243c
00000170: 113e 1bbc 6413 d8bc af3e 41bd 1eed 8d3d
00000180: 1257 723e 7b33 3abe 51a6 1bbe c071 1ebe
00000190: f609 24be 4ced 003e cbb5 c3bd 614d 9ebd
000001a0: 2313 e0bd e85a 173e f026 5abe 3fcc d3bd
000001b0: c55f b63d 0b75 f2bc 2c53 893e 84c0 2fbe
000001c0: 1708 1fbe 9fa0 16be 23a3 64be 04a0 33be
000001d0: 5d16 c9bd 6b3c 99bd 1c0c 2bbe cee0 693c
000001e0: 184e 69bd 4d0c 213b 457e 243e 585d bbbd
000001f0: 9699 0cbe b5cc 9fbd 67f4 f4bd 67f2 a1bd
00000200: 7850 2dbe 83ac 2fbe b726 0e3e 4cf6 01be
00000210: 8e27 2cbd e372 2b3e f801 11be d868 dcbc
00000220: cc5e 9e3e 6738 a3bc e3ed 4fbe fbea e03d
00000230: e351 c8bc 58c5 503e a329 49be fe4a 8d3d
00000240: f76f 3f3e d08f 033e c3f4 eabe 0506 173d
00000250: 6897 40be b9c0 ec3c d251 bdbd eff7 cdbd
00000260: 76d0 04be 0e14 93be 7399 abbb a2c2 efbd
00000270: 7884 423e b7d9 743c 2acd 913d 8b1f 1fbe
00000280: cf72 92bd 03ae e13e 4c38 afbd 6225 f8bd
00000290: f535 16be 6ded dfbd f4fe e4bd 52f6 c9bd
000002a0: 9aae 98bd 4045 ccbd 923a 813b cac2 f0bd
000002b0: 08c6 f0bd 6a6d 03bd 6fc2 673d 1c88 e6be
000002c0: adf1 afbd ab10 a1bd c9d9 41be 1415 c3bd
000002d0: 7fe9 18be 6535 bfbc 46c1 97bd 1a9f eabd
000002e0: 612d ccbe 02ef 04be 0cbb 41bd 0bb4 5abd
000002f0: 1463 da3e d49f 81be c87c ca3d 9d44 30bd
00000300: e7db 82bc 5606 05be 7b47 0abe 3628 26be
00000310: 5bf0 d33d 7311 00be 28d6 57bd 2728 073d
00000320: e384 18be a9f4 9bbd 0045 b8bd 4dd0 69bd
00000330: e14e b0bd d9ba d13e 4395 e5be 25ed 1ebe
00000340: 5eff f8bd 1eaf 65be 7e6e 79bd 41fc b3bd
00000350: 2c5b 30be f20d 88bb 1d46 a5bb 2cd4 11ba
00000360: ee6e 69be 4940 3ebe 3bf7 56be 6832 143d
00000370: 624d d8bd cf6e eebd e0d8 84bd 0b83 22bc
00000380: 873b 16be 47bf 43be ebac 91be 5e77 81bd
00000390: abd6 a9bd 4d08 803e 6a9e 003f 1e79 ef3d
000003a0: 8bcc 0bbf de9d 4fbd 6273 99bd e781 29bb
000003b0: 057b 0ebd 74a7 44be c267 913c e8ad 5e3e
000003c0: 81cc cdbd 766d fd3d 9ef6 883c 5a72 2cbd
000003d0: 07f9 86bd 646b e3be 8477 923c 0640 2abe
000003e0: cbbe acbd 7c96 40be f68f dabe f3d7 babd
000003f0: e782 3dbe 676b 38bd 6c87 0ebe f967 05be
0.111410946 -0.044586964 -0.17803133 -0.056178708 -0.016890291 -0.05836199 -0.3707653 -0.06539426
-0.03852476 -0.057344288 0.017470747 0.22911647 -0.047399934 -0.2324154 -0.031059684 -0.008054453
-0.16807295 -0.05683133 0.073955156 0.05681765 -0.101192996 0.13294517 -0.16193935 -0.09612776
-0.071541555 -0.1359764 0.0048931483 -0.22499406 -0.06675064 0.12941463 -0.13286796 -0.13808064
-0.07521334 -0.036813457 -0.05166298 -0.18618774 0.037359342 -0.22512844 -0.037230022 -0.01927789
0.050736275 -0.13270551 -0.09287547 -0.0919773 -0.071826436 0.025573311 0.44336832 -0.2058713
-0.15805241 -0.2684178 0.062714055 -0.25390372 -0.06963884 0.31970125 -0.07480366 -0.3840494
-0.03765886 -0.060996708 -0.10849079 0.32470286 -0.017974475 0.021926146 -0.09418943 -0.1185852
0.04710458 -0.12309194 -0.15683393 0.089116886 -0.046482306 -0.090507455 -0.13624814 -0.16919102
0.1372756 -0.07241525 -0.032598633 -0.07453418 -0.17998013 0.28238693 0.4053605 0.058943257
-0.028888443 -0.123358555 -0.12704554 -0.09802686 0.39262685 -0.06647804 -0.12669426 0.10951339
-0.14223064 0.08883115 -0.08778053 0.010054672 -0.009475247 -0.026376434 -0.04717892 0.06929992
0.23666027 -0.181837 -0.15200163 -0.1547308 -0.16019425 0.12590522 -0.09556159 -0.077296026
-0.1094115 0.14780772 -0.21303916 -0.10341691 0.08904985 -0.029596826 0.26821268 -0.17163283
-0.1553043 -0.1470971 -0.22327857 -0.1754151 -0.098187186 -0.07482227 -0.16703838 0.014274789
-0.05695924 0.0024573982 0.16063793 -0.09148663 -0.13730463 -0.07802717 -0.119606785 -0.07907563
-0.16925228 -0.17155652 0.13881956 -0.12691611 -0.04202991 0.16743045 -0.14160907 -0.026905462
0.309317 -0.019924356 -0.2030559 0.10982319 -0.02445311 0.2038778 -0.1964479 0.06899069
0.18695055 0.12847829 -0.45889863 0.036870975 -0.18807757 0.028900491 -0.092441216 -0.10057055
-0.12970147 -0.28726238 -0.0052367984 -0.11707045 0.18995845 0.014944485 0.0711921 -0.15539376
-0.07150804 0.44078073 -0.0855566 -0.12116505 -0.1466902 -0.10933957 -0.11181441 -0.09861435
-0.074551776 -0.09974146 0.0039437497 -0.11755903 -0.117565215 -0.032086767 0.05658191 -0.45025718
-0.08591018 -0.07864507 -0.18930735 -0.09525505 -0.14932822 -0.02334089 -0.07409911 -0.114561275
-0.3987837 -0.12981799 -0.047297522 -0.05339436 0.42653716 -0.25317252 0.098870814 -0.043034185
-0.015973998 -0.12990698 -0.1350383 -0.16226277 0.103485785 -0.12506656 -0.05269447 0.032997277
-0.14894442 -0.076150246 -0.08997536 -0.057083417 -0.08608795 0.40962866 -0.4484044 -0.15520151
-0.121580824 -0.22430083 -0.06089639 -0.08788348 -0.1722228 -0.004152053 -0.0050437585 -0.0005562927
-0.22796223 -0.1857921 -0.20992748 0.036180884 -0.105616346 -0.11642229 -0.06486678 -0.009918938
-0.14671145 -0.19115935 -0.28452238 -0.063215956 -0.08292898 0.25006333 0.5024172 0.11693023
-0.5460898 -0.050687663 -0.07492711 -0.0025864781 -0.03478529 -0.19204503 0.01774967 0.21746027
-0.10048772 0.12374394 0.016719159 -0.04210124 -0.06590467 -0.4441787 0.017879255 -0.16625986
-0.08434828 -0.18807405 -0.42687958 -0.0912322 -0.18506967 -0.0450243 -0.13918847 -0.13027944

bias f4 [256]
00000000: 710f 583d dcc6 2bbc 0de3 a9bd 50b3 adbc
00000010: 0ff4 19be a3da 6d3e a0bb 68bd b6f5 92be
00000020: 6808 38be 82c4 f33d ced4 e3bd 10d7 89ba
00000030: 0c71 22be 9a8b 40be 1ad8 33bd 8f38 81be
00000040: d327 d73d 9224 a6bd c485 0bbe 114a 9dbd
00000050: dc72 05be 7d64 673d 4f86 fe3b 7a3e 043d
00000060: 9ec1 69bd fffc 3cbd 6ce7 38be 45c9 1bbe
00000070: 6b29 353d ab64 03be bdd0 77be 04d5 1f3d
00000080: f03b edbc 4b5f 30be 2a89 93be 0cde 5ebb
00000090: 55cd 48be 9b2a 55bd 6033 40be ac62 aebd
000000a0: c34d c43d 72f7 bebe 0c6b 783d c0a3 5bbe
000000b0: 0488 293e 9144 ecbd 5da1 8dbe bef3 323e
000000c0: d90f e23d cbc2 aa3c 2e05 3a3d 3fc6 5e3d
000000d0: 851f 883d 45f7 52bd c5c5 41be 789c b53d
000000e0: 5143 f4bd 654c 39be 8a2a 7d3d 087c 65be
000000f0: 99c8 a13d 0988 70be 0132 1d3d 0119 793d
00000100: b8ec cbbd 3a77 14be 77bb 44be 4a1e 74be
00000110: 0154 1dbd 3645 333e eb36 893e f972 b1bb
00000120: d2e4 99be 8f25 84bd d79e 0bbe 3262 f6bd
00000130: b603 533e 29aa 98be 07ed 01be 2ea8 aa3d
00000140: 90b8 a33d d318 b93d f167 88bc 13b7 93be
00000150: cd37 fbbd d4b0 76bd 546c 3e3d 8f20 b63d
00000160: bbe2 e4bc 0a09 0e3e b57b 9cbe 6437 97be
00000170: 8e18 8bbc 0916 0abe e2bd 383e 4bba 6ebd
00000180: 21de 4abe 2834 7d3d 79ae 00be 0258 7cbe
00000190: e7fd 29bd d9e1 5b3e 14cd 3cbd 7695 55be
000001a0: f1f3 46be dd36 0dbe 3702 ea3d 193b 40be
000001b0: 748d ab3c 3b80 1c3a 3d2e a4be 926b 58be
000001c0: 3af5 5cbe 96ed ddbd ab20 aa3c 2124 43be
000001d0: cd4d 9abe 0a9c 70be 304a 18be 712e 68be
000001e0: b90b 02bd 9897 84be f101 5abd 47b4 3a3d
000001f0: 1770 0bbe eec3 073e b36d acbe ef4b 73bd
00000200: 7374 3dbe ce4a 00be 2a4b b13c 7628 11be
00000210: 4296 e73d 9bc1 8ebe 6ebc 8bbe 0136 04be
00000220: 56b6 273c 956c 03be 5947 8fbe 4f22 efbd
00000230: 2bfe c5bd 7f1c 273e 3f85 d1bd 971a a0bd
00000240: 180a 613d b492 673e 7776 903d 57fa 64be
00000250: a277 88be 3393 95be f6e0 893d 26dd 41be
00000260: bc58 63be e9be 96be f893 b7bb ba9d 40be
00000270: ff48 4abe 9bbf 58be 75fe 28be cbe1 87be
00000280: 4bcb b0bd a9ef 47be 5c92 5dbe 27ee 473d
00000290: 9200 063c 583d 68be c84d 3abe 21a6 d3bd
000002a0: 405c 6c3d 7497 053c 3c2f 47be f255 8dbd
000002b0: 6b5f 46be 1399 d2bd 05d3 56be 3e91 62be
000002c0: 1516 d13d 90d7 29be 2d04 72bc e749 42be
000002d0: 0dc0 71be 8d1b 41bd 0d6d c4bc 4c19 763d
000002e0: 488b 8f3d 0986 3dbe 5c7b 5dbe 1529 a8bd
000002f0: fc57 bfbd 28e1 19be fb58 60be c48a 89bb
00000300: 1dd0 b5bd 1b19 ffbd 68cd a53d de54 83bd
00000310: c2d6 e13d e940 81be 3eb3 6dbe f2d2 babe
00000320: 5e93 79bc 01fe 4ebe 3e54 dbbd de02 3ebd
00000330: cb50 d83c 789f 81be 0cdf 13be 54a1 34be
00000340: 46fd 8bbe e3ab cfbd 6e60 11be 7ce6 92bd
00000350: 9541 53be da78 67be a88f 43be 2326 14bd
00000360: cb71 32be d752 14be 26ee 99be 56a7 e73d
00000370: 703d febd bccc 1cbd f7c4 3ebd 3d21 b1bd
00000380: 9f1d d7bd f5f9 b93b 51d8 7bbc dfd0 70bd
00000390: c620 1bbe 19a2 33be 164c f2bd 1034 6f3c
000003a0: 6131 b9bd 5208 0abe 28db 07be 36f6 513e
000003b0: 36a4 fabd 1e4f 6dbe c213 173d 321b c7bd
000003c0: 3d75 3ebd 06da a5bd c126 91bc 74f9 51be
000003d0: ec15 2c3e 54d7 01be 3409 7ebe d35f f2bd
000003e0: 2e14 4bbd 77cf 9abe 99c1 69be f1d6 40be
000003f0: fa20 21be 7581 323e 69ed 15be 5a70 b7bd
0.0527491 -0.0104844235 -0.082952596 -0.021203667 -0.15034507 0.23227935 -0.05681956 -0.28703088
-0.17971957 0.11902715 -0.11124574 -0.0010516364 -0.15863436 -0.18803254 -0.043907262 -0.25238463
0.10505643 -0.08112444 -0.13625246 -0.07680143 -0.13032097 0.056492317 0.0077674757 0.032286145
-0.057069413 -0.046139713 -0.1805703 -0.15213497 0.044228952 -0.1283137 -0.24200721 0.039021507
-0.028959244 -0.17223851 -0.28815585 -0.0034006862 -0.19609578 -0.052042585 -0.18769598 -0.08514914
0.09585144 -0.3729816 0.060648963 -0.21449184 0.16555792 -0.115365155 -0.27662173 0.17475793
0.11038179 0.020844838 0.045415096 0.05438828 0.06646637 -0.051505346 -0.189231 0.08867735
-0.11926902 -0.18095548 0.061808147 -0.22410595 0.07899589 -0.23489393 0.038377766 0.06081486
-0.0995726 -0.14498606 -0.19212137 -0.2383968 -0.03841019 0.1750687 0.26799712 -0.005415317
-0.3005739 -0.06452476 -0.13634811 -0.12030448 0.20606884 -0.29817322 -0.12688075 0.08332859
0.07994187 0.09037938 -0.016651126 -0.28850612 -0.122665025 -0.06022723 0.04649003 0.08892929
-0.027940145 0.13870636 -0.3056313 -0.29534447 -0.016979482 -0.13484968 0.18041185 -0.05828313
-0.19811298 0.06181732 -0.12566556 -0.24642947 -0.041501906 0.21472873 -0.046094015 -0.20857796
-0.19428994 -0.1379046 0.11426204 -0.18772544 0.020941474 0.00059700356 -0.32066527 -0.21134785
-0.21577922 -0.108363315 0.02076753 -0.19056751 -0.30137482 -0.23497024 -0.1487205 -0.22673966
-0.03174946 -0.25896907 -0.053224508 0.045582082 -0.13616978 0.13258335 -0.33677444 -0.059398588
-0.18501453 -0.12528536 0.021642286 -0.14175591 0.11307956 -0.27882084 -0.27292198 -0.12911226
0.010236343 -0.1283439 -0.2798412 -0.11676466 -0.09667619 0.16319464 -0.10230493 -0.078175716
0.054941267 0.22614557 0.070538454 -0.22361122 -0.26653773 -0.29213867 0.06732361 -0.18932018
-0.22201818 -0.29442528 -0.005602356 -0.18810168 -0.19754408 -0.21166842 -0.16503318 -0.26539454
-0.08632525 -0.19525017 -0.21637863 0.048811104 0.008178847 -0.22679651 -0.18193734 -0.10334421
0.057705164 0.008153785 -0.19451612 -0.069011584 -0.19372337 -0.10283103 -0.20978935 -0.22125718
0.1020929 -0.16586137 -0.014771503 -0.18973504 -0.23608418 -0.047145415 -0.02397778 0.06008272
0.07008988 -0.18508162 -0.21629089 -0.08210961 -0.093429536 -0.15027297 -0.21908943 -0.0041974504
-0.08877585 -0.1245596 0.08095819 -0.064126715 0.1102729 -0.25244835 -0.23212907 -0.36489064
-0.015232889 -0.20214082 -0.10709427 -0.046389453 0.026405713 -0.25316978 -0.14440554 -0.17639667
-0.2734167 -0.10140207 -0.14196941 -0.07172868 -0.20630486 -0.22604695 -0.1909777 -0.036169183
-0.17426221 -0.14484726 -0.30064505 0.11311214 -0.12414062 -0.038281187 -0.04657456 -0.08648918
-0.10503697 0.005675549 -0.015371398 -0.058792945 -0.15149221 -0.17542304 -0.118309185 0.014599815
-0.090426214 -0.13479736 -0.13267195 0.20504078 -0.12238352 -0.23174712 0.036884077 -0.09721984
-0.046498526 -0.08098225 -0.017718675 -0.20505315 0.16805238 -0.12679797 -0.24808198 -0.11834683
-0.04957979 -0.30236408 -0.22827758 -0.18831994 -0.15735236 0.17432196 -0.14641346 -0.08956976

weight f4 [256]
00000000: f43d 923f f181 873f d387 9b3f 3dc8 9f3f
00000010: 903e 833f 6c97 883f a52a 8e3f bd55 883f
00000020: 08f1 8e3f b453 373f 267f 963f f905 a23f
00000030: 4ead 923f e9a1 923f d7ed b73f d744 8c3f
00000040: b29d 873f 67b9 ed3f f501 943f 184e bc3f
00000050: 17ec 843f f63c 703f d56a a33f b7d4 b73f
00000060: d517 9c3f f7dc 8a3f 5a7c 8c3f e483 823f
00000070: 3dba 823f c5c7 903f 3a81 8d3f b12a 803f
00000080: 5ca7 843f c8de 8e3f a3a3 8d3f e07f 903f
00000090: 253d 803f f3ce 883f bd22 903f 3edc 8a3f
000000a0: 8ff3 963f 5c06 8b3f 17f1 873f 4bf5 853f
000000b0: b61e 883f 1a32 9e3f 82f4 863f 5a96 743f
000000c0: ad30 8b3f fb1d 8d3f 19fb a23f 6f89 873f
000000d0: 3d0a a83f 5954 8f3f 4845 8d3f ec86 983f
000000e0: 6548 863f 67d6 a23f d3bb a33f 0c68 883f
000000f0: c3c3 853f c20e 693f a5be 923f b06d 923f
00000100: a684 ab3f bad6 7a3f 1ac8 853f 51d2 9a3f
00000110: e0de 843f a2b4 8c3f 832f 6e3f 1e4a 763f
00000120: b1b1 8a3f 015d c93f 7811 8f3f 9c16 7d3f
00000130: 6782 6f3f e992 843f 4948 8c3f e0f5 a43f
00000140: a8c1 853f 7219 973f 8602 9b3f afd3 8d3f
00000150: 3b51 7c3f c8a6 8e3f b875 b33f 8f4b 853f
00000160: 77db b83f d80a 633f e095 8e3f 2baf 763f
00000170: 816a 953f 69f0 853f 4517 773f 209d a23f
00000180: 3c18 983f f035 a13f 74ec 8a3f b698 8e3f
00000190: dc35 a73f 16f1 723f 4176 d13f a587 8b3f
000001a0: 6909 8e3f 0838 bd3f 6e9c 7e3f 6975 803f
000001b0: c412 843f 3a6e 9e3f 4908 a33f 3ae0 8d3f
000001c0: df49 833f c36a 8e3f e703 943f 2294 863f
000001d0: e9c4 8c3f 8e74 7e3f e64d 8f3f b8e8 953f
000001e0: 6fb1 b23f d026 8e3f 4623 a33f 63b4 753f
000001f0: 6d6f 883f 78aa b43f 3201 863f c6cb 8a3f
00000200: b772 8c3f c3cf b33f 6751 873f 6b88 803f
00000210: feb3 873f d7ba 8d3f 1617 813f e845 8e3f
00000220: d9a0 863f 7ed7 8d3f b70f 733f c93c 883f
00000230: abdb d93f 1cc4 8c3f 1d9b 853f 84dd 893f
00000240: 85a5 913f c78f 8c3f 1f69 8a3f f6ca 8a3f
00000250: 8c1e 873f c7f8 8e3f 2a51 af3f bdcb 8d3f
00000260: eac2 853f 2859 8f3f a41b 983f 5819 8f3f
00000270: a584 8c3f 02d3 8e3f 6dbe 8a3f 7716 823f
00000280: d9e4 6b3f 944c 8d3f f30b 8c3f 7c4d af3f
00000290: 4629 7c3f 0106 8e3f d649 803f d0f2 8c3f
000002a0: 948d 863f 8e38 9a3f d188 8c3f 639b a63f
000002b0: e37d 893f fc6a bf3f 9e27 8d3f 9190 913f
000002c0: f7c2 833f 918a 813f 3048 7b3f e085 943f
000002d0: 087e 8e3f b02a a03f 2834 873f 3bc6 8c3f
000002e0: bcc0 cd3f d977 e83f bc89 8b3f ee90 903f
000002f0: 46da 8b3f 7497 8d3f 4f29 8c3f 258c 843f
00000300: 9231 d03f 77cc 8f3f 4c62 9a3f 7f80 843f
00000310: a698 973f 9b95 8e3f 62c4 873f bf94 8a3f
00000320: 0875 923f 8840 b73f 8cb8 b13f 1352 aa3f
00000330: 0ed1 863f a5ec 743f bfd9 9d3f a6a2 863f
00000340: 322d 873f 9289 883f cad7 9d3f aadb 893f
00000350: 3524 833f 06bb 8d3f 4167 893f 8995 8e3f
00000360: 141c 893f b191 913f 4504 863f f4ac 9f3f
00000370: 955f ae3f 0e58 873f 5f18 643f d36e 833f
00000380: 5e67 933f 89fe 893f e704 713f 42b0 af3f
00000390: a8ba b43f f87f b63f e55b 8a3f 4940 9e3f
000003a0: ba7d ba3f e4a8 8c3f a34b 923f 3853 813f
000003b0: 8611 873f 260d 8a3f 3eae 8d3f adfb cd3f
000003c0: 3689 933f d906 9d3f 9d44 8d3f 25d3 823f
000003d0: 877e 953f 1572 8b3f def8 753f 1a4b 8e3f
000003e0: c74b 963f 72cb 8e3f 8253 883f ce59 853f
000003f0: deb2 803f d5c3 883f 418d 8b3f dd8e 963f
1.1425157 1.058653 1.2150825 1.2482983 1.0253468 1.067121 1.1106764 1.0651165
1.1167307 0.71612096 1.1757553 1.2658073 1.1459138 1.1455661 1.4369458 1.0958508
1.0595 1.8572205 1.1563097 1.4711332 1.0384549 0.9384302 1.2766978 1.436179
1.2194773 1.0848683 1.0975449 1.01965 1.0213085 1.1310965 1.1055062 1.0013028
1.0363574 1.1161737 1.1065563 1.1289024 1.001866 1.0688156 1.1260601 1.0848463
1.1793078 1.0861316 1.062045 1.0465482 1.0634372 1.235904 1.0543368 0.9554192
1.087423 1.1024774 1.2732879 1.0588816 1.3128124 1.1197616 1.1036768 1.1916175
1.0490843 1.272168 1.2791694 1.0656753 1.0450367 0.91038144 1.146443 1.1439724
1.3399856 0.97983897 1.0451691 1.2095433 1.0380516 1.0992625 0.9304125 0.96206844
1.0835477 1.5731508 1.1177206 0.98862624 0.93558353 1.0357333 1.095956 1.2887535
1.0449724 1.180464 1.2110145 1.1080226 0.9856145 1.1144648 1.40203 1.0413684
1.4441975 0.8868842 1.1139488 0.96361035 1.1673127 1.0463992 0.9651988 1.2704201
1.1882396 1.2594585 1.085341 1.1140354 1.3063312 0.9489912 1.6364213 1.090077
1.1096622 1.4782724 0.9945744 1.0035831 1.0318227 1.2377388 1.2736903 1.1084054
1.0256919 1.1126331 1.1563691 1.0513957 1.0997592 0.993966 1.1195648 1.1711645
1.3960398 1.1105595 1.274514 0.95978373 1.0659004 1.4114523 1.0469115 1.0843437
1.0972508 1.4047779 1.0571717 1.0041631 1.0601804 1.1072644 1.008517 1.1115084
1.0517837 1.1081388 0.94945854 1.064355 1.7020162 1.0997348 1.0437962 1.0770726
1.1378638 1.0981377 1.081333 1.0843189 1.0556197 1.1169671 1.3696644 1.1077801
1.0450108 1.1199083 1.1883435 1.1179609 1.097798 1.1158144 1.0839363 1.0163106
0.9214607 1.1038995 1.0941147 1.3695521 0.9850048 1.1095582 1.0022533 1.10116
1.0511956 1.2048509 1.0979253 1.301617 1.0741543 1.4954524 1.1027715 1.1372243
1.0293874 1.0120412 0.98157024 1.1603355 1.1132212 1.2513027 1.0562792 1.0997995
1.6074443 1.8161575 1.0901408 1.1294229 1.0925987 1.1061845 1.0950106 1.0355269
1.6265128 1.1234273 1.2061248 1.0351714 1.184346 1.1139406 1.0606806 1.0826644
1.1441965 1.4316568 1.3884444 1.3306297 1.0532548 0.9567359 1.2332076 1.0518386
1.0560668 1.0666983 1.2331479 1.0770161 1.0245425 1.10727 1.0734636 1.1139385
1.0711694 1.1372586 1.0470053 1.2474656 1.3622919 1.0573747 0.8909969 1.0268196
1.151592 1.0780803 0.94148105 1.3725665 1.4119463 1.4257803 1.0809294 1.2363368
1.4569619 1.0989041 1.1429332 1.0103521 1.0552223 1.0785263 1.10688 1.609243
1.1526248 1.2267715 1.1036564 1.0220686 1.1679238 1.089419 0.96082866 1.1116669
1.1741875 1.1155837 1.0650485 1.0418031 1.0054586 1.0684763 1.0902482 1.1762348

bias f4 [256]
00000000: e025 203e a332 adbd 5029 1d3e c9de 3e3e
00000010: 7b3e 14be 0f5d 8d3d 8d5a f1bd de79 77bd
00000020: d641 0abe aadf c3bd 1c29 253e f15f 10be
00000030: 61df 1dbe a377 293e cf47 6d3e c4cc 08be
00000040: a3dd bd3d 0ead 4e3e eb3a d3bd b180 1e3e
00000050: 63c3 0dbe c9c7 7f3d ce3d 4b3e 78d2 2abe
00000060: c82c 063e be10 06be 4305 0cbe a50d 0fbe
00000070: 8913 fabd 9848 8ebd 68b5 02be 084e 133e
00000080: 3508 423e cefe 09be 969a 06be 581b 303e
00000090: 11f7 853e 746c 06be 90d3 04be 1942 08be
000000a0: 7650 8e3d 9d51 f3bd 2be1 213e 1fa7 17be
000000b0: 0a12 113e 74ae 5d3e 5a84 8fbd b9c5 c03d
000000c0: b1f4 f6bd fd05 fdbd e942 273e 5351 c43d
000000d0: d6b2 3c3e 1e56 eabd ceac 07be 43c9 65be
000000e0: 946b 0abe 88ee 0fbe 83f5 1c3e 7ee4 eabd
000000f0: a2e3 f63d b66e ae3e 2aae a5bd 49c7 133e
00000100: eefe 71bd d8c7 ffbd 9ac6 48bd adfd eebd
00000110: 3187 edbd 955c e33d 7738 ba3d efaf 01be
00000120: eca2 ecbd a088 80bd d16c 4a3e 7427 24be
00000130: e313 e13d 1c5e d9bd 9297 01be 8956 243e
00000140: 6db7 013e d070 333e 60e0 813e 1a04 05be
00000150: 4af8 15be 963b 09be 2f43 143e 8dfc 08be
00000160: 2e86 343e 143b 6f3d c2c3 07be 492f 0bbe
00000170: 2d49 5e3e 57b3 0dbe f4c8 bc3d 544b fdbd
00000180: d899 cdbd f2ad 213e 78bb 0ebe b492 08be
00000190: 07b3 e1bd fcaa da3d 3696 043e cf6c ffbd
000001a0: f705 0ebe 7379 2f3e 243c bc3d 1f18 15be
000001b0: c51e f53d de3a 983d ffe7 2dbd 172f 08be
000001c0: 74a7 fbbd 90fa 0cbe 5cbf 7cbe 5d8d abbd
000001d0: 1fb5 f1bd a8f2 0ebe fa58 0dbe 6eda 06be
000001e0: 4b61 0abe 1bcd 05be 4f39 873e fcea e63d
000001f0: 1f9d 1bbe fe74 b1bd 3735 0abe a4df 0f3e
00000200: 8e9b 03be 015c 343e 211c 13be 920d a0bd
00000210: e198 1bbe 6e0e 02be a1d8 20be fd2b 06be
00000220: c8f3 9ebd 47f4 0fbe 0698 04be 17e2 fcbd
00000230: 5d1f b1bd 94ee d43d 3cfe 1cbe 9d60 c5bd
00000240: 6d06 d73d 99c6 b63d b610 d93d 269a 02be
00000250: fea4 08be a0c5 0ebe 348e e53d ae22 cabd
00000260: 3fa9 11be b815 0cbe 2799 2a3e beec 09be
00000270: a0c2 0bbe 47d7 0bbe 0b20 edbd 2810 15be
00000280: a51f 61bd 48bc c9bd 2460 e4bd 8a7c 85be
00000290: f28d d13d 6144 f1bd bf93 ebbd 3f61 11be
000002a0: ecaa 14be 32c7 06be 9246 0cbe 7d61 08be
000002b0: 700c 0abe 2d61 283e f8fa c1bd 752e 0bbe
000002c0: 53bf e63d 5c3c 08be b893 d63d 6bd2 f4bc
000002d0: 55ac 0cbe 550b 53be d715 433e 34d4 0c3e
000002e0: e9ba 32be 91fc 9d3d 6bca f0bd cf73 10be
000002f0: c3a6 01be 7676 06be 7eb9 01be eb5e 05be
00000300: 61d8 1fbe 2888 ffbc b0e6 ba3d dd0f 17be
00000310: 8605 123e 372d 0abe 3bed 6b3e 0f9b e9bd
00000320: d1f6 253e 1edd 9bbd ebb7 253e 8973 26be
00000330: 9f65 19be b805 d0bd b77c 473e 1e0d 1bbe
00000340: df89 a8bd f981 cebd 012c fabd a699 00be
00000350: efb3 16be b20f 0abe a6d4 f6bd ce80 09be
00000360: c093 62bd 034d 18be 79b1 85bd 6a2f f43d
00000370: 106c 343e c9ff a3bd dd08 ea3d aa3e 0fbe
00000380: 4f0d 0dbe 4257 0fbe 9e67 e23d d99b a43d
00000390: 73b7 2bbe 14cf 0abe c62e fdbd 5589 4a3e
000003a0: cfa3 373e 0389 0dbe 73cb 08be b91c d13d
000003b0: d145 19be 8623 fabd 1e9a 953d 8247 d53d
000003c0: 9945 33be a9ea debd 9ba7 803e 0817 1abe
000003d0: b8d4 1c3e 8c2f ecbd 5156 0abe fa87 03be
000003e0: cc60 b4bc 1769 c1bd 80c3 0dbe c035 f3bd
000003f0: dc7d 0bbe 474d 483d 035f 0ebe f3df b2bd
0.15639448 -0.08456924 0.1534779 0.18639673 -0.1447696 0.06902515 -0.11784849 -0.060418956
-0.13501677 -0.09564145 0.16128963 -0.14099099 -0.15417244 0.16549544 0.23171924 -0.13359362
0.092707895 0.20183203 -0.10313972 0.1547878 -0.13844065 0.06244639 0.19847795 -0.1668185
0.1310302 -0.13092324 -0.13673882 -0.13970049 -0.12210757 -0.0694744 -0.12764513 0.14385235
0.18948443 -0.13476107 -0.13144907 0.17197931 0.2616506 -0.13127309 -0.1297133 -0.13306464
0.069489405 -0.11880801 0.15808551 -0.14809845 0.14167038 0.2164858 -0.07007666 0.094127126
-0.1205839 -0.12354658 0.16334118 0.09585824 0.18427595 -0.11442207 -0.13249514 -0.22440057
-0.135176 -0.14055836 0.1532803 -0.11469363 0.12055136 0.3406884 -0.0808986 0.1443149
-0.05908101 -0.12489289 -0.049017526 -0.116694786 -0.11598051 0.11101643 0.09092801 -0.1266477
-0.115545124 -0.06276059 0.19768073 -0.16030675 0.10990121 -0.10613653 -0.12655476 0.16048636
0.12667628 0.17523503 0.25366497 -0.12989846 -0.14645496 -0.13401636 0.14478754 -0.1337759
0.1762931 0.05840595 -0.1325827 -0.13592257 0.21707602 -0.13837944 0.09218016 -0.12367883
-0.10039109 0.15789011 -0.13938701 -0.13337213 -0.11020475 0.10677144 0.12947926 -0.124719255
-0.13869463 0.17136173 0.091911584 -0.14559983 0.119687594 0.07433103 -0.042457577 -0.13299213
-0.122877985 -0.13767457 -0.24682373 -0.08376572 -0.11802124 -0.13959754 -0.13803473 -0.13169262
-0.13513677 -0.13066523 0.2641091 0.112752885 -0.15196656 -0.086648926 -0.13496862 0.14050156
-0.12852308 0.17613222 -0.14366199 -0.07815088 -0.15195037 -0.12700817 -0.15707637 -0.13102718
-0.07761341 -0.14058028 -0.12948617 -0.12347811 -0.0864856 0.10397068 -0.15331358 -0.09637568
0.104992725 0.08924598 0.105988905 -0.12754115 -0.1334419 -0.13942575 0.11208764 -0.09869896
-0.14224719 -0.1368016 0.16659985 -0.13469216 -0.13648462 -0.1365634 -0.11578377 -0.14556944
-0.05496182 -0.09850365 -0.1115115 -0.26071578 0.10232152 -0.1178062 -0.1150279 -0.14197253
-0.14518327 -0.13161924 -0.13698795 -0.13318439 -0.13481307 0.1644332 -0.094716966 -0.1359194
0.11266961 -0.13304275 0.10477394 -0.029885491 -0.13737614 -0.20609792 0.190513 0.13752824
-0.17454113 0.07714189 -0.11757358 -0.14106677 -0.12661271 -0.13131127 -0.12668416 -0.1302449
-0.15609886 -0.031192854 0.091260314 -0.14752145 0.1425992 -0.1349381 0.23039715 -0.11406528
0.16207434 -0.07610534 0.1618344 -0.1625501 -0.14980172 -0.10157341 0.19481169 -0.15141723
-0.08229422 -0.10083384 -0.12215424 -0.12558612 -0.14717077 -0.1348255 -0.12052278 -0.13428041
-0.055316687 -0.14873128 -0.06527991 0.11923106 0.17619348 -0.080077715 0.11427472 -0.13988748
-0.13774608 -0.1399813 0.1105492 0.08037538 -0.16769199 -0.13555557 -0.12362437 0.1977895
0.17933582 -0.13821797 -0.1335886 0.102105565 -0.14968039 -0.12213807 0.07304786 0.1041403
-0.17507018 -0.108846016 0.25127873 -0.15047848 0.15315521 -0.11532506 -0.1350949 -0.1284484
-0.022018813 -0.094438724 -0.13844109 -0.118754864 -0.1362223 0.048901822 -0.13903432 -0.08734121
