player_model_ts.pt (torch, 157837 bytes, 8 tensors)

weight f4 [128, 84]
0	0x3e2cea0d	0.16886158
1	0x3da2a889	0.07942302
2	0xbd6d517d	-0.05793904
3	0x3d88a2c4	0.0667167
4	0x3d704660	0.058660865
5	0xbc541ff6	-0.012947073
6	0xbd6ab541	-0.057301763
7	0xbd504534	-0.050847247
8	0xbd061ebd	-0.032744158
9	0xbda54b05	-0.080709495
10	0xbd6ad03c	-0.057327494
11	0x3c13a9aa	0.009012619
12	0x3d0cf995	0.034417707
13	0x3cd27fc1	0.025695683
14	0xbdbfe49e	-0.09369777
15	0xbcf7d1b9	-0.03025137
16	0x3ce59471	0.028024884
17	0xbdcc7ac1	-0.09984351
18	0x3ddd806f	0.108155124
19	0xbc76df11	-0.015067832
20	0xbd4dffb6	-0.050292693
21	0xbdcd1236	-0.10013239
22	0x3d300062	0.042969115
23	0xbcb99490	-0.022653848
24	0x3d4dcd06	0.050244354
25	0x3ca6acc3	0.020346051
26	0xbd903920	-0.07042146
27	0x3e061ad1	0.13096167
28	0xbd0bfe8c	-0.0341783
29	0x3ce208d8	0.027592108
30	0xbd6a725f	-0.05723798
31	0xbce483fe	-0.02789497
32	0x3d6edbbd	0.058315028
33	0x3cbae5c8	0.022814646
34	0xbdbeb4c9	-0.09311826
35	0x3d7e798c	0.062127635
36	0xbd22df2c	-0.039763615
37	0x3d59d24d	0.053179074
38	0xbdc4f75f	-0.09617495
39	0x3c242abf	0.010019957
40	0x3d32afb2	0.043624587
41	0x3d46f7e4	0.04857625
42	0x3dabcd79	0.083888
43	0x3da21392	0.07913889
44	0x3dd3a070	0.103333354
45	0xbdb3b2ad	-0.08774314
46	0xbd8dd13f	-0.06924676
47	0x3ca59ddb	0.020216873
48	0xbd8558f0	-0.06511104
49	0x3d5446b5	0.051825244
50	0xbd5d0a42	-0.05396486
51	0xbd811b83	-0.063040756
52	0xbd7d84ef	-0.061894353
53	0x3d9018cc	0.0703598
54	0xbc95e6cb	-0.018298527
55	0x3cdf11d4	0.02723018
56	0x3c7f42ae	0.0155798625
57	0x3c14e369	0.009087422
58	0x3d844644	0.064587146
59	0xbd05456b	-0.032536905
60	0x3dd4ac42	0.10384418
61	0xbdbf323e	-0.09335755
62	0x3dccac95	0.09993855
63	0x3dc23885	0.094834365
64	0x3cecddf4	0.02891443
65	0x3c5b52e8	0.013386466
66	0x3d803a6d	0.06261144
67	0xbdb74c6c	-0.08950123
68	0x3d321322	0.043475278
69	0x3db3a66d	0.087719776
70	0x3d69eed6	0.057112537
71	0xbd2f357a	-0.04277561
72	0x3dd09bcf	0.10185968
73	0xbd49465f	-0.049139377
74	0x3cca08c4	0.024662383
75	0xbdd2f356	-0.10300319
76	0xbd2d9dae	-0.042386703
77	0xbd8ff71c	-0.07029554
78	0x3dadfcfd	0.08495519
79	0x3dd73199	0.10507507
80	0x3d9cb539	0.07651753
81	0x3d47c0c6	0.048767827
82	0xbd61c9df	-0.05512416
83	0xbd1ecca8	-0.038769394
84	0x3e387a2e	0.18015358
85	0x3ddbebf0	0.10738361
86	0x3dcc2e61	0.099697836
87	0xbc16ae60	-0.009196848
88	0x3d6ef54d	0.058339406
89	0x3d706ed8	0.05869946
90	0xbc32d4e3	-0.010915014
91	0xbd4935cf	-0.04912358
92	0xbdb882af	-0.09009301
93	0x3c2146e3	0.009843561
94	0xbceb8ee9	-0.028754668
95	0x3be16be4	0.0068793166
96	0xbdb054c3	-0.08609917
97	0xbd5904f1	-0.052983228
98	0x3cc5c964	0.024143882
99	0x3d879873	0.06620874
100	0x3da6d9fc	0.08147046
101	0xbd56ee80	-0.052473545
102	0x3d9555fe	0.07291792
103	0x3d8ccc2a	0.06874879
104	0x3dd5a831	0.104324706
105	0xbd1130bc	-0.035446867
106	0xbdcfa912	-0.101396695
107	0x3d3ea639	0.04654524
108	0x3dcf10da	0.10110636
109	0xbd00aa80	-0.0314126
110	0xbcad501a	-0.02115636
111	0x3cac5e87	0.021041168
112	0xbd52a55d	-0.051427234
113	0x3c6ae2ea	0.014336327
114	0xbdbbff25	-0.09179524
115	0xbd01d571	-0.031697694
116	0xbbb9fc21	-0.005675808
117	0x3da5180f	0.080612294
118	0xbd38f898	-0.045158952
119	0xbd83c097	-0.06433218
120	0xbd4dd658	-0.050253242
121	0xbd4a2505	-0.04935171
122	0xbda3c353	-0.079962395
123	0xbd815dea	-0.06316741
124	0xbd9a7654	-0.075421005
125	0xbd645c76	-0.05575224
126	0xbde920e8	-0.113832295
127	0x3d319d86	0.043363117
128	0x3d41e12e	0.04733389
129	0xbd9a56f8	-0.07536119
130	0xbd2aed3a	-0.041730143
131	0xbdc66165	-0.09686545
132	0x3db1e34e	0.08685933
133	0xbd84f651	-0.064922936
134	0x3baffcfb	0.005370734
135	0xbdccc196	-0.09997861
136	0x3dab295a	0.083574966
137	0xbc38f2c7	-0.011288351
138	0xbd869409	-0.06571204
139	0x3c6d2b59	0.014475667
140	0x3d468c98	0.048473924
141	0x3dbe01cb	0.09277686
142	0x3d416764	0.04721774
143	0xbdab1a9e	-0.08354686
144	0xbd5fea38	-0.054666728
145	0xbc01d735	-0.0079248445
146	0x3ce6a35a	0.028154064
147	0xbdddd027	-0.108307175
148	0xbda7abd2	-0.08187069
149	0x3d5d87b2	0.054084487
150	0x3dcb5d49	0.09929902
151	0xbce64b70	-0.028112143
152	0x3d6214d2	0.055195637
153	0xbca7f190	-0.020500928
154	0x3d90c437	0.07068675
155	0x3cb4bd84	0.022063024
156	0x3d9d3e4b	0.07677897
157	0x3ce45694	0.027873315
158	0x3c0f67d8	0.008752786
159	0xbd22fc6c	-0.03979151
160	0x39014000	0.0001232624
161	0x3d813dad	0.06310592
162	0xbd1cdea0	-0.03829825
163	0x3d9823c7	0.07428699
164	0x3d5a053a	0.05322764
165	0x3d92d663	0.07169797
166	0x3da49e6d	0.0803803
167	0xbd4a0724	-0.049323216
168	0x3e058a8d	0.13041134
169	0x3d33a72b	0.043860596
170	0x3c9435cb	0.018092057
171	0x3de797f3	0.11308279
172	0xbd83f7fe	-0.06443785
173	0x3d870106	0.06591992
174	0x3c0167f2	0.007898318
175	0x3b3280c9	0.0027237406
176	0x3dd321a7	0.10309153
177	0xbd527958	-0.051385254
178	0x3d9b82c5	0.07593302
179	0x3c4acad3	0.012377459
180	0x3d1b7c1e	0.037960164
181	0x3d78f757	0.060782757
182	0xbda2cf7a	-0.07949729
183	0x3a230c03	0.00062197464
184	0x3dc36ce5	0.09542254
185	0x3c794179	0.015213364
186	0xbd152804	-0.036415115
187	0x3dcba42a	0.09943421
188	0xbc91cce3	-0.017797893
189	0x3db890bd	0.09011982
190	0x3d0425b6	0.032262526
191	0xbe046eab	-0.12932841
192	0xbda201fb	-0.07910534
193	0xbd4c0abd	-0.04981493
194	0x3ddbe236	0.10736506
195	0xbd1e79c0	-0.03869033
196	0xbbe5761f	-0.0070026065
197	0x3d727fee	0.059204035
198	0x3ce1e040	0.027572751
199	0xbd55be08	-0.05218318
200	0x3d8a1a1f	0.067432635
201	0x3d98b50b	0.07456406
202	0x3cd2eb6d	0.025747025
203	0xbbfa42a2	-0.007637338
204	0xbcd19609	-0.025584238
205	0x3d5eb3e5	0.05437078
206	0xbdbabccf	-0.09118044
207	0xbca79a77	-0.020459397
208	0xbd93b62a	-0.072124794
209	0xbdd24404	-0.10266879
210	0xbd61fd25	-0.055173058
211	0xbd9a13d8	-0.07523316
212	0x3dcfd6a9	0.10148365
213	0x3cfcfd96	0.030882638
214	0xbda71672	-0.08158578
215	0xbe13410f	-0.14380287
216	0x3de129d4	0.10994306
217	0x39bc8e85	0.0003596434
218	0x3dd0b8a0	0.101914644
219	0xbe071cd4	-0.13194591
220	0x3dcce1de	0.10004018
221	0xbdcecd92	-0.10097803
222	0x3db025c2	0.08600952
223	0xbe0f0209	-0.1396562
224	0xb95514c3	-0.00020320997
225	0x3de2a38d	0.11066351
226	0xbd5b3614	-0.05351837
227	0xbe003e83	-0.12523846
228	0xbd09b616	-0.033620916
229	0xbdaac882	-0.08339025
230	0xbd7c3759	-0.06157622
231	0xbc5f257d	-0.013619778
232	0x3d9dfff7	0.07714837
233	0x3b140360	0.002258502
234	0xbdb39d7f	-0.08770274
235	0x3d10ab92	0.035319872
236	0x3d298816	0.041389547
237	0xbdb690be	-0.08914326
238	0xbdcc6748	-0.09980637
239	0xbb0a8ce0	-0.0021141097
240	0xbd0278f0	-0.031853616
241	0x3d8195db	0.06327411
242	0xbcf342f8	-0.02969502
243	0x3d640502	0.05566884
244	0x3caa3334	0.020776369
245	0xbdabedbf	-0.08394956
246	0xbd8df57a	-0.069315866
247	0xbd991732	-0.07475127
248	0xbc859fec	-0.016311608
249	0x3d3f14d2	0.046650715
250	0x3d4b5dae	0.049649887
251	0x3d8023d1	0.062568314
252	0x3d8bf752	0.06834282
253	0x3e06752a	0.13130632
254	0x3da1d105	0.079011954
255	0x3d919097	0.071076564

bias f4 [128]
0	0xbd544246	-0.051821016
1	0xbd76a41f	-0.06021511
2	0x3aae9069	0.0013318184
3	0x3d566ff9	0.05235288
4	0xbcf298f3	-0.029613947
5	0xbd9c12ce	-0.07620774
6	0xbd9c9f53	-0.07647576
7	0x3cf16290	0.029465944
8	0xbd219a66	-0.039453886
9	0x3dcc369c	0.099713534
10	0xbb45014d	-0.003006059
11	0xbc662a6a	-0.014048198
12	0x3cda8e8e	0.026679303
13	0x3d238884	0.039925113
14	0x3dcd6217	0.10028475
15	0xbd1c38d8	-0.038140148
16	0xbd9e5bcb	-0.07732352
17	0xbccf76ff	-0.025325296
18	0x3d9a5be5	0.07537059
19	0x3dd91cc4	0.1060119
20	0x3dc60089	0.09668071
21	0xbda3a31a	-0.079900935
22	0x3e0f6ec1	0.14007093
23	0xbd8dfaad	-0.06932578
24	0xbc3facbd	-0.011698899
25	0xbcae4d4c	-0.021277092
26	0x3da2915c	0.07937881
27	0x3dccee81	0.100064285
28	0xbc8fdfce	-0.017562773
29	0xbd8acf59	-0.0677783
30	0x3dcf9e0e	0.101375684
31	0x3dad2fda	0.084563926
32	0xba97f2c6	-0.0011592738
33	0xbca03781	-0.019557716
34	0x3dfc917b	0.12332436
35	0xbd83b4bf	-0.06430959
36	0xbd90d1b7	-0.0707125
37	0x3d08c610	0.033392012
38	0x3cfd33da	0.030908514
39	0x3db2a3c3	0.08722641
40	0x3dfcda96	0.123463795
41	0x3dda0c76	0.10646908
42	0xbce7878b	-0.028262874
43	0xbd97a19f	-0.07403874
44	0xbd0a28b9	-0.033730242
45	0xbdb4f46b	-0.088356815
46	0xbb94a110	-0.0045358017
47	0xbbcdefdd	-0.0062846974
48	0xbd2a4ac4	-0.04157521
49	0xbdd5e8c3	-0.104447864
50	0x3d024e20	0.031812787
51	0x3dc20c93	0.094750546
52	0x3d8bda40	0.06828737
53	0xbda4529d	-0.0802357
54	0x3e0047cf	0.12527393
55	0x3d9fc84f	0.07801878
56	0xbd445de6	-0.04794111
57	0x3d1d8298	0.038454622
58	0x3dfac101	0.12243844
59	0x3da85f19	0.082212634
60	0xbcb5e9fe	-0.022206303
61	0xbb86e5a8	-0.0041167326
62	0x3d35f674	0.04442449
63	0xbc359312	-0.011082428
64	0xbd5ffe2f	-0.054685768
65	0xbd23d81f	-0.04000103
66	0x3d059e7a	0.03262184
67	0xbb171883	-0.0023055382
68	0x3d8d0418	0.068855464
69	0x3da59ccc	0.08086547
70	0xbd876943	-0.06611874
71	0xbda1a8aa	-0.07893498
72	0x3db76696	0.089551136
73	0x3d6760ee	0.056488924
74	0xbd82477e	-0.06361292
75	0x3d65352d	0.055958916
76	0xbdc38ed4	-0.09548727
77	0x3ce5d792	0.028056893
78	0x3d3020ba	0.04299996
79	0xbd0a46bf	-0.033758875
80	0xbc741803	-0.014898303
81	0x3d6dc008	0.058044463
82	0xbd44fcd9	-0.048092697
83	0x3db6e770	0.08930862
84	0xbc633d3c	-0.01386958
85	0x3c748ad6	0.014925679
86	0x3e05f194	0.13080436
87	0x3d7b4544	0.061345354
88	0x3ddfb815	0.10923783
89	0xbd48bd2a	-0.049008526
90	0xbd733734	-0.059378818
91	0xbce7576d	-0.02823993
92	0x3df14ca2	0.11782195
93	0x3cb7925d	0.022408659
94	0x3df5f992	0.120104924
95	0xbd53fded	-0.051755834
96	0xbbf43468	-0.0074525364
97	0x3dcfc4bc	0.10144946
98	0x3c4b01ab	0.012390534
99	0x3db270f8	0.08712953
100	0xbd5eb74d	-0.054374028
101	0x3c45ee1f	0.012080698
102	0x3d6ca4cf	0.05777436
103	0xb9441eb4	-0.00018703454
104	0xbc190ff2	-0.009342181
105	0x3d2abe70	0.04168552
106	0x3dda5b5f	0.10661959
107	0xbdbe8825	-0.09303311
108	0x3d0b0f96	0.03395041
109	0xbdd0f25f	-0.102024786
110	0x3d5c52a6	0.053789757
111	0x3e0912b5	0.13386042
112	0xb8982c19	-7.2561386e-05
113	0x3da288cc	0.07936248
114	0x3e1995b6	0.14998516
115	0x3da46c68	0.08028489
116	0x3c4017e8	0.01172445
117	0x3d4ab39b	0.04948769
118	0xbcf9a36c	-0.030473433
119	0x3d886d06	0.066614196
120	0x3dbbb19d	0.091647364
121	0xbce2308a	-0.027611036
122	0x3ca48e64	0.020087428
123	0xbdb49347	-0.088171534
124	0x3dd05271	0.101719745
125	0x3c62b9ac	0.013838213
126	0x3d323cdc	0.04351507
127	0x3ba8ee39	0.0051553515

weight f4 [128, 128]
0	0xbc5a8489	-0.013337263
1	0x3bf4ac34	0.0074668173
2	0xbd8f275d	-0.0698993
3	0x3baec9ff	0.0053341384
4	0x3d16b387	0.036792304
5	0x3dcd4403	0.10022738
6	0xbd8a1fdc	-0.06744358
7	0x3de569ee	0.11201845
8	0xbd04f61b	-0.032461267
9	0x3c6a1893	0.0142880855
10	0x3dc5d530	0.09659803
11	0x3d12b19a	0.035813905
12	0xbe0f7b81	-0.14011957
13	0x3d55c07f	0.05218553
14	0xbd9eabb2	-0.07747592
15	0xbc92e261	-0.017930211
16	0x3d815cbd	0.063165165
17	0xbd1ac6e8	-0.037787348
18	0xbd248cdd	-0.0401734
19	0xbd8c5612	-0.06852354
20	0xbb7aa51a	-0.003824538
21	0x3c98e80d	0.018665338
22	0x3e0e6a3a	0.1390771
23	0x38210c3c	3.8396785e-05
24	0xbd2d5c28	-0.042324215
25	0x3ba77a16	0.0051109893
26	0xbd04c484	-0.032413974
27	0x3d8af24f	0.06784498
28	0xbda09ad8	-0.07842034
29	0xbbfeb210	-0.0077726915
30	0x3db835b9	0.08994622
31	0xbc4e3100	-0.012584925
32	0xbd2573c6	-0.040393613
33	0x3e15a066	0.14611968
34	0x3c9acde4	0.018897004
35	0xbd95dd23	-0.07317569
36	0xbcb5c34c	-0.022187851
37	0x3c8a40f0	0.016876668
38	0xbd1cab41	-0.038249258
39	0x3c7c1e1e	0.01538804
40	0x3dbc12f0	0.091832995
41	0xbd5712c9	-0.05250815
42	0x3c62d268	0.01384411
43	0x3cbf81f5	0.023377398
44	0xbd293002	-0.04130555
45	0x3d25a269	0.04043809
46	0xbddb2977	-0.10701268
47	0x3cb6977b	0.022289028
48	0x3d6ca64d	0.057775784
49	0x3df436fe	0.119245514
50	0x3c744f4e	0.014911486
51	0x3caa72c1	0.020806672
52	0xbe0ef2c9	-0.13959803
53	0x3ba82ebf	0.0051325257
54	0xbd1294af	-0.035786327
55	0xbb89225e	-0.004185005
56	0xbbaa5909	-0.005198602
57	0xbd321015	-0.04347237
58	0x3c5d449b	0.013505126
59	0x3c8b4c8c	0.017004274
60	0x3e088906	0.1333352
61	0xbd958e9c	-0.07302591
62	0x3de82f1b	0.1133711
63	0xbd58df09	-0.052947078
64	0x3dfb344c	0.12265834
65	0xbcfc46dc	-0.030795507
66	0xbd2b65a5	-0.041844983
67	0x3afdefa1	0.0019373783
68	0xbd3af949	-0.045647893
69	0x3c411799	0.011785411
70	0x3e0b8af2	0.13627222
71	0xbcfd363b	-0.030909648
72	0x3d2f267e	0.04276132
73	0x3d8bdcd9	0.06829233
74	0x3c8bccee	0.017065492
75	0x3d23f601	0.04002953
76	0x3d256ba0	0.040385842
77	0xbdaa892f	-0.08326947
78	0x3de98978	0.11403173
79	0xbcbe5db0	-0.023238033
80	0x3d6fcdfa	0.058546044
81	0xbd09c9ca	-0.033639707
82	0x3e096996	0.13419184
83	0x3e05add8	0.13054597
84	0x3d89e632	0.067333594
85	0x3e0d0c75	0.13774283
86	0xbd8aa170	-0.06769073
87	0x3db2c4eb	0.08728965
88	0xbd8f670f	-0.07002079
89	0x37fcdcf8	3.0143638e-05
90	0xbd31e8e6	-0.043435
91	0xbd15572e	-0.036460094
92	0x3ce78199	0.02826004
93	0x3ad05850	0.001589546
94	0x3d89c7e3	0.067275785
95	0x3dc05035	0.09390298
96	0x3d6305c5	0.055425424
97	0x3e394e4d	0.18096276
98	0xbc76fe54	-0.015075285
99	0x3c3be4b0	0.011468098
100	0x3e092afb	0.13395302
101	0x3dac1ed4	0.084043175
102	0xbe16e5c9	-0.14736094
103	0x3d612959	0.054971073
104	0x3d60e0e1	0.05490196
105	0x3d4f709c	0.050644502
106	0x3d8ced3b	0.068811856
107	0x3c4f6100	0.012657404
108	0xbd0ad4bf	-0.033894297
109	0x3e0a39ad	0.13498564
110	0xbd34f304	-0.04417707
111	0xbdb04482	-0.08606817
112	0x3dadba4c	0.08482799
113	0xbdbd7166	-0.09250145
114	0x3dba25ef	0.090892665
115	0xbcfba098	-0.030716226
116	0xbdda3b50	-0.10655844
117	0x3c9be72a	0.019031126
118	0xbd08c78d	-0.03339343
119	0xbc88bf1e	-0.016692694
120	0x3dad675d	0.084669806
121	0x3cbf2c5b	0.02333658
122	0x3cb0936d	0.021554673
123	0x3daa45fd	0.083141305
124	0xbd992e59	-0.07479543
125	0xbce8221c	-0.028336577
126	0xbd99fc60	-0.0751884
127	0xbc2348b4	-0.009966064
128	0xbd867ce3	-0.06566789
129	0xbce356a7	-0.02775128
130	0xbbdd637a	-0.0067562433
131	0xbd4f8d44	-0.05067183
132	0xbdbc57c6	-0.09196429
133	0x3b97a3a8	0.0046276636
134	0xbd3eec74	-0.046612218
135	0x3d3039d0	0.043023884
136	0xbdc29565	-0.09501151
137	0xbd6728b7	-0.056435313
138	0xbc064c8c	-0.008196961
139	0x3d1ac844	0.037788644
140	0xbd140094	-0.036133364
141	0xbb516448	-0.0031950641
142	0x3d8d5a41	0.0690198
143	0xbc771c6e	-0.015082462
144	0xbccde778	-0.025134787
145	0x3c317625	0.0108313905
146	0xbdba704e	-0.09103452
147	0x3d8f7082	0.07003881
148	0x3d024be2	0.03181065
149	0xbd9d2b18	-0.07674235
150	0x3d26f96c	0.04076521
151	0x3d865a76	0.06560223
152	0xbdb68935	-0.08912889
153	0xbd4aeaba	-0.04954026
154	0xbba2f6ce	-0.004973269
155	0x3d1152a9	0.03547922
156	0x3d0190a8	0.031632096
157	0x3d8ba9c4	0.068194896
158	0x3d801844	0.06254628
159	0x3d127d40	0.03576398
160	0x3cfa6a16	0.030568164
161	0xbbfe0cd1	-0.0077529927
162	0xbaf5e7b3	-0.0018761068
163	0x3b255b51	0.002523143
164	0x3d6fc322	0.058535703
165	0x3cfa0a1e	0.030522402
166	0x3cddf98c	0.027096532
167	0xbc48837a	-0.012238378
168	0xbd88bb91	-0.066764005
169	0xbcaaaa8a	-0.020833272
170	0x3c9a7080	0.018852472
171	0xbd099aed	-0.033595014
172	0xbd5d5de2	-0.05404461
173	0xbdae76dc	-0.085187644
174	0xbc386cfa	-0.011256451
175	0xbd9e53d4	-0.07730833
176	0xbcbf2305	-0.023332128
177	0x3d3aca00	0.0456028
178	0xbcf22dba	-0.02956282
179	0x3d3b1866	0.045677565
180	0xbcb319eb	-0.021862945
181	0xbdb9f1f9	-0.09079356
182	0xbd556334	-0.05209656
183	0x3cff585e	0.031170066
184	0xbd91b2bd	-0.0711417
185	0x3d915b41	0.070974834
186	0xbdc54fa9	-0.096343346
187	0x3b01570b	0.001973572
188	0xbdb236a5	-0.08701829
189	0x3d77243b	0.060337286
190	0xbd3961ae	-0.04525917
191	0xbdb70b12	-0.08937658
192	0x3be1d603	0.0068919673
193	0xbcfd298e	-0.030903604
194	0x3cd51a7e	0.026013609
195	0xbdc2bd15	-0.09508721
196	0x3ca741dc	0.020417146
197	0xbd0b2012	-0.03396613
198	0x3d840553	0.06446328
199	0xbd2bea9b	-0.041971784
200	0xbbc8fa2f	-0.00613334
201	0x3c9cc546	0.019137036
202	0x3d5fa95d	0.054604877
203	0xbdb019ac	-0.085986465
204	0xbcb32ff9	-0.021873461
205	0x3c932ccc	0.017965697
206	0xbc86ce46	-0.01645578
207	0xbc8b5817	-0.017009778
208	0x3d29a2fc	0.0414152
209	0xbc8369b5	-0.016041616
210	0xbb9a4577	-0.004707988
211	0xbd958740	-0.073011875
212	0x3d3c17c3	0.0459211
213	0x3d932c1f	0.0718615
214	0xbd4ae69d	-0.049536336
215	0xbda06cec	-0.07833275
216	0xbd742d29	-0.05961338
217	0xbd7d7e0e	-0.061887793
218	0x3b675fd5	0.0035304923
219	0x3d2f0327	0.042727616
220	0x3cc6b3cc	0.024255656
221	0x3d8d03b3	0.06885471
222	0xbd7076e7	-0.058707144
223	0x3b1f57c7	0.0024313794
224	0xbda4c300	-0.08045006
225	0x3d868263	0.06567838
226	0xbc6b656b	-0.014367442
227	0x3c999dc7	0.018751992
228	0xbd9df738	-0.07713169
229	0xbdb81218	-0.08987826
230	0xbd2103ed	-0.039310385
231	0xbc871eb4	-0.016494133
232	0x3d3e3509	0.046437297
233	0x3d6a6b84	0.05723144
234	0x3c5757cd	0.013143492
235	0xbd53bdab	-0.051694553
236	0xbdbaec4d	-0.09127102
237	0x3d8173c4	0.06320909
238	0x3ccbd50a	0.024881858
239	0x3ccae619	0.024767922
240	0xbcddd6da	-0.027079988
241	0xbd9a5a1f	-0.075367205
242	0x3d147e1b	0.036253076
243	0xbd90e10c	-0.07074174
244	0xbcb0f9fc	-0.021603577
245	0x3c8fa8a3	0.017536467
246	0x3ce267b5	0.027637342
247	0xbc19e48d	-0.00939287
248	0x3d081288	0.033220798
249	0x3c67dcb3	0.01415174
250	0x3c94c9d5	0.018162647
251	0xbd9690a8	-0.0735181
252	0xbce3932e	-0.027780142
253	0x3d2cb045	0.04216029
254	0x3d35ac49	0.044353757
255	0xbd4fc51f	-0.0507251

bias f4 [128]
0	0xbd24def2	-0.04025168
1	0xbd972015	-0.07379166
2	0xbd5164eb	-0.051121633
3	0xbc95e3d1	-0.018297108
4	0xbd27388b	-0.040825408
5	0xbdc29cf2	-0.09502591
6	0xbd216c6d	-0.039410044
7	0xbc36f688	-0.011167176
8	0x3cd12c79	0.025533902
9	0x3cd144c9	0.025545495
10	0x3d171d15	0.03689297
11	0xbd601ce9	-0.05471507
12	0x3bb36c86	0.0054755835
13	0xbcae0692	-0.021243367
14	0xbd30d30e	-0.043170027
15	0xbd8e4c66	-0.069481656
16	0x3c5916d2	0.01325007
17	0xbd86f351	-0.06589378
18	0x3d81bf3d	0.06335304
19	0xbc2e3e87	-0.010635025
20	0xbcea45f8	-0.028597817
21	0x3c18aeb3	0.009318995
22	0xbd6c8f79	-0.057754014
23	0xbd8bf292	-0.06833376
24	0xba77f122	-0.0009458234
25	0x3d95edfa	0.07320781
26	0xbd829942	-0.06376888
27	0x3d360b7b	0.044444542
28	0x3d04d534	0.03242989
29	0x3cf447f7	0.029819472
30	0x3da4a327	0.08038931
31	0x3c3fec04	0.011713985
32	0xbd01fe64	-0.031736746
33	0xbd91f13e	-0.071260914
34	0x3dc0e6a0	0.09418988
35	0xbdb8ac45	-0.09017233
36	0xbd976147	-0.07391601
37	0xbdc4a6e0	-0.096021414
38	0xbc7e9200	-0.015537739
39	0xbd8c6987	-0.06856065
40	0xbd4b282f	-0.04959887
41	0x3dadfc48	0.084953845
42	0xbd205627	-0.03914466
43	0x3d8dc29c	0.069218844
44	0x3d130db0	0.035901725
45	0x3c6a990c	0.014318716
46	0xbd73fce6	-0.059567355
47	0xbd2c29bb	-0.042031985
48	0xbdb1be7b	-0.086789094
49	0xbd80468f	-0.06263458
50	0x3c691552	0.014226275
51	0xbd92acd2	-0.07161869
52	0xbd543f66	-0.051818274
53	0x3d8f27c6	0.06990008
54	0xbce7136e	-0.028207507
55	0x3d8f1592	0.06986536
56	0xbc6cd12b	-0.014454166
57	0x3dadd1e5	0.084873
58	0x3da897d0	0.08232081
59	0xbd68b0b2	-0.056809135
60	0x3d546450	0.051853478
61	0xbd929635	-0.07157556
62	0x3da905fd	0.08253095
63	0x3c94c6a2	0.018161122
64	0xbcd73b56	-0.02627341
65	0xbd45589b	-0.048180204
66	0xbd9accf1	-0.07558621
67	0x3d2055c9	0.03914431
68	0x3ce7c8e2	0.02829403
69	0x3d37aae1	0.044840697
70	0xbd482298	-0.048861116
71	0xbd28ccb2	-0.041210838
72	0x3d7bffa8	0.06152311
73	0xbbcbd47f	-0.0062204
74	0x3c622490	0.0138026625
75	0x3db3e4a0	0.08783841
76	0x3b92d5dd	0.004481061
77	0xbc580baa	-0.013186375
78	0x3dca40e5	0.09875659
79	0xbb8a2c50	-0.0042167082
80	0x3c118fb9	0.008884364
81	0xbc2d3066	-0.010570621
82	0xbd7ca458	-0.061680168
83	0xbd685c9c	-0.056728944
84	0x3c48caa1	0.012255342
85	0x3c3d1de4	0.011542771
86	0xbc3461c2	-0.011009635
87	0xbb3208e6	-0.0027165948
88	0x3d8aa868	0.06770402
89	0x3d867a54	0.06566301
90	0x3d8528cd	0.06501923
91	0x3d5cd3a7	0.053912785
92	0x3d05153e	0.03249096
93	0xbccd177b	-0.02503561
94	0xbd1c46af	-0.038153347
95	0xbd348d78	-0.044080228
96	0x3d4f8c48	0.050670892
97	0xbda50282	-0.08057119
98	0x3d2cc48c	0.04217963
99	0x3d5c320c	0.053758666
100	0xbbfee4ce	-0.0077787405
101	0xbd412646	-0.04715564
102	0x3d6f0231	0.0583517
103	0x3c6a0899	0.014284276
104	0xbd976021	-0.07391382
105	0xbb9ea17c	-0.004841028
106	0xbca02e4f	-0.019553332
107	0xbd7e7cdd	-0.062130798
108	0x3dc66f47	0.09689193
109	0x3daebc00	0.08531952
110	0x3dbbf568	0.09177667
111	0x3cc8e302	0.024522308
112	0x3c8c216a	0.017105777
113	0x3db258a1	0.08708311
114	0x3d4baedb	0.049727302
115	0x3ce43055	0.027855078
116	0x3d87c4b5	0.06629316
117	0xbd5ad2e5	-0.05342378
118	0x3d1df488	0.03856328
119	0xbd67d50f	-0.056599673
120	0x3d908860	0.070572615
121	0xbca510c3	-0.020149594
122	0xbd989397	-0.074500255
123	0xbd868724	-0.06568745
124	0xbd8d6c40	-0.06905413
125	0xbcb679ed	-0.022274936
126	0x3cb071ff	0.021538733
127	0x3d9ffce6	0.078119084

weight f4 [64, 128]
0	0x3d4ad666	0.049520873
1	0xbbd18e63	-0.0063951476
2	0x3c507370	0.012722835
3	0x3d4820f5	0.048859555
4	0x3d9a5aa4	0.075368196
5	0x3b6dad7c	0.0036266735
6	0xbcf25986	-0.029583704
7	0xbd2634a5	-0.04057755
8	0xbd2a8551	-0.041631047
9	0x3daaf824	0.0834811
10	0x3d9868f0	0.0744189
11	0xbd3d1853	-0.046165776
12	0xbe2d0beb	-0.16899078
13	0x3d5ac7fb	0.053413372
14	0xbd2af29f	-0.041735288
15	0xb9aff060	-0.00033557694
16	0xbd398ea5	-0.045302052
17	0x3c879a1a	0.016552974
18	0xbc3aa5e1	-0.011392088
19	0x3c7122b2	0.014717745
20	0xbc43671d	-0.01192644
21	0x3d8bb19f	0.06820988
22	0xbca72d2f	-0.020407287
23	0xbd342cc9	-0.043988023
24	0x3bd35ff5	0.006450648
25	0x3d9a8048	0.07543999
26	0x3d5b36e4	0.053519145
27	0x3d1f321e	0.038866155
28	0xbc2f22fa	-0.010689491
29	0x3d31f47f	0.04344606
30	0x3ddb177f	0.10697841
31	0xbcc698bb	-0.02424275
32	0xbcc73c49	-0.024320738
33	0x3d50c464	0.050968543
34	0xbc3a56ef	-0.011373266
35	0xbce2195c	-0.027599983
36	0x3c9db4aa	0.019251186
37	0xbbfe6f58	-0.007764738
38	0xbd392177	-0.04519793
39	0x3d3597a9	0.044334088
40	0x3e01de81	0.12682535
41	0xbc80bab7	-0.015714033
42	0x3d5a6a60	0.053324103
43	0xbd187cb8	-0.037228316
44	0x3c93da30	0.018048376
45	0xbc317c15	-0.010832806
46	0x3d26341c	0.04057704
47	0x3daf05a3	0.08545997
48	0x3dba02c8	0.09082562
49	0xbc9575ac	-0.018244587
50	0x3c99777f	0.018733738
51	0xbd19813b	-0.03747676
52	0x3de0989d	0.10966609
53	0xbd45fb63	-0.048335444
54	0xbcee1838	-0.029064283
55	0xbd6e7ff6	-0.0582275
56	0x3d854021	0.06506372
57	0x3d9fda13	0.07805266
58	0x3d3a426c	0.0454735
59	0x3d94f0d6	0.07272498
60	0xbd29ec7c	-0.041485295
61	0xbc41b17c	-0.011822101
62	0xbd13da1f	-0.03609669
63	0x3afab5f0	0.0019127708
64	0xbd230737	-0.039801802
65	0xbd41effb	-0.047348004
66	0x3d85d667	0.065350346
67	0x3c819b8f	0.015821246
68	0x3cef8291	0.029237064
69	0xbd8a4f58	-0.06753415
70	0x3cb30dd8	0.021857187
71	0xbd05958b	-0.03261332
72	0xbd8a12e7	-0.067418866
73	0x3dc54449	0.09632165
74	0xbd14b8f2	-0.03630919
75	0x3c937577	0.018000348
76	0x3d9a7c57	0.07543247
77	0x3d8d8a12	0.069111004
78	0xbcc918eb	-0.024548015
79	0x3d817e1f	0.06322884
80	0x3df7b198	0.1209442
81	0xbbf09901	-0.0073424582
82	0xbd9bfb53	-0.07616296
83	0x3d9ab5c6	0.07554202
84	0x3d5b5665	0.05354919
85	0xbdaceb04	-0.08443263
86	0x3b2f8bb5	0.0026786153
87	0x3d19bdff	0.03753471
88	0x3ab9c235	0.0014172258
89	0x3d880eda	0.06643458
90	0x3c992b7f	0.018697498
91	0xbd3a3edd	-0.045470107
92	0x3d600dd5	0.05470069
93	0xbbb2e6dd	-0.00545965
94	0x3dd09146	0.10183959
95	0x3db14c1f	0.08657097
96	0x3d6754cd	0.056477357
97	0xbbbfad5d	-0.005849524
98	0x3cab5944	0.020916589
99	0x3dbbb43b	0.091652356
100	0x3e095882	0.1341267
101	0x3b56b1e5	0.0032759842
102	0xbd354087	-0.04425099
103	0xbd8f94cb	-0.07010802
104	0x3be72f70	0.0070552155
105	0x3c498089	0.012298712
106	0x3c363989	0.011122116
107	0xbce8575d	-0.02836197
108	0xbd881945	-0.06645445
109	0x3dcab7f9	0.09898371
110	0x3bf457a5	0.007456737
111	0xbd4ed0ed	-0.050492216
112	0xbd549022	-0.05189527
113	0x3d0c15f5	0.034200627
114	0xbd032b4f	-0.032023724
115	0x3d198778	0.03748271
116	0x3d07ddcc	0.033170506
117	0xbd855e78	-0.06512159
118	0x3c6019b0	0.013677999
119	0xbcd55259	-0.026040243
120	0xbd058c7d	-0.032604683
121	0x3dbca089	0.09210307
122	0xbd54283d	-0.051796187
123	0x3c443eb0	0.0119778365
124	0xbd89451f	-0.06702637
125	0x3dc50dc6	0.09621768
126	0x3d7d6172	0.06186051
127	0x3dc789fd	0.09743116
128	0xbda8ce5a	-0.082424834
129	0xbbbb2f4a	-0.0057124244
130	0xbd9d9d73	-0.07696047
131	0x3d71457f	0.058904167
132	0x3bf4fe7c	0.007476626
133	0xbd086568	-0.033299834
134	0xbc780691	-0.015138284
135	0x3ace39ed	0.0015733816
136	0x3db9b4b0	0.090676665
137	0xbaf3870a	-0.0018579673
138	0x3cdcd52d	0.026957119
139	0xbd8ccf60	-0.06875491
140	0xbd28c8fa	-0.04120729
141	0x3da1743d	0.07883499
142	0xbc4d7f46	-0.012542551
143	0xbbec5ff7	-0.0072135883
144	0x3d091402	0.033466347
145	0x3daf54fc	0.08561131
146	0x3cd577ca	0.026058096
147	0xbbab4154	-0.0052262936
148	0xbc48f1ee	-0.012264712
149	0x3c8becc1	0.017080666
150	0x3d0b2770	0.033973157
151	0xbd844804	-0.064590484
152	0x3ca99904	0.020702846
153	0x3c85e9f7	0.016346915
154	0x3d0ee6f7	0.034888234
155	0xbd6c957a	-0.05775974
156	0x3db2bac4	0.08727029
157	0xbd491cd0	-0.049099743
158	0x3d07d9d9	0.03316674
159	0xbd44d3d8	-0.048053592
160	0x3da9dee8	0.08294469
161	0xbca4b264	-0.020104595
162	0xbd99e707	-0.07514768
163	0xbd1ca6d4	-0.038245037
164	0x3d5ee1d4	0.054414585
165	0xbd3dd874	-0.046349004
166	0x3b82581c	0.0039777886
167	0x3daeb55d	0.08530686
168	0x3d36aa34	0.044595912
169	0x3d480cf8	0.048840493
170	0x3d20759b	0.039174657
171	0xbd11ddc3	-0.03561188
172	0x3d19ea98	0.03757724
173	0xbcce6c7b	-0.025198212
174	0x3dc46d14	0.095911175
175	0xbd20da90	-0.039270937
176	0xbd6d1044	-0.05787684
177	0xbcc4cbc7	-0.02402295
178	0xbc87801e	-0.016540583
179	0x3d9dce95	0.07705418
180	0xbcb4415c	-0.022003822
181	0xbc5658fc	-0.013082739
182	0x3d825d43	0.063654445
183	0xbd29fa68	-0.04149857
184	0x3c36099f	0.011110692
185	0x3bc233e6	0.005926597
186	0x3ccc9316	0.02497248
187	0xbd10afd7	-0.035323944
188	0xbc86ba14	-0.01644615
189	0x3c66e3e0	0.014092416
190	0x3d2e6d2b	0.04258458
191	0x3c8fa962	0.017536823
192	0xbd648d75	-0.055798966
193	0xbd6e0347	-0.058108594
194	0x3d9ba0e0	0.07599044
195	0x3d24675c	0.040137634
196	0x3d042c5a	0.03226886
197	0x3cda3cba	0.026640285
198	0xb95a3600	-0.00020810217
199	0xbd152271	-0.0364098
200	0xbd4937cb	-0.049125474
201	0xbd26e5ef	-0.040746626
202	0xbd72fc2c	-0.05932252
203	0xbd3e1124	-0.046403065
204	0xbd2965bb	-0.041356783
205	0x3db3bf44	0.087767154
206	0x3da64b15	0.081197895
207	0xbd6857bf	-0.056724306
208	0x3d80f252	0.06296219
209	0xbc9506af	-0.018191664
210	0xbd1de59b	-0.038549047
211	0xbccf8156	-0.025330227
212	0x3c85c680	0.016330004
213	0xbcfa38a5	-0.030544588
214	0x3d88b4e2	0.06675126
215	0x3db0b838	0.08628887
216	0x3db9a3dd	0.090644576
217	0xbd4817aa	-0.048850693
218	0x3d0b1fe4	0.03396596
219	0xbceb3f6b	-0.028716763
220	0x3d9889e9	0.07448179
221	0xbd7f1e6d	-0.062284876
222	0x3d203b6c	0.03911917
223	0xbc501f18	-0.012702726
224	0xbcae03bf	-0.02124202
225	0x3d8b7acd	0.06810532
226	0x3db86b3f	0.090048306
227	0x3d92528c	0.07144651
228	0x3e1170ac	0.14203137
229	0xbcfad389	-0.030618446
230	0xbd63d9f1	-0.055627767
231	0xbd31b30f	-0.043383654
232	0xbd70c3d3	-0.058780503
233	0xbbe03d04	-0.006843211
234	0x3daf503e	0.08560227
235	0xbce99502	-0.028513435
236	0x3d8bbfbd	0.068236805
237	0x3dc2cffb	0.095123254
238	0x3d3d14ab	0.04616229
239	0x3dc9ac25	0.09847287
240	0x3c516287	0.012779838
241	0x3c138b64	0.009005401
242	0xbd72722b	-0.05919091
243	0xbd0aceca	-0.033888616
244	0x3dbd0ca0	0.09230924
245	0xbdad2193	-0.084536694
246	0x3d6387fc	0.055549607
247	0xbdab2f95	-0.08358685
248	0xbd14a833	-0.03629322
249	0x3d36c8f9	0.044625256
250	0x3d6563cb	0.056003373
251	0x3d8d377a	0.06895347
252	0xbcda181f	-0.02662283
253	0x3ce468ba	0.027881969
254	0xbd1e9958	-0.03872046
255	0xbd909ca5	-0.070611276

bias f4 [64]
0	0x3da6a7fd	0.0813751
1	0x3d1befaf	0.038070377
2	0xbdb78b0c	-0.08962068
3	0xbd623fbd	-0.055236567
4	0x3d70d8db	0.05880056
5	0xbcd41170	-0.025887221
6	0xbb43ebf5	-0.002989528
7	0xbd4c98ad	-0.04995029
8	0x3c921c87	0.017835869
9	0xbc95d8bb	-0.018291822
10	0x3c3e896a	0.011629442
11	0x3db20436	0.086922094
12	0xbc7e63d5	-0.0155267315
13	0x3d854dc7	0.065089755
14	0xbd88c313	-0.066778325
15	0xbd8fe02f	-0.070251815
16	0xbd630fa4	-0.055434838
17	0x3dd4ab72	0.10384263
18	0xbdcf09f6	-0.10109322
19	0xbd257243	-0.04039217
20	0xbd17719e	-0.03697359
21	0xbccacd86	-0.024756204
22	0x3d9588c5	0.07301477
23	0xbc8b258d	-0.016985679
24	0x3c9e263b	0.01930534
25	0xbdd366b1	-0.10322321
26	0xbd60340d	-0.05473714
27	0x3d84dac0	0.06487036
28	0xbd48d93f	-0.049035307
29	0x3da00e71	0.078152545
30	0xbda31979	-0.07963843
31	0x3c96ac9a	0.01839285
32	0xbd91528c	-0.07095823
33	0x3d2acaf5	0.04169746
34	0x3d8a3774	0.06748858
35	0xbd3a4e14	-0.045484617
36	0xbdc6c0d7	-0.0970475
37	0x3db49921	0.088182695
38	0xbd7d4b24	-0.061839238
39	0x3d436b5f	0.04770982
40	0xbc03982d	-0.008031887
41	0x3da1c844	0.07899526
42	0xbc45d89e	-0.012075571
43	0x3d93394d	0.07188664
44	0x3d01a458	0.03165087
45	0x3d523075	0.051315743
46	0xbc4c34f7	-0.0124638
47	0xbdcd80fe	-0.10034369
48	0xbc83c354	-0.01608435
49	0xbc9ba12a	-0.018997747
50	0x3d96fc45	0.07372335
51	0xbc7ff0a5	-0.015621339
52	0x3ce28660	0.027651966
53	0x3d0eecc3	0.034893762
54	0xbd87cf7d	-0.06631372
55	0x3da4e873	0.08052149
56	0x3ccd3c68	0.025053218
57	0x3d9b85fa	0.075939134
58	0x3d3ac58a	0.045598544
59	0xb9df2da1	-0.0004256787
60	0x3c166426	0.009179151
61	0x3d689fa9	0.05679289
62	0x3dc75023	0.09732082
63	0x3c08614c	0.008323979

weight f4 [2, 64]
0	0x3d9f33eb	0.077735744
1	0x3d6f373f	0.058402296
2	0xbdaa5c3f	-0.08318376
3	0x3db2170c	0.08695802
4	0x3b2642f6	0.0025369502
5	0xbde89f86	-0.11358552
6	0xbda784d4	-0.08179632
7	0xbe0c58aa	-0.13705698
8	0xbd79319c	-0.060838327
9	0xbdebd508	-0.11515242
10	0xbd9e3d9b	-0.07726594
11	0x3ce60ede	0.028083261
12	0x3de4a552	0.11164345
13	0xbd1a69a2	-0.037698396
14	0x3c0c384f	0.008558347
15	0x3c2b89b2	0.010469841
16	0x3d7d12e1	0.061785582
17	0xbc2459be	-0.010031162
18	0xbc3b6555	-0.011437734
19	0x3d932789	0.07185275
20	0xbdc0b23e	-0.09408997
21	0x3e29f762	0.16598275
22	0x3d941ee5	0.07232455
23	0xbc13cf08	-0.009021528
24	0x3cde9df3	0.027174925
25	0x3da88dc7	0.08230167
26	0xbd8733e0	-0.06601691
27	0x3dd9c7ea	0.10633834
28	0xbdcbcbb7	-0.09950965
29	0x3d6e9652	0.058248825
30	0x3d8f6323	0.07001331
31	0x3dc89108	0.097932875
32	0xbd68794c	-0.056756303
33	0x3d96df4d	0.0736681
34	0x3d4f5beb	0.05062477
35	0xbb0cda6b	-0.0021492492
36	0xbdcbe8a2	-0.099564806
37	0x3debf378	0.11521047
38	0xbbb0274b	-0.005375778
39	0x3e100616	0.14064822
40	0xbd9861f9	-0.07440562
41	0x3be5f6b6	0.0070179356
42	0xbbffbc2a	-0.0078044133
43	0x3d7416ab	0.05959193
44	0xbb889c86	-0.0041690497
45	0xbdeef502	-0.11667825
46	0xbc5efc4e	-0.013609959
47	0xbd24456e	-0.040105276
48	0xbc0b4a93	-0.008501667
49	0xbd986a6a	-0.07442172
50	0xbdc35290	-0.09537232
51	0x3ded8206	0.11597066
52	0xbdadaa61	-0.08479763
53	0xbd6fb619	-0.05852327
54	0x3dbf4ccd	0.093408205
55	0x3d4dec93	0.050274443
56	0xbda38114	-0.07983604
57	0x3bbbbe7f	0.005729496
58	0x3d298568	0.04138699
59	0xbe2e46e2	-0.17019227
60	0x3bf70aed	0.0075391443
61	0xbd0ac210	-0.03387648
62	0x3e06678f	0.13125442
63	0x3daf6a4d	0.08565197
64	0x3d846de8	0.064662755
65	0x3d02cebd	0.031935442
66	0xbcac6b13	-0.02104715
67	0xbd039011	-0.032119814
68	0xbdd9a381	-0.10626889
69	0xbd169835	-0.03676625
70	0x3d3a2883	0.04544879
71	0x3e0f51a6	0.1399599
72	0x3c699f4c	0.014259171
73	0xbdb7b4c5	-0.08970026
74	0x3dd4d82d	0.10392795
75	0x3cb6915f	0.022286115
76	0xbcc40a7d	-0.023930782
77	0x3dfacd5b	0.122462
78	0x3df2329d	0.1182606
79	0xbdd0970a	-0.101850584
80	0x3e0a46cc	0.1350357
81	0x3e031a67	0.1280304
82	0xbd8d2a33	-0.068928145
83	0xbdce6d3e	-0.1007943
84	0x3d02f027	0.03196731
85	0xbdca09ac	-0.09865126
86	0x3bbe6154	0.0058099423
87	0xbd358e45	-0.044325132
88	0x3dac8eba	0.084256604
89	0xbde2250f	-0.110422246
90	0x3df72e91	0.12069429
91	0xbc183aaa	-0.00929133
92	0x3db46c5a	0.08809729
93	0x3df11264	0.11771086
94	0xbda2f9ce	-0.07957803
95	0xbe035bb6	-0.12827954
96	0xbda26d10	-0.07930958
97	0xbd3881f5	-0.04504581
98	0xbd221ded	-0.03957932
99	0xbb10909a	-0.0022058845
100	0xbbcf3177	-0.0063230353
101	0xbd083a14	-0.033258513
102	0x3e02498f	0.12723373
103	0x3bfe6efe	0.007764696
104	0xbda24d2d	-0.07924876
105	0x3ce353a5	0.027749846
106	0x3dea5373	0.11441698
107	0xbde3037e	-0.110846505
108	0xbdb032db	-0.0860345
109	0xbdf0ad70	-0.117518306
110	0x3d7fa0f3	0.062409353
111	0x3cc268ec	0.023731671
112	0x3d214435	0.039371688
113	0x3b4f07ff	0.003159046
114	0xbd4b476c	-0.04962866
115	0x3ba911de	0.0051596006
116	0xbd96655c	-0.073435515
117	0x3d96e3f3	0.073676966
118	0x3db348bd	0.08754108
119	0xbd3e8d7a	-0.04652164
120	0x3e0c6c38	0.13713157
121	0xbc36b54e	-0.011151625
122	0x3dfd548e	0.12369643
123	0xbd4a730a	-0.049426116
124	0x3d2cb388	0.0421634
125	0xbcaebdfd	-0.021330828
126	0xbd193bf0	-0.037410676
127	0x3d982622	0.07429148

bias f4 [2]
0	0xbd69ffb5	-0.057128627
1	0x3dfab89b	0.12242242
