player_model_ts.pt (torch, 157837 bytes, 8 tensors)

weight f4 [128, 84]
000000 eb 75 be bc 6f 93 16 be 90 54 b9 bd e4 08 58 be
       -0.023249587 -0.14704679 -0.09049332 -0.21097142
000010 9d 85 08 be 64 5b 86 bd 38 49 c8 bd b8 b0 42 be
       -0.1333222 -0.065604 -0.0977959 -0.19012725
000020 59 78 71 3c af fe 35 bd 7e 93 44 3d ba c1 47 3d
       0.014738166 -0.04443234 0.047992222 0.048768736
000030 d1 ce ab 3d 90 54 fa bc ce ac d0 bd c3 7b c2 3c
       0.083890565 -0.0305579 -0.1018921 0.023740655
000040 fe 96 19 3e 6c a9 45 3d 62 00 e2 bd 85 29 9d bd
       0.14999005 0.048257276 -0.11035229 -0.07673935
000050 71 9d 2c bc cb 00 1f 3d fb ee e6 3c 22 99 f7 bc
       -0.010535584 0.038819116 0.028190127 -0.030224387
000060 19 97 08 3e 0c e5 a3 bd cf 75 7c 3a 35 d0 93 3d
       0.13338889 -0.080026716 0.0009630592 0.07217447
000070 39 00 3a 3d 5f 05 2a 3d 40 41 02 bd e8 79 5b 3b
       0.04541037 0.04150903 -0.03180051 0.003348941
000080 2d 96 06 3d 02 a8 b5 bd 22 9b 7b 3d 63 60 41 3d
       0.032858063 -0.088699356 0.061427243 0.047211062
000090 88 4f a5 bd 34 43 26 3d e7 23 80 ba f7 24 f1 3d
       -0.0807181 0.040591434 -0.0009776325 0.117746286
0000a0 96 30 ab bd e6 e1 76 bc 63 85 ea 3d 37 20 97 bd
       -0.083588764 -0.015068507 0.11451223 -0.07379191
0000b0 87 86 3c 3e 32 b3 30 3c d1 22 1a 3b 11 94 15 be
       0.18410693 0.010784911 0.0023519287 -0.14607264
0000c0 21 a0 e4 bc 62 58 82 3c d0 70 a2 3b 42 c9 8c be
       -0.027908387 0.015911285 0.004957296 -0.27497298
0000d0 cc 5c 30 3d e7 24 1d 3b e8 48 91 bd b6 1a 55 bd
       0.043057248 0.0023978294 -0.07093984 -0.052027427
0000e0 ac 2a a1 bd eb b1 1b be 26 c3 ad 3d 23 72 4e 3d
       -0.07869467 -0.15204589 0.08484487 0.050401818
0000f0 dc 2a 3c bd 7d bf 07 bd 03 6b 8b bd ee 65 76 3d
       -0.04593931 -0.0331416 -0.0680752 0.0601558
000100 fd 23 af bd bb 8e 84 bd 8a 95 05 3d 24 70 d9 3c
       -0.08551786 -0.06472536 0.032613315 0.02654273
000110 35 ec c4 bd 16 7f 0f bd ca 4b 8c bd 29 91 a3 3d
       -0.096153654 -0.035033308 -0.06850393 0.079866715
000120 80 65 ad bd 15 8d 99 3d 99 9f c9 bd 5f 0f 96 3d
       -0.08466625 0.074976124 -0.09844894 0.073271506
000130 65 20 6a bd 9c 65 8f 3c 4d 13 8a 3d 8e 0a 26 bd
       -0.0571598 0.017504506 0.067419626 -0.04053741
000140 d7 ee de bd 73 15 ce 3d ee 12 d4 bd e0 ad 22 bd
       -0.10885399 0.10062685 -0.10355173 -0.0397166
000150 27 7b 23 3e fd df 30 be 89 0e 18 bd e2 ee 02 3e
       0.15964948 -0.17272945 -0.037123237 0.12786439
000160 bf 32 b9 3d 5d 47 60 bd ab 33 b8 3e 6c 77 b0 bd
       0.09042882 -0.054755557 0.3597692 -0.08616528
000170 aa 72 88 3b 64 36 4f bd e8 f4 92 3d 12 da bd 3c
       0.0041640596 -0.05058898 0.071756184 0.023175273
000180 07 c7 22 bc d3 eb 8e bd ad 74 0d 3e 7c 77 08 3e
       -0.009935147 -0.06978574 0.1381404 0.1332683
000190 5e c8 4c 3d 30 0f 9d bd ff 8f 4b 3e 0f 93 67 3e
       0.049995773 -0.076689124 0.19879149 0.22614692
0001a0 f8 c2 07 3d 2b c8 eb 3c d4 00 ea 3d ea 5e fa bd
       0.03314492 0.028781971 0.11425939 -0.12225135
0001b0 14 31 93 3c 36 c3 fa 3c f8 d6 79 3e a4 b3 aa bd
       0.017967738 0.030610662 0.2439841 -0.08335045
0001c0 23 e4 8f 3d 26 92 11 3e 97 6f 98 3e ed 19 59 3e
       0.070259355 0.14215907 0.29772636 0.21201296
0001d0 11 3f e2 bd c8 26 55 bd a2 c3 df 3d ec 7b 9b bd
       -0.11047185 -0.052038938 0.10925986 -0.075919956
0001e0 9a f7 f2 bb e7 93 3c 3b 37 b8 2a 3e 38 5d b7 bd
       -0.0074147703 0.002877468 0.16671835 -0.08953327
0001f0 4f 24 15 bd 56 4d 8d 3d 9f e3 a1 3c b9 e1 05 3d
       -0.03641158 0.06899516 0.019761859 0.03268597
000200 7f f6 6b bd 3b 82 33 bd 0c 94 57 bd 56 e7 2e bd
       -0.057608124 -0.04382537 -0.052631423 -0.042701088
000210 0f d8 93 bd 9a fe 31 3c d7 11 91 bd b4 b1 de bd
       -0.07218944 0.010863924 -0.07083481 -0.10873738
000220 11 45 81 3d 19 4f 28 bd 71 98 c0 bd b7 f8 db bd
       0.063120015 -0.04109106 -0.09404076 -0.10740798
000230 2c c0 8c bd 13 c1 09 bd 45 c8 c1 3d df c6 1a 3c
       -0.068725914 -0.033631396 0.094620265 0.009446829
000240 fe ff 6c bd fa 92 90 bd 82 ef c0 bd 5c 62 8e 3c
       -0.05786132 -0.070592836 -0.094206825 0.017380886
000250 54 6d 06 bd 34 73 e6 bc ea 38 18 3d e6 fd 60 3d
       -0.032819107 -0.028131105 0.037163652 0.054929636
000260 24 00 8a 3c ad 3a 6a bd 14 16 8f bc 3c fc a0 bd
       0.01684577 -0.057184864 -0.017466582 -0.0786061
000270 40 23 fd 3a 30 5b 19 bc f2 8f 08 3d 19 ba b3 bd
       0.0019312873 -0.00936012 0.033340402 -0.0877573
000280 91 f2 cd 3d ac 99 36 bd 6c ef 89 3c 10 28 86 bd
       0.100560315 -0.044580147 0.016837798 -0.0655061
000290 47 78 bd 3d 40 04 5d 3b 2b 0b bd 3d 05 53 a2 3d
       0.09251457 0.0033724457 0.09230646 0.07925991
0002a0 a8 ca 59 3e 7d 66 8c 3d b0 46 02 3e 31 08 fa bc
       0.21268713 0.068554856 0.12722278 -0.030521484
0002b0 43 8a 43 3d 41 40 fa bc f2 ba 92 3d 8b 2a 5b 3e
       0.04773928 -0.030548217 0.07164563 0.21402948
0002c0 8a cc 0d be d8 eb 8a 3b f3 7d 13 3d 2f 50 48 3d
       -0.13847557 0.0042395405 0.036008786 0.048904594
0002d0 35 b7 da ba 81 40 74 3d 96 e4 d7 3d f0 a4 47 bd
       -0.001668668 0.05963183 0.10541646 -0.04874128
0002e0 60 e6 b4 bd 0a d4 57 bc 72 75 9c 3d 12 0a a9 3c
       -0.08833003 -0.013173113 0.076395884 0.020634685
0002f0 1e 12 ba bd 2f 57 ab 3d 2b 69 62 3d 74 7e 8b 3d
       -0.09085487 0.08366238 0.055276077 0.068112284
000300 3a 94 c5 3d c5 97 5e bc 6c b9 f3 bc 0f 6a 2f 3e
       0.096474126 -0.013585989 -0.029751502 0.17130302
000310 29 f2 06 bd 94 bb 47 bd 81 54 e0 bd c0 dd f6 bc
       -0.032945786 -0.048762873 -0.10953618 -0.030135036
000320 0a 2d 5b bd 9f 87 76 3d 15 ef 3d bd 94 0b 89 3c
       -0.05350975 0.060187932 -0.046370585 0.016729154
000330 4a 1f a7 bd 53 90 98 3d b9 e5 bf 3b 53 e3 43 3e
       -0.08160265 0.07449403 0.0058562425 0.19129686
000340 ef cd fc 3c 02 9a a0 3d f7 78 46 bd c1 94 cf 3e
       0.030859916 0.07841875 -0.048455205 0.40543178
000350 3c f7 ff bd 4b 48 2f 3e d8 a1 5e 3d 82 fc d6 3e
       -0.12498328 0.17117421 0.054353565 0.41989523
000360 c9 f2 8a 3d db e8 3d 3c f3 8d bc bd 2c 29 b9 3d
       0.06784589 0.011591162 -0.09206762 0.09041056
000370 fe 6c b8 bd 22 64 43 bd 11 90 96 3d 5f 62 9c bc
       -0.090051636 -0.047702916 0.07351697 -0.019089876
000380 fa ec a4 3c 93 51 97 3d 31 54 50 3d d9 25 cc 3d
       0.02013253 0.07388606 0.05086154 0.09968156
000390 5c cc 26 bc 6a b7 27 3d 11 57 18 be c3 98 2f 3c
       -0.010180559 0.0409464 -0.14876963 0.010717574
0003a0 10 a8 c5 bc 72 79 ee bd 9e 4e 80 3c 7f de 6b 3f
       -0.02412799 -0.116442576 0.015662488 0.9213638
0003b0 87 67 7e bd 56 a4 26 3d ec e7 be bc c4 ba 32 bd
       -0.06211045 0.040684067 -0.023303948 -0.043635145
0003c0 a3 b0 de 3d 20 6b 28 3c 7c 2f 71 bd 50 1e 51 3c
       0.108735345 0.010279447 -0.058883175 0.012763575
0003d0 dc f0 f6 3c 46 f9 b0 bd 88 1a a2 bc ba f3 42 bd
       0.030144148 -0.08641295 -0.019788042 -0.047595717
0003e0 40 6e c7 bb 74 cc d0 bd e1 cb 4e bd 2e 2c df bd
       -0.006086141 -0.10195246 -0.050487403 -0.108970985
0003f0 2e ac a3 bd f9 52 7f 3c 8b c1 2e 3e 27 aa 2d bd
       -0.07991825 0.015583747 0.17066018 -0.042398598

bias f4 [128]
000000 68 5e 05 be e3 aa 83 bd 7c 6f 8d 3a 54 00 f0 3c
       -0.13024294 -0.064290784 0.0010790671 0.029297031
000010 95 82 df bd c5 2c a6 bd 59 56 00 be 8c c6 83 bd
       -0.109135784 -0.08114008 -0.12532939 -0.06434354
000020 07 ab 84 3d 8d f3 8b 3c 10 7f d2 bd 59 a0 c5 bc
       0.064779334 0.017083907 -0.102781415 -0.024124311
000030 d1 3a b3 3d de d1 80 bd a9 8e d0 3d 7a 78 ae 3d
       0.08751453 -0.06290029 0.1018346 0.08519073
000040 cb 8d bf bd d6 91 08 be 14 85 cd ba 72 83 34 3e
       -0.09353217 -0.13336882 -0.0015679919 0.17628267
000050 c0 f8 c2 3b cd 11 86 3c d9 6c da 3c e6 6d b9 ba
       0.0059500635 0.01636591 0.02666323 -0.0014147132
000060 45 68 f9 bd f2 92 f4 bd b8 ce 13 3e e9 de 17 be
       -0.12178091 -0.1194209 0.14434326 -0.14831127
000070 6e b5 21 bd e7 d9 88 3d 89 ce 6c 3d 5e 70 17 3c
       -0.039479665 0.066821866 0.057814155 0.009243099
000080 d1 7a e6 bd ca 94 a1 bd f7 16 ac 3d 26 f9 09 be
       -0.11253894 -0.078897074 0.08402818 -0.13473949
000090 bf 18 4e 3d a8 d6 fc bc 5e cf af bd d4 c4 e2 bd
       0.05031657 -0.030864075 -0.08584474 -0.11072698
0000a0 4c e0 c9 3c d4 08 da bd e1 d6 99 3d 5f f7 8b bd
       0.024643086 -0.10646215 0.07511688 -0.06834292
0000b0 56 eb 1d bd cc b6 38 be a9 4d c7 3c aa 95 70 bd
       -0.038554512 -0.18038481 0.024329023 -0.05873648
0000c0 f7 c9 09 bc 96 4b 07 39 b8 03 8c bd 7d 4c 2c bc
       -0.008409969 0.00012902761 -0.06836647 -0.010516283
0000d0 4c 14 5f bd 4a 31 73 bd ac 5f 57 3d 82 c4 82 bc
       -0.054462716 -0.059373178 0.052581474 -0.015962843
0000e0 83 6a 0b bd fe 57 e2 bd 30 3b 39 3d ce 34 ca bd
       -0.034037124 -0.110519394 0.04522246 -0.09873353
0000f0 32 7a 8e 3d eb 67 9e bc a1 b2 d8 3d f1 aa 22 be
       0.06956901 -0.019336661 0.10580946 -0.15885521
000100 46 a9 bb bb 7b 81 13 bd b9 80 7b 3b 33 49 5a 3d
       -0.005726966 -0.036012154 0.0038376285 0.053292464
000110 a1 5a 0b be 08 dd 6b 3d 14 e6 d3 bc a1 4c aa 3c
       -0.13608791 0.05758384 -0.025866546 0.020788493
000120 68 fe 48 3d bd 87 0d bd 45 a0 f1 bc e4 39 1f 3d
       0.049070746 -0.03455328 -0.029495368 0.03887357
000130 11 75 94 3d ae 7a 88 bc b7 48 cf 3d 8c 4a 96 3d
       0.07248891 -0.01666006 0.10121291 0.073384374
000140 c2 e9 f1 3c e0 2c f9 bb 3f 44 e2 bc be 65 cd 3d
       0.02953041 -0.0076042265 -0.027620433 0.100291714
000150 81 02 95 bd d8 df 13 bd 49 dd 13 bd c3 ef 46 3d
       -0.07275868 -0.036102146 -0.036099706 0.0485685
000160 0d 2d 94 3d 44 70 41 3e 5b e4 bf bd df 59 90 bd
       0.07235155 0.18890482 -0.09369727 -0.070483916
000170 93 6c 9a 3d 09 a1 1a 3e e9 c7 0a 3d d5 1e 41 be
       0.0754024 0.15100493 0.033882055 -0.18859418
000180 bf ef 99 bc 31 90 44 bc 85 55 ca bc d5 4a 36 3e
       -0.018791078 -0.011997269 -0.024698982 0.17801984
000190 f1 e6 c1 bc 79 a2 fe ba ad e0 34 3e 75 db 14 3e
       -0.023669692 -0.0019427083 0.17663832 0.14536841
0001a0 40 90 e0 bd 41 c2 0e be 21 45 8d 3d 84 6c d4 bc
       -0.109650135 -0.1394129 0.06897951 -0.02593065
0001b0 57 b9 cf bd 33 b9 81 3d 51 62 73 bd 7e 9b ab 3d
       -0.10142773 0.06334152 -0.059419934 0.08379267
0001c0 c6 e8 d2 bc 75 52 ad bd ad c6 3d bd e4 a4 f5 3d
       -0.02574576 -0.08462993 -0.04633205 0.11994341
0001d0 80 47 3a be 82 71 00 3e e2 f4 f7 3d f5 7d bb bd
       -0.18191338 0.125433 0.121072546 -0.09154884
0001e0 32 c3 3b bd 8d a4 e1 3d 99 e3 04 3d 33 bc 1b be
       -0.04584045 0.11017714 0.032443617 -0.15208511
0001f0 e5 ff d3 3a fe 42 89 bd c6 a4 06 bd 25 a8 07 3d
       0.0016174285 -0.06702231 -0.032871984 0.03311934

weight f4 [128, 128]
000000 26 9b 49 bd 00 f7 11 bc 03 96 2a bd 5c c5 be bd
       -0.049220227 -0.008908987 -0.04164697 -0.09314987
000010 92 c2 c9 bc 51 9d 12 3e 47 1d e9 bc 00 a7 97 3d
       -0.024628911 0.14317824 -0.028456343 0.074048996
000020 cc 0c 34 3d c8 f0 24 be 01 9b cc bd e8 d4 a5 3b
       0.043957517 -0.16107476 -0.09990502 0.005060781
000030 61 33 d7 bd 4a a4 3b bd 3b 3d ab bd 76 64 bf bb
       -0.105078466 -0.045810975 -0.08361288 -0.0058408333
000040 11 54 c5 bd 03 fd 80 3c a0 6d bf 3d 28 a2 43 3e
       -0.09635175 0.015745645 0.09347081 0.19104826
000050 f7 6f 90 3c 95 e8 6f 3d 00 87 15 bd 4d 40 f7 bd
       0.017631514 0.058571417 -0.0365057 -0.12072811
000060 ae 53 ab bc da bc a5 3b 76 07 cb 3d 3d 1d 9e be
       -0.020913925 0.0050579133 0.099135324 -0.30881682
000070 94 90 7b 3d e1 8d a7 3d 78 83 a7 3d 77 cc 36 3d
       0.061417177 0.08181358 0.081793725 0.044628587
000080 39 fd 83 bd b7 ec ca bd 78 50 11 3c cb c9 cd bc
       -0.06444783 -0.09908431 0.008869283 -0.025120636
000090 8d 67 40 bc d5 bf 42 3d 31 b5 4c bd 80 57 15 3d
       -0.011743438 0.047546227 -0.049977485 0.0364604
0000a0 85 87 3a bc e5 85 93 3d 4a f6 8f 3c b6 04 12 3d
       -0.011384849 0.07203273 0.017573494 0.035649024
0000b0 83 62 45 bd 77 e5 95 3d a9 a9 da bc bb 2a f1 bb
       -0.04818965 0.073191576 -0.026692228 -0.00735983
0000c0 3c ca 6e 3d 80 c0 ac bd 6d b5 8f 3d bd b5 84 bd
       0.058298334 -0.08435154 0.07017026 -0.06479976
0000d0 35 34 7e 3d 72 87 59 3d 2a eb 71 bd 89 e3 c9 3b
       0.062061507 0.053107686 -0.05906216 0.0061611575
0000e0 d1 bf 73 3d 8f 6b 7b 3d 74 ff f6 bd 66 ac f5 3c
       0.059509102 0.061381873 -0.120604426 0.029989433
0000f0 59 32 52 bd ad 1a 53 3c a4 cc ef 3c 44 be 1a bd
       -0.051317547 0.012884778 0.029272385 -0.037779108
000100 61 f2 b9 3d 2c 9c a1 bd ad c7 f3 bd 0c 3b 98 3d
       0.09079433 -0.078911155 -0.119033195 0.07433137
000110 4b 4d db 3c ad ff 75 3d f2 4b 80 3c 81 b2 fa bd
       0.026770255 0.060058285 0.015661214 -0.12241078
000120 0d 0a 35 bd 06 b9 c4 3d c4 0d 5d bd 96 3f d9 bd
       -0.04419904 0.09605603 -0.053968206 -0.10607831
000130 c4 77 04 3d c5 cf d7 bd 28 ac 23 3c 74 75 1f 3c
       0.03234078 -0.10537676 0.009989776 0.009732593
000140 b7 bf 67 bd 36 11 b2 3c 8a c4 82 bd 91 c1 2f bd
       -0.056579318 0.021736722 -0.06385143 -0.04290921
000150 57 eb 20 3d 66 7b 34 3d 74 6d 70 3c 29 29 0f be
       0.039286938 0.044062994 0.014674533 -0.13980545
000160 f5 74 a7 3c 79 67 93 3e 61 43 72 bd 24 23 b2 bd
       0.020441512 0.2878988 -0.05914629 -0.08698109
000170 b7 ed 95 3d aa f9 32 bd 92 55 43 bd fd 78 87 3d
       0.07320731 -0.04369513 -0.047689028 0.066148736
000180 f3 46 a8 bd ec 55 3c bd 83 9e f9 3d 71 83 60 bd
       -0.082166575 -0.04598038 0.12188437 -0.054812852
000190 eb 70 9b bc 26 c2 08 be d3 6b 92 bd e2 02 a0 3d
       -0.018974742 -0.13355312 -0.07149472 0.0781305
0001a0 61 4a 6a 3d 91 07 73 3c 30 a6 97 3b 0e e0 73 bd
       0.05719984 0.014833347 0.0046279654 -0.059539847
0001b0 92 e5 13 be 14 62 c0 bc 14 fe e0 3c 2c 7f 0c bd
       -0.14443043 -0.023484267 0.027464904 -0.034300968
0001c0 3f d1 6b 3d 83 ad 4e 3d 73 41 7b bc eb f1 78 bc
       0.0575726 0.050458442 -0.0153354285 -0.0151943965
0001d0 bb 7a 25 3d 94 ac be 3c a2 7d a1 3d ba b3 6c 3d
       0.040400248 0.023275651 0.07885291 0.057788588
0001e0 66 ed 00 bd 74 a7 82 3c e0 1b d3 3c 13 be 42 be
       -0.0314764 0.015948988 0.025770128 -0.1901782
0001f0 e9 a1 7d 3d 97 bc 7d bc f1 71 54 3d 1d 92 05 3d
       0.061921988 -0.015486858 0.051866475 0.032610048
000200 d4 f9 c4 3d 0b 12 55 bb 1e 4b c0 3d 8a ed 95 bd
       0.096179634 -0.0032511975 0.093893275 -0.073206976
000210 28 02 fd 3d 78 0a b4 3d 14 29 3b 3d 7d fb 78 3c
       0.12353927 0.08791059 0.045693472 0.015196678
000220 32 e7 25 bd d5 d0 70 3d a4 d2 62 3c d2 9e 63 3c
       -0.04050369 0.058792908 0.013844166 0.013892846
000230 44 8a 24 3d ba 63 c8 bd 53 c7 8a bd 60 6a 84 bd
       0.040170923 -0.09784646 -0.06776299 -0.06465602
000240 28 f7 75 3d f4 22 6e 3d ac d3 b6 bd a9 80 b1 3d
       0.06005016 0.058138803 -0.08927092 0.08667118
000250 9d 51 80 3d 12 8b 58 be 38 ac 62 bd 21 6f 39 bd
       0.062655665 -0.21146801 -0.05534002 -0.045271996
000260 4b 38 67 bb eb ec af 3c dd 91 c0 3d 94 0c 02 3d
       -0.0035281356 0.021475276 0.09402821 0.031750277
000270 07 e3 12 3d fe c9 b9 3d 7d 92 5e 3c 1a 35 a7 bc
       0.03586104 0.0907173 0.01358473 -0.020411063
000280 18 c8 a7 3d 33 66 91 bb e2 e9 91 3d 15 2e ed bb
       0.08192462 -0.004437232 0.07124688 -0.0072381594
000290 88 2c 5d 3d 3d aa a3 3d 09 19 72 bd f1 8d d6 38
       0.053997546 0.07991455 -0.059105907 0.00010230754
0002a0 84 d0 ce bc 74 a3 c7 ba eb ba 01 3b 61 79 a9 3d
       -0.025245912 -0.0015231208 0.001979525 0.08275104
0002b0 f4 22 21 3d 42 f7 b9 3c e4 a3 cd bd e7 32 c4 3c
       0.039339975 0.02270091 -0.10041025 0.023950053
0002c0 0e c1 88 3c 19 6c cb 3d 8d 46 a8 bc 86 83 c0 3d
       0.016693618 0.09932727 -0.020541454 0.09400086
0002d0 b3 59 00 bd ad f5 27 bd 8e f8 75 3d 2b 3b df 3c
       -0.031335544 -0.04100578 0.060051493 0.027249893
0002e0 cd 7b 18 3d 53 ac b3 3d 63 77 83 3d 0f 50 5a bc
       0.03722744 0.087731026 0.064192556 -0.0133247515
0002f0 bd 55 b4 bd cd 3f 2c 3d 3e c4 8c 3d 77 ad 14 3c
       -0.08805416 0.042053033 0.06873368 0.00907456
000300 d4 25 c6 b8 32 cf 0b be b7 22 07 bd 8c 05 c4 3d
       -9.448422e-05 -0.13653257 -0.03299209 0.095713705
000310 8e 58 0c bd 26 ab b0 bd 62 a1 84 3b 12 ab a4 3d
       -0.03426414 -0.08626394 0.0040475586 0.080404416
000320 69 db de 3c 29 0b af bc 49 7a 96 bd b9 fe 26 3d
       0.027204232 -0.021367626 -0.07347543 0.040770266
000330 bf 28 ad bd 1a dc aa bc da c4 50 be 0c ee c8 3a
       -0.08455037 -0.020856906 -0.20387593 0.0015329733
000340 a7 f6 4f 3d 8d 52 97 3d 77 43 d8 3d 65 4c 2b 3c
       0.050772335 0.07388792 0.10559743 0.010455226
000350 33 8b 95 3d ee 6e be 3d fe 61 49 3d 20 05 f0 3d
       0.07301941 0.09298502 0.04916572 0.117197275
000360 a8 20 34 bd 29 9a ed 3b 77 0d 37 bd ec e1 c2 3d
       -0.043976456 0.0072510433 -0.044690575 0.095157474
000370 00 3b 30 3d c3 30 e7 3d 94 11 fa bd 4c 6f 1d bd
       0.043025017 0.112885974 -0.12210384 -0.03843622
000380 ee 0c c6 3d 6a 9e 9f bd 57 6e 5e 3d 10 24 ad 3d
       0.09670435 -0.07793887 0.054304447 0.08454144
000390 c7 7b 65 bd fa 04 06 3e 09 b8 de 3c 0d e4 a2 bc
       -0.056026246 0.13087836 0.027187364 -0.019884134
0003a0 05 c9 89 bd a1 33 c1 3d 03 5b 32 bb b2 1e fc 3d
       -0.067277946 0.094336756 -0.0027214892 0.12310542
0003b0 e1 df 19 3e 2a 33 63 3d 88 1c 74 3d bb f8 7e 3d
       0.1502681 0.055468716 0.059597522 0.062248927
0003c0 1a e8 a4 3d 0b 58 7f bd 88 40 19 bc 7d ce b5 bd
       0.08052082 -0.062339824 -0.009353764 -0.08877275
0003d0 79 b2 2a 3d df 5a 32 3d a9 47 16 bd ea a8 6d 3c
       0.04167411 0.043543693 -0.036689434 0.014505604
0003e0 03 8e a2 3c 85 5d ad bd 38 53 75 bd 3c 05 b5 bd
       0.019843107 -0.08465103 -0.059893817 -0.08838889
0003f0 e9 1a 17 bc ec ad a9 bc 93 3e 18 3c 99 03 9b 3d
       -0.0092227245 -0.020712815 0.009292263 0.075690456

bias f4 [128]
000000 dc 04 31 3c 98 31 f9 3c d4 18 a7 bd 68 ed e6 3c
       0.010804381 0.030419156 -0.081590325 0.028189376
000010 88 95 5b bd 00 f4 1e 3c f7 94 58 3b 2d fb b2 3d
       -0.0536094 0.009701729 0.0033047774 0.08739314
000020 46 d6 44 bd 18 13 7b 3a 39 b1 2e bc 28 86 4a bd
       -0.04805591 0.00095777353 -0.01066237 -0.049444348
000030 28 40 b2 3d 54 d6 97 bd 6d d7 42 bb 68 6a 45 bc
       0.08703643 -0.07413927 -0.0029730455 -0.012049295
000040 30 33 5d 3d 09 5d 9d ba 4e 0f a4 3d 2b 15 03 bd
       0.054003894 -0.0012005876 0.08010732 -0.03200261
000050 4a 57 aa bb 44 2e 22 3e 53 48 39 3d 42 51 d0 bc
       -0.005198394 0.15837961 0.04523499 -0.025429372
000060 e4 13 40 3d 73 c2 bb 3d 53 4c dc 3d 21 87 49 3c
       0.04689397 0.091679476 0.10756745 0.012300284
000070 b8 dd fa 3b 0e b7 94 3b dc 2f f1 3d be 71 01 3e
       0.0076558255 0.0045384234 0.117767066 0.12641045
000080 c6 d9 9b bd 51 29 bf 3c 62 42 06 3d b1 4f 95 ba
       -0.07609896 0.02333513 0.03277815 -0.0011391548
000090 26 0d ff bb e9 31 4e 3d 5f db 39 bd 62 ad 32 bd
       -0.00778355 0.050340567 -0.045375224 -0.043622382
0000a0 57 12 8f 3d 33 cd 64 3d a0 0f db bd 41 96 35 3d
       0.0698592 0.055859756 -0.106963396 0.044332746
0000b0 3f 13 07 bd e3 53 75 3b 5f d5 d3 bd 30 1e 9d bd
       -0.03297734 0.0037434034 -0.10343432 -0.076717734
0000c0 8f 25 08 3c 84 07 32 bc 42 e3 41 bc 5e 08 5c bd
       0.008309736 -0.01086605 -0.011833968 -0.053718917
0000d0 74 29 20 3d fd 32 4f bc c8 87 90 3d 0a c0 59 3d
       0.039102033 -0.012646434 0.07057148 0.05316166
0000e0 00 3b 25 3c 0b 1b 5a 3d 43 3e 86 bc 20 46 0d 3b
       0.0100848675 0.053248446 -0.01638711 0.002155669
0000f0 27 e6 bf 3d 0a a8 5b 3d c6 73 0e 3d 68 f7 3c 3d
       0.0937007 0.05362705 0.03477838 0.046134382
000100 1b 33 34 3d 0b bf 72 3c b5 45 61 3c 1d c1 a4 3b
       0.04399405 0.014816056 0.01374953 0.0050279037
000110 84 ee 57 3c f7 28 09 be 3b 6f bf 3d 70 87 b2 3d
       0.013179425 -0.13394533 0.093473874 0.08717239
000120 44 5e 83 3d 7f 7e a2 bd 75 70 61 bd ec ab e8 3d
       0.06414464 -0.079342835 -0.055038888 0.113609165
000130 0d 19 29 3e 46 a4 6c 3c cb 93 e2 bd 0b b9 99 3d
       0.16513462 0.014443463 -0.110633455 0.07505997
000140 88 03 5a bd c6 f8 c8 3c 0f 8e b3 3c 5b 16 f1 3c
       -0.053226024 0.024532687 0.021918325 0.029429605
000150 67 c2 1c bd 7b a4 83 bd b3 68 3e 3d f7 fe dc bd
       -0.038271334 -0.064278565 0.046486568 -0.10790818
000160 57 6b c0 3c 85 52 a8 bd be 86 a0 3d ec ab eb 3d
       0.023488684 -0.08218864 0.078382 0.11507401
000170 05 36 e1 3d 07 ea bd bd 54 ec 84 3c 3e fb ad bd
       0.109966315 -0.09273153 0.016225971 -0.08495186
000180 a3 f4 e1 3c de ce 27 bd 50 cd 3a bc de d0 7b 3c
       0.027582472 -0.04096877 -0.011401489 0.015369622
000190 c6 67 5e bd 7e 41 51 bc 29 4a 87 3d 29 aa 94 3c
       -0.054298185 -0.012771962 0.06605942 0.018147545
0001a0 12 ea da bc 27 c1 e9 3c e2 23 41 bd ea 23 94 bc
       -0.026722942 0.028534485 -0.04715336 -0.018083531
0001b0 d7 c0 52 3d 1f 79 ed bc b8 22 1b 3e 79 af f2 3d
       0.051453438 -0.02898842 0.15149963 0.11849875
0001c0 bb 59 78 3d 27 be 88 3d ab 87 02 3d da 22 09 bd
       0.06063245 0.06676894 0.031867664 -0.033480503
0001d0 15 79 17 3d 45 b0 5a 3d d9 21 fd 3b de f0 c7 bd
       0.036980707 0.05339076 0.007724982 -0.09762739
0001e0 95 16 b1 bd c9 90 71 3c 19 69 0b 3e f7 87 a9 3c
       -0.08646885 0.014743992 0.1361431 0.020694716
0001f0 33 b5 15 3d a8 0f 23 3a 45 8b 0d bd f9 bb bc bb
       0.03654976 0.00062202895 -0.034556646 -0.005759713

weight f4 [64, 128]
000000 7c 3c f1 bc c7 c2 08 bd bf 67 12 3d 09 f6 b3 3d
       -0.029447787 -0.03338888 0.03574347 0.08787162
000010 55 72 59 bd 98 94 a9 3d 57 dc 17 bd 33 46 58 bc
       -0.05308755 0.08280295 -0.037075367 -0.013200331
000020 0d b1 1b 3e 7d 59 bd bc 92 33 89 bd 1d d4 dd 3c
       0.15204258 -0.02311396 -0.066992894 0.027078683
000030 c3 a6 c8 3d 58 25 74 bc e5 c1 02 be 35 b9 00 3d
       0.09797432 -0.014901482 -0.12769277 0.031426627
000040 53 d2 f2 3b 9f c4 0f 3e f0 13 ce 3d c4 86 a5 bc
       0.0074103265 0.14039849 0.100623965 -0.020205863
000050 74 f9 a1 3d d9 78 a1 3d 05 e0 c2 3c f9 d2 6f 3d
       0.079089075 0.07884378 0.023788461 0.05855081
000060 47 43 61 3d 84 c6 6f 3d cd 2f 7c bc b6 02 cd 3d
       0.0549958 0.05853893 -0.015392256 0.10010283
000070 3f 4c 65 3d 4e fd f1 3c 30 27 ec be fc d8 fa 3d
       0.055980917 0.02953973 -0.46123648 0.12248418
000080 13 45 8e 3d 43 e2 b7 bd ef 7b 86 bd 60 08 33 bd
       0.069467686 -0.08978703 -0.06566607 -0.04370916
000090 cb 07 af 3c 2b 74 b9 3d c1 14 03 bd ec 80 73 3c
       0.02136602 0.090553604 -0.032002214 0.01486228
0000a0 15 28 a1 bd 0b 5f 26 3d 49 55 e7 bd cd b9 59 be
       -0.07868973 0.040617984 -0.11295564 -0.21262284
0000b0 61 18 e3 3c 26 8f 68 bd f7 ac 36 bd 92 b6 bf 3d
       0.027721586 -0.056777142 -0.044598546 0.093609944
0000c0 d6 31 e6 3b 41 94 f0 3c 4c e0 8c bb cf 68 c4 be
       0.007024984 0.029367568 -0.004299199 -0.38361213
0000d0 eb 1e 77 3d c6 12 de 3d fe 16 a0 ba d8 e8 a1 bb
       0.06033222 0.108434245 -0.0012213883 -0.004941087
0000e0 0a 2f 76 3d db 1f bd 3d 41 c6 ba b8 e7 d5 fb 3c
       0.060103454 0.092345916 -8.906099e-05 0.030741645
0000f0 b2 dc 97 3d a7 5b 22 3e 08 89 ba bc 1d 8f 58 3e
       0.07415141 0.15855275 -0.02277042 0.21148343
000100 1c 72 22 3e b1 39 9a bd 64 c5 a4 bd f4 9f 4d 3d
       0.15863842 -0.07530535 -0.08045462 0.05020137
000110 f6 b9 52 be 08 b4 da bb 77 80 4a be 76 77 34 bd
       -0.20578751 -0.0066742934 -0.19775568 -0.04405924
000120 4f 1c 4f bd 40 5c a9 3d 1a 6c 1a 3d 9a 68 18 3d
       -0.050564107 0.082695484 0.03770075 0.03720913
000130 ce 41 62 3d 20 86 3b bc 02 cf 07 be f1 e8 f3 3c
       0.055238537 -0.011445552 -0.13262561 0.029774161
000140 61 42 a2 be c7 ee 1c 3e 22 e4 2d bd b0 11 e1 3d
       -0.31691268 0.15325461 -0.042453893 0.10989702
000150 57 ed 9f bd 56 b1 49 3c 59 07 af 3d 4b 82 03 3d
       -0.07808941 0.012310347 0.08546323 0.03210668
000160 c4 1f ca bc 43 48 86 3d 46 22 75 3d 1f 7a cd 3d
       -0.02467335 0.065567516 0.05984714 0.100330584
000170 99 e9 43 be 4a fc 62 3d 7f 91 2c bd e1 ae 21 3d
       -0.19132079 0.055416383 -0.042130943 0.03947342
000180 18 d5 b2 bc c4 39 3a bd 65 46 5f bd 12 64 94 3d
       -0.021830127 -0.045465246 -0.054510493 0.072456494
000190 34 52 84 3d b2 7e ae 3e 9c 05 57 3b 8e 48 71 bc
       0.064609915 0.34081036 0.003280974 -0.014726771
0001a0 c8 b2 39 bd e3 a9 87 bd 74 3c f2 bc df df a3 3d
       -0.045336515 -0.066242 -0.029569842 0.080016844
0001b0 05 94 e2 bb 39 e3 5f bd 03 55 b8 3d 99 7b 29 be
       -0.006914618 -0.054660056 0.0900059 -0.16551055
0001c0 86 5f 50 bc 37 a7 fd 3b 07 61 1b 3d 8b ea 7a 3d
       -0.012718087 0.007740881 0.03793433 0.061258834
0001d0 19 39 bb 3d 06 e4 7b 3d a6 1d 6b 3d 83 ad 8a bd
       0.0914175 0.061496757 0.05740132 -0.06771376
0001e0 bc 09 e5 bc 21 42 88 bd 47 ea c4 3d 45 d3 fe 3d
       -0.027958743 -0.06653238 0.09614997 0.1244264
0001f0 54 d4 4e 3d 06 6f 8c bd d3 2f 65 bd 7c b5 30 3e
       0.05049546 -0.068571135 -0.05595381 0.17256731
000200 e0 f7 db 3d cd 83 eb 3d 35 32 7c 3d a0 b9 8e bb
       0.10740638 0.114997484 0.06157132 -0.0043556243
000210 fa 64 07 3d e9 2e 59 3d 67 d3 3a 3c fd 23 c8 3d
       0.033055283 0.053023253 0.011402941 0.09772489
000220 dd 24 64 3d 9b be 73 3b fd 47 53 bf b8 ed 42 bf
       0.055699218 0.0037192467 -0.8253172 -0.7614398
000230 99 ce 66 bc d1 0a cb bd a9 d2 94 3d 6a 68 b0 3d
       -0.014087343 -0.099141724 0.07266743 0.086136654
000240 6b 6f 39 be d9 ca 21 bd 4c 47 df be a2 ab 99 bd
       -0.18108909 -0.03950009 -0.43609083 -0.075034395
000250 99 b8 fa 3b 5e 1f 36 3e 33 a0 84 be ec 48 d3 be
       0.0076514003 0.17785403 -0.25903472 -0.41266572
000260 0f e5 1d be 24 72 af 3d 90 e2 63 bd cb 8c f9 bc
       -0.1541941 0.085666925 -0.05563599 -0.030462643
000270 b1 c0 70 bd 7d c3 2c 3d 40 33 de 3d ec fd 4f 3e
       -0.058777515 0.04217862 0.10849619 0.20311707
000280 ed 0f 22 bd df 00 cf 3c 73 d8 82 bc c6 6e c0 bd
       -0.03956597 0.02526897 -0.015972352 -0.09396128
000290 50 36 37 be cb 87 e4 3c 63 78 08 3d fd a6 0b 3e
       -0.17891812 0.027896782 0.033317935 0.1363792
0002a0 56 2e bf bc 05 36 37 bf 91 aa 77 3d 54 96 37 bd
       -0.023337524 -0.715668 0.0604654 -0.0448211
0002b0 54 00 3c bd 92 22 9f 3e 93 b6 ac 3d 9d e9 fc bd
       -0.04589875 0.31081063 0.08433261 -0.12349246
0002c0 51 de 12 3e 2e 8d c0 bd d7 61 ec 3b 86 86 7c bd
       0.1434262 -0.09401928 0.007213812 -0.06165173
0002d0 1b 25 f2 bd d6 17 be bd 00 1d 2d bc e8 be 87 3d
       -0.118234836 -0.0928189 -0.010565996 0.06628209
0002e0 c7 3e ad bb 50 ed 95 3d f8 1b da 3d 21 e6 b2 3d
       -0.0052870247 0.073206544 0.10649866 0.087353
0002f0 e7 e6 c8 bd 25 78 62 be 21 a1 0f 3d 54 c4 69 bd
       -0.09809666 -0.22116144 0.035065774 -0.057072
000300 c8 9e 97 3d b2 3c 2e 3d f8 2e 39 3e ce bb df bd
       0.07403332 0.042538352 0.18084323 -0.10924493
000310 12 d0 14 3e c1 d9 f6 be 7a ef 94 3d 7d 39 fe 3c
       0.14532498 -0.48213008 0.07272239 0.031033272
000320 24 58 a2 3a 31 fa 8f bd 05 19 a1 bc f6 09 ca bc
       0.0012385887 -0.07030142 -0.01966525 -0.024662953
000330 96 d5 38 bd 63 f5 94 bd 31 31 36 3e d0 c4 d5 3d
       -0.045125566 -0.07273366 0.17792203 0.1043793
000340 9c b6 2f be a1 96 3a 3e fd f8 03 be a4 88 53 3d
       -0.17159504 0.18221523 -0.1288795 0.051643983
000350 ea 61 92 3c ec 0d 04 3e 6c bc c5 bd 57 cd f6 3c
       0.017868955 0.12895936 -0.09655079 0.03012721
000360 21 7f 60 bd ab 76 aa 3d c3 5c e0 3d 4e c4 0f be
       -0.05480874 0.08323415 0.10955193 -0.14039728
000370 f3 ee 27 bc 78 1c d9 bc 5d 8d 74 bc d6 ca 9f 3d
       -0.010249841 -0.026502833 -0.014926282 0.0780236
000380 07 cc af 3d 6d 11 2a 3d a2 87 c6 3d 48 ee 2e bf
       0.08583837 0.041520525 0.09693839 -0.6833234
000390 d3 4a f9 3d 21 3f 98 3e 15 87 91 3d ff c6 9b bd
       0.12172475 0.29735664 0.07105843 -0.07606315
0003a0 40 9c 88 3d 47 52 94 be 06 d3 5b bd e1 6e 1e 3d
       0.06670427 -0.28969023 -0.053668045 0.03867996
0003b0 d7 9e 00 3e b7 f2 cd bc c7 95 08 bd 3a 7b 01 3e
       0.12560593 -0.02514015 -0.033345964 0.12644663
0003c0 41 e6 b9 bd 78 0a 44 3c d2 df 88 3d a3 6d 8a be
       -0.090771206 0.011965387 0.06683315 -0.2703677
0003d0 40 63 ed 3c 09 b8 71 bd 00 59 fb bd e4 bb 86 bc
       0.02897799 -0.0590134 -0.12272835 -0.016447015
0003e0 2a 95 75 bd 65 7e bb bd 77 7e c2 bc f2 a2 4d 3d
       -0.059956707 -0.09154967 -0.023741944 0.050204225
0003f0 5d b5 39 3c d5 4a ff bc c1 9e 8c bd 6e b7 a8 3d
       0.011334744 -0.031163612 -0.068662174 0.082381114

bias f4 [64]
000000 3e e3 84 3d b3 80 3f bc 67 a5 a7 3d d1 92 d0 3c
       0.064886555 -0.011688399 0.08185845 0.025460633
000010 81 90 1c 3d 4c 9e f2 3d e7 23 5d bd 05 cf f9 3c
       0.038223747 0.11846599 -0.053989317 0.030494222
000020 80 bf da 3d 4b 72 f9 3c e1 68 f2 3c 11 b2 11 bd
       0.10681057 0.030450007 0.029591026 -0.035570208
000030 72 4c 83 bd 32 eb b0 3d 0c 39 c1 3d 82 aa 6c 3d
       -0.06411065 0.0863861 0.09434709 0.057779796
000040 05 0f 15 3e b5 08 99 bc 6b e8 58 3b 8b 8f 8d b9
       0.14556511 -0.01868091 0.0033097516 -0.00027000564
000050 96 6e 53 3c 05 a3 d9 bc 1f 23 cc 3d 91 a8 c0 bd
       0.012904784 -0.026566992 0.09967636 -0.094071515
000060 ff 4f 86 3d 1e b5 d9 3c 78 44 0e 3d 9a 61 b8 3c
       0.06558227 0.026575621 0.034733266 0.022507478
000070 2b ae 30 3d c3 3a 3c bd 6a ed e3 3d 40 62 9b 3d
       0.04313485 -0.045954477 0.111292675 0.07587099
000080 e0 77 21 3d e5 b0 53 3d e6 15 80 bd a3 3f db 3b
       0.039420962 0.05168237 -0.06254177 0.0066909357
000090 3b dd 0f 3c 5e c7 34 bd 0e ce 41 bd 78 64 8b bc
       0.008780773 -0.044135444 -0.04731565 -0.01701568
0000a0 2b 3f 83 bd 7d bb 67 3c 38 4b b7 ba ca ea 1a bb
       -0.06408533 0.014143822 -0.0013984209 -0.002363848
0000b0 d8 49 a7 bd 6f 7b 44 bd 2a 6f 7e 3d f7 63 7f bd
       -0.081683815 -0.047969278 0.062117733 -0.062351193
0000c0 f8 ba 3f 3d 4a 71 60 3d 7a 61 0d bd d4 1e b0 bd
       0.046809167 0.05479554 -0.03451679 -0.0859963
0000d0 1f aa f6 3d f7 f3 71 bd e3 ee e0 3c 0c 9d 38 3d
       0.12044167 -0.059070554 0.02745766 0.045071647
0000e0 10 fe 56 3e 0d e6 c9 3d ec 5e ea 3d 7c 97 03 3e
       0.20995355 0.09858332 0.11443886 0.12850755
0000f0 ed 03 06 3c 31 29 ac 3d 1a f9 96 bd 66 f4 de bb
       0.008179647 0.08406294 -0.07371731 -0.006804037

weight f4 [2, 64]
000000 f1 12 bd 3d 8b b0 c3 be c5 b0 3d bd 18 25 10 3e
       0.092321284 -0.3822063 -0.04631116 0.1407665
000010 f6 ac 8c 3d f8 73 04 be fc 41 76 3c 61 66 6c 3d
       0.06868927 -0.12934864 0.01503038 0.057714824
000020 f4 f3 49 be 67 16 c5 bd 1a 92 2e 3e 76 c1 9a 3d
       -0.19721967 -0.096234135 0.17047921 0.07556431
000030 fe 0b 92 bc 84 4f 77 3d 1f 38 11 3d 81 e2 ff bc
       -0.017827984 0.060378566 0.035453912 -0.031235935
000040 cb 9f 48 bd 44 13 60 bd ee a8 7d 3d c1 24 0c 3e
       -0.048980515 -0.054705873 0.061928682 0.13685896
000050 8b 41 31 bd e3 39 13 bd b5 d3 99 3d f8 16 76 bc
       -0.043275397 -0.035943877 0.07511083 -0.015020125
000060 a1 3b c4 bd 70 21 50 bd 38 36 5c 3d e5 de a4 bc
       -0.09581686 -0.05081314 0.053762645 -0.020125816
000070 c1 bd 76 bd e4 4b 5d bd cd 3e be 3d 07 84 ce 3c
       -0.060239557 -0.054027453 0.09289322 0.02520944
000080 0a 93 92 bd f0 07 f3 3d 9a 6c 90 bd 70 69 38 3d
       -0.07156952 0.11866748 -0.07051964 0.045022428
000090 de 1e ce bd 07 62 07 3d 0c ec df bd 50 60 a0 bd
       -0.10064481 0.03305247 -0.10933694 -0.0783087
0000a0 a0 0f 67 bc 01 f6 b1 3d d3 f4 fc 3d 45 f1 2f 3e
       -0.014102846 0.086895 0.12351384 0.17181881
0000b0 87 f3 96 bd 5c 85 9a bd 8f e8 f4 3c 56 b3 73 bd
       -0.07370668 -0.075449675 0.029896049 -0.0594972
0000c0 5a bf b3 bc 2c 1e 1c 3d 85 43 8d bd d1 48 ba bd
       -0.02194183 0.03811471 -0.06897644 -0.0909592
0000d0 56 d2 67 3d bc ec 9e be cc a6 9f 3d 80 18 2b 3d
       0.056597076 -0.3103999 0.07795486 0.041771412
0000e0 89 c6 8f be 76 f3 00 be ef e6 c6 3d 84 e1 98 3c
       -0.28081158 -0.12592873 0.09712016 0.018662222
0000f0 4d c2 c4 3d eb e2 ff 3d 32 13 f0 3d 82 e5 56 3d
       0.096073724 0.12494453 0.11722411 0.05246497
000100 7d 8b 92 3d 25 44 c9 3c 98 4c 1e 3d df 40 3a bd
       0.071555115 0.024568627 0.038647264 -0.045472022
000110 ce 38 42 3d f4 0d 86 3d 6e bf 9a bd 70 f6 c2 3d
       0.047417454 0.0654563 -0.075560436 0.095196605
000120 b9 62 b0 3d 41 0f bc bd 88 0b b7 be ff 08 60 bd
       0.0861258 -0.09182597 -0.35750985 -0.05469608
000130 9a 5d 3d 3d 98 54 c2 3d 29 d8 c7 b9 20 94 83 bd
       0.046231844 0.09488791 -0.0003811729 -0.06424737
000140 57 e8 ed 3d 2a b6 2c 3d 15 86 e6 bd 58 4c d0 3b
       0.11616581 0.042165913 -0.11256043 0.006356757
000150 b1 37 e7 3c 65 b1 f1 3b fe 10 db 3c a5 61 47 bd
       0.028224798 0.0073758834 0.026741501 -0.048677105
000160 10 5c 87 3c ac 03 a5 3d 55 91 f6 3d 40 8c ba 3d
       0.016523391 0.08057341 0.12039439 0.09108782
000170 2a 0f f1 bc 35 60 c7 bd 37 1c 46 3d 34 88 8a 3d
       -0.029426176 -0.09735147 0.04836675 0.0676426
000180 dd 1c 1b bc f1 12 fa bb 19 c7 46 3c 83 1e b1 3d
       -0.009467331 -0.0076316525 0.0121324295 0.08648398
000190 d8 9e db bd 15 86 06 3d 8c 9d c8 3d 08 93 47 3c
       -0.107236564 0.032842714 0.09795675 0.012181051
0001a0 96 9a d9 bc 10 fc c8 3d 76 0d 13 bd 90 cd ea 3d
       -0.02656297 0.09813702 -0.03590151 0.11464989
0001b0 e0 92 17 bc a4 42 1b bd 2e 5a d8 3d 2e ad 03 3e
       -0.009251326 -0.03790535 0.105640754 0.12859032
0001c0 0f e5 8d 3b 52 ab b4 bd 5a ba 8e bd 7f f0 89 bd
       0.0043302844 -0.08821739 -0.069691375 -0.06735324
0001d0 9c 11 b4 3d 79 fc 60 be e7 df 00 3e 62 05 c8 3c
       0.08792421 -0.2197131 0.12585412 0.02441663
0001e0 5c 66 e6 3e a4 4a 26 3e de 46 11 bc 7b 52 01 3e
       0.4499997 0.1623941 -0.008866994 0.1262912
0001f0 5d 9b c8 bc 62 82 b8 bd bb 70 9d bd 0c ec 5c 3d
       -0.024488145 -0.090092435 -0.07687517 0.05393605

bias f4 [2]
000000 5b 19 e8 3d 27 09 4b 3d
       0.11332961 0.049569275
