player_model_ts.pt (torch, 508019 bytes, 12 tensors)

weight f4 [256, 84]
-0.0037319548 0.327078 0.07587649 -0.0825026 0.047997784 -0.014938091 -0.25115308 -0.18023254
-0.13089375 -0.0290165 0.042021364 -0.013026863 -0.0039893617 -0.06758658 -0.045607284 -0.07629548
-0.19678217 0.030919665 0.04339838 -0.08961086 0.1904092 -0.2221054 0.01717903 0.14655957
0.021058032 0.26132214 0.09373477 0.02878784 0.06291311 -0.41129932 0.0034280573 -0.019537132
-0.39356744 0.13332616 -0.02854268 -0.23610671 0.05471849 0.023859097 0.18265794 0.15904371
0.087028645 0.08085398 -0.19123092 0.045779824 -0.010630893 -0.33972016 0.10085914 0.090426266
-0.36273068 -0.21646276 0.09399847 -0.04746711 0.23124112 -0.10002647 0.09197301 0.15149479
-0.18103345 0.015154912 -0.13760367 0.028577304 0.08346726 -0.17348544 0.22095603 -0.028019577
-0.06516173 0.09563507 0.50375646 0.06778303 0.23273174 0.036145695 -0.1337061 0.113125496
0.015480249 0.010618479 -0.044884115 -0.0518593 0.09812893 -0.19397601 0.021329876 -0.10013415
-0.033996794 -0.05122017 -0.04954596 0.042066503 0.077525266 0.31052616 0.27751482 -0.15514365
-0.18948837 -0.09271861 -0.060627952 0.11731772 0.04821463 -0.019849742 0.036722787 -0.041967295
-0.0057759653 -0.0138971945 0.0954181 -0.08357434 -0.016347112 -0.29304796 -0.12501018 0.050648198
0.516334 -0.39521804 -0.17598009 0.15763515 -0.40385127 0.054783795 0.13077028 0.033145398
-0.02608897 0.3524669 0.14446245 -0.20296098 -0.22364244 0.34342232 0.075336345 -0.14149292
0.17705894 -0.18337117 0.061707545 0.10365173 -0.3716566 -0.34138775 -9.921338e-05 -0.08889066
-0.2449093 -0.24534081 0.20311436 -0.076496735 -0.21401721 -0.031571604 0.11719863 -0.09074142
-0.045951203 -0.06351459 -0.032346413 0.0148028815 -0.09360211 -0.051662404 0.008570976 -0.05550035
-0.119914606 -0.14368255 0.13443825 -0.0063756923 -0.09864953 -0.013368882 0.02478204 -0.0010902807
0.057930134 0.04419952 -0.07681101 0.10189905 0.088862516 0.0833795 0.106466256 -0.021121576
0.008092821 0.080200784 0.028079502 -0.07343357 -0.037473254 0.043592475 -0.036827974 0.022421919
-0.13503593 0.4072047 0.08873204 0.03251171 -0.13765316 -0.029301573 -0.09153212 -0.08221897
0.08964629 -0.096681945 0.10749974 -0.08816855 0.069805674 0.05215324 0.119284816 0.057144742
0.08409868 -0.0529963 -0.014012354 -0.055453386 -0.01131212 -0.030049326 0.097159624 0.1809918
-0.14897847 -0.055768818 -3.389755e-05 -0.061093755 0.05859247 -0.09900896 -0.009790021 0.1946406
-0.21300709 0.20997123 0.146846 -0.17047966 -0.064764336 -0.19649927 0.2735546 0.21759665
0.45095062 -0.0146186855 -0.41057026 -0.29028478 -0.3116391 0.0620491 -0.15983021 0.31054518
-0.23639338 -0.06320502 0.112304814 -0.19852574 0.081537455 -0.15698284 0.2731823 -0.22131115
-0.035873987 0.32554674 -0.104215056 0.13930298 -0.27197155 -0.08562841 -0.24539131 -0.008491988
-0.045694448 -0.14127481 -0.087429024 -0.052817065 0.015821446 0.03616064 0.11591936 -0.15284646
-0.06374388 0.003946545 0.15664718 0.027956037 0.062333643 0.09095356 -0.09720834 -0.03642056
-0.025802495 -0.16937594 -0.113984354 0.031639293 -0.07024283 0.23947808 -0.27334777 -0.023176529
00000000: d093 74bb c576 a73e 2265 9b3d 20f7 a8bd
00000010: 5399 443d e5be 74bc 2397 80be e18e 38be
00000020: 0309 06be 03b4 edbc 981e 2c3d a06e 55bc
00000030: 31b9 82bb d56a 8abd b4ce 3abd ce40 9cbd
00000040: 4481 49be 3d4b fd3c 80c2 313d e685 b7bd
00000050: a1fa 423e 996f 63be 0abb 8c3c b613 163e
00000060: e581 ac3c 04cc 853e 04f8 bf3d 7ad4 eb3c
00000070: 97d8 803d d395 d2be 42a9 603b 560c a0bc
00000080: ac81 c9be a786 083e 57d2 e9bc f5c5 71be
00000090: 7f20 603d 2774 c33c af0a 3b3e 5bdc 223e
000000a0: 133c b23d c596 a53d 0ad2 43be a083 3b3d
000000b0: 322d 2ebc cdef adbe 3d8f ce3d 6831 b93d
000000c0: d6b7 b9be 6aa8 5dbe 4582 c03d df6c 42bd
000000d0: 79ca 6c3e aeda ccbd 585c bc3d 7321 1b3e
000000e0: d560 39be 4f4c 783c fae7 0cbe f31a ea3c
000000f0: e2f0 aa3d 2ba6 31be 4c42 623e 5089 e5bc
00000100: 8373 85bd 52dc c33d 2ff6 003f d4d1 8a3d
00000110: 3b51 6e3e 820d 143d 40ea 08be 57ae e73d
00000120: dfa0 7d3c 21f9 2d3c 68d8 37bd 6b6a 54bd
00000130: d2f7 c83d a6a1 46be febb ae3c 2213 cdbd
00000140: 3940 0bbd 3ecc 51bd b4f0 4abd ed4d 2c3d
00000150: 91c5 9e3d 49fd 9e3e 6c16 8e3e fadd 1ebe
00000160: 3d09 42be 41e3 bdbd 0455 78bd 4644 f03d
00000170: b47c 453d ed9b a2bc a26a 163d e6e5 2bbd
00000180: 4f44 bdbb 0fb1 63bc 916a c33d 0629 abbd
00000190: 61ea 85bc 620a 96be ab02 00be 7c74 4f3d
000001a0: 772e 043f 055a cabe 2034 34be 1c6b 213e
000001b0: 98c5 cebe f964 603d a5e8 053e 78c3 073d
000001c0: 89b8 d5bc 8b76 b43e f7ed 133e 01d5 4fbe
000001d0: 8602 65be 0dd5 af3e f149 9a3d 85e3 10be
000001e0: f04e 353e a7c5 3bbe 0dc1 7c3d 5c47 d43d
000001f0: c649 bebe 60ca aebe c710 d0b8 4e0c b6bd
00000200: 81c9 7abe 9f3a 7bbe 36fd 4f3e 52aa 9cbd
00000210: 5427 5bbe 3a51 01bd d605 f03d a3d6 b9bd
00000220: 5437 3cbd f013 82bd ac7d 04bd c987 723c
00000230: 77b2 bfbd f59b 53bd 476d 0c3c 5654 63bd
00000240: ca95 f5bd 8521 13be 2eaa 093e 2feb d0bb
00000250: c408 cabd 2809 5bbc b403 cb3c c0e7 8eba
00000260: 2648 6d3d 8e0a 353d 174f 9dbd 73b0 d03d
00000270: 8dfd b53d dfc2 aa3d fb0a da3d 2807 adbc
00000280: c097 043c 4f40 a43d fc06 e63c 5764 96bd
00000290: 8e7d 19bd 068e 323d eed8 16bd 2cae b73c
000002a0: dc46 0abe 227d d03e 25b9 b53d 002b 053d
000002b0: f3f4 0cbe da09 f0bc 3175 bbbd 6b62 a8bd
000002c0: 7998 b73d 2f01 c6bd d328 dc3d b691 b4bd
000002d0: 47f6 8e3d a39e 553d 994b f43d 9b10 6a3d
000002e0: ee3b ac3d a612 59bd 1394 65bc 1723 63bd
000002f0: 7856 39bc 012a f6bc a0fb c63d ea55 393e
00000300: d08d 18be d86d 64bd 382d 0eb8 723d 7abd
00000310: a8fe 6f3d 36c5 cabd 5366 20bc de4f 473e
00000320: 881e 5abe b302 573e cc5e 163e 3892 2ebe
00000330: 2aa3 84bd 1b37 49be 590f 8c3e a8d1 5e3e
00000340: 00e3 e63e 3683 6fbc 4436 d2be 35a0 94be
00000350: 298f 9fbe 3227 7e3d 88aa 23be c7ff 9e3e
00000360: 1b11 72be a271 81bd 1100 e63d 554a 4bbe
00000370: 1cfd a63d 1cc0 20be 8dde 8b3e 649f 62be
00000380: 9af0 12bd 10ae a63e b46e d5bd 71a5 0e3e
00000390: db3f 8bbe f35d afbd dc47 7bbe fb21 0bbc
000003a0: 1a2a 3bbd 58aa 10be fd0d b3bd b556 58bd
000003b0: fa9b 813c 2e1d 143d 2167 ed3d c883 1cbe
000003c0: 278c 82bd 0552 813b 1e68 203e 0f04 e53c
000003d0: 9051 7f3d dc45 ba3d 2b15 c7bd ba2d 15bd
000003e0: c15f d3bc e370 2dbe a170 e9bd 3498 013d
000003f0: 79db 8fbd be39 753e 3df4 8bbe b4dc bdbc

bias f4 [256]
-0.19504279 -0.04379623 -0.28515288 0.103379324 0.19230823 -0.15055835 0.09482103 -0.008278004
-0.136672 -0.043443803 0.0035361506 0.011249851 0.040608488 -0.03365411 -0.1465017 0.15233383
-0.13333002 -0.074868694 -0.016861161 0.044229116 -0.13172959 -0.15229766 -0.013202085 -0.10309087
-0.23295766 -0.157016 -0.288264 -0.0036357003 -0.1350618 -0.103746206 -0.003062899 0.07975756
0.18302101 -0.12125574 0.02002626 0.011826159 -0.2945428 0.034722246 0.032499734 -0.22887848
-0.055433206 -0.20084114 -0.09345497 -0.07158265 -0.13945504 -0.06540798 -0.014503718 0.006415237
0.21403328 -0.14021815 0.02614679 0.27144438 -0.05159621 -0.08101365 -0.17348112 0.00732965
0.08289051 0.028820716 0.073586054 -0.028774422 0.026832283 -0.04787419 0.11253519 0.19875236
0.1492882 0.05939614 0.11758966 -0.20416 -0.31750768 -0.10532244 0.08686391 -0.17605604
0.08234371 0.2568736 0.0007723638 -0.07189627 -0.12408299 0.0038067782 -0.23355599 -0.11322607
0.029845513 0.082822055 -0.0091379015 -0.014350246 0.06447244 -0.059647262 -0.22373623 0.20753439
-0.04495875 0.13114716 0.19992228 0.17244774 -0.022632439 0.023194978 0.0082875835 -0.023087336
-0.0941908 -0.09979277 -0.15983105 -0.12137336 0.11740002 -0.05010371 -0.23107788 -0.060485393
-0.051677395 -0.0058053015 0.3282892 0.039131075 -0.07359461 0.18446997 0.029421948 -0.0013557815
-0.0626439 -0.010261031 0.08003984 0.025360942 0.109788924 -0.045151822 0.10516597 0.08358232
-0.06981555 -0.0027047065 -0.16966909 -0.04698632 0.015542922 -0.123613514 0.13471533 0.119264714
-0.054620795 0.15342613 0.03591432 0.24980293 -0.1240807 -0.042284958 -0.04953066 -0.050028034
-0.11452277 0.083830945 0.04511968 -0.1558928 -0.10834791 0.20945024 0.022755483 -0.08585646
0.012235188 -0.039453913 -0.21471223 -0.059978306 0.040757008 -0.108762056 0.18701017 -0.08451332
0.036641233 -0.1664262 -0.11847255 0.23576364 -0.043204032 0.13858682 0.014566061 0.0751192
-0.22418395 -0.33729312 -0.20612197 -0.24557617 -0.119991794 -0.023015624 -0.04041663 0.1521427
0.112932354 -0.15101194 -0.0804421 -0.077504836 -0.15480904 -0.20464653 0.14646734 -0.18901886
0.10699792 -0.12161163 0.17642103 -0.08587219 -0.14453731 -0.14012027 -0.052296225 0.06687942
-0.0036876576 0.16436528 0.28252417 0.17746782 0.10556535 -0.117719695 -0.21552406 0.08385433
0.11074665 -0.18481694 0.041221626 -0.064241946 -0.20230904 0.24682142 0.05244877 0.122486845
-0.20144236 -0.26990086 -0.13833934 -0.023146138 0.18692058 0.064602025 0.0068573295 0.015727198
-0.031500958 0.07932984 -0.017453508 -0.043993145 -0.18517472 -0.04820363 -0.07774103 -0.036574375
0.033448312 -0.0048222155 0.093393244 0.1267489 0.032324 0.10220621 -0.2331037 0.27514783
0.057671387 0.008400754 0.13032752 -0.14247231 0.2954397 0.036416795 -0.08169461 0.116169274
-0.027370732 -0.1374549 -0.16977488 -0.142461 0.0030761766 0.16246884 -0.24115008 -0.09482918
-0.038234312 0.05299479 -0.1357332 -0.038720846 0.05572364 -0.22227716 0.048496764 -0.035083834
-0.07879843 0.22020733 -0.007889059 -0.17664167 0.09684434 0.0499828 -0.18787709 -0.2681359
00000000: 4cb9 47be ad63 33bd 8fff 91be 8ab8 d33d
00000010: 73ec 443e f82b 1abe 8731 c23d 77a0 07bc
00000020: bff3 0bbe 21f2 31bd c3be 673b 4c51 383c
00000030: 1655 263d e4d8 09bd 8b04 16be 66fd 1b3e
00000040: aa87 08be c254 99bd 6b20 8abc 9729 353d
00000050: 1fe4 06be ebf3 1bbe 8f4d 58bc 4e21 d3bd
00000060: 748c 6ebe cdc8 20be 5797 93be ee44 6ebb
00000070: a44d 0abe e478 d4bd ebba 48bb ee57 a33d
00000080: dc69 3b3e ee54 f8bd 1c0e a43c 82c2 413c
00000090: 50ce 96be ea38 0e3d 711e 053d 1f5f 6abe
000000a0: ee0d 63bd 4da9 4dbe 5265 bfbd ed99 92bd
000000b0: 4dcd 0ebe 9ef4 85bd 01a1 6dbc e936 d23b
000000c0: 8a2b 5b3e 5995 0fbe cb31 d63c c2fa 8a3e
000000d0: 8c56 53bd 7cea a5bd 09a5 31be 902d f03b
000000e0: 80c2 a93d 6c19 ec3c 49b4 963d 56b8 ebbc
000000f0: 60cf db3c ba17 44bd da78 e63d bd85 4b3e
00000100: 02df 183e 5e49 733d d9d2 f03d 520f 51be
00000110: 5e90 a2be 4bb3 d7bd b5e5 b13d 0948 34be
00000120: d2a3 a83d f084 833e 7578 4a3a 5a3e 93bd
00000130: 391f febd 247b 793b 4d29 6fbe 12e3 e7bd
00000140: 947e f43c 9c9e a93d 23b7 15bc 4b1d 6bbc
00000150: 200a 843d b050 74bd 1c1b 65be e583 543e
00000160: ab26 38bd 714b 063e 6db8 4c3e 2496 303e
00000170: aa67 b9bc 6503 be3c a5c8 073c a721 bdbc
00000180: 1be7 c0bd 2760 ccbd c0aa 23be 9992 f8bd
00000190: 6c6f f03d 8c39 4dbd ae9f 6cbe 88bf 77bd
000001a0: adab 53bd 663a bebb 8615 a83e e847 203d
000001b0: c5b8 96bd b2e5 3c3e 4c06 f13c 7ab4 b1ba
000001c0: 724b 80bd e21d 28bc edeb a33d c0c1 cf3c
000001d0: 04d9 e03d 1ef1 38bd 4261 d73d 352d ab3d
000001e0: 75fb 8ebd 7241 31bb bcbd 2dbe ba74 40bd
000001f0: bda7 7e3c 1529 fdbd d1f2 093e 0f41 f43d
00000200: 0eba 5fbd bd1b 1d3e e51a 133d 57cc 7f3e
00000210: 061e febd fe32 2dbd a9e0 4abd 32ea 4cbd
00000220: ea8a eabd 8faf ab3d 6acf 383d 5da2 1fbe
00000230: 82e5 ddbd 207a 563e b569 ba3c 83d5 afbd
00000240: 1976 483c 6d9a 21bd 86dd 5bbe d0ab 75bd
00000250: d2f0 263d a4be debd 987f 3f3e 5215 adbd
00000260: 1e15 163d a16b 2abe bca1 f2bd 066c 713e
00000270: b6f6 30bd b4e9 0d3e 7da6 6e3c 18d8 993d
00000280: 7a90 65be afb1 acbe a311 53be 5278 7bbe
00000290: 42be f5bd 438b bcbc e98b 25bd 4ccb 1b3e
000002a0: 1449 e73d e0a2 1abe d4be a4bd dbba 9ebd
000002b0: 4386 1ebe dc8e 51be 89fb 153e 298e 41be
000002c0: ba21 db3d 850f f9bd b7a7 343e c2dd afbd
000002d0: 9701 14be b07b 0fbe 9134 56bd 14f8 883d
000002e0: a1ac 71bb 5f4f 283e 02a7 903e 20ba 353e
000002f0: a532 d83d 0617 f1bd 57b2 5cbe d2bb ab3d
00000300: 24cf e23d a740 3dbe 02d8 283d 4891 83bd
00000310: 1a2a 4fbe c1be 7c3e 85d4 563d 62da fa3d
00000320: e846 4ebe 7230 8abe d4a8 0dbe f89c bdbc
00000330: 1c68 3f3e 114e 843d 73b3 e03b 53d6 803c
00000340: 2607 01bd af77 a23d a9fa 8ebc 2832 34bd
00000350: 719e 3dbe 2b71 45bd b036 9fbd 03cf 15bd
00000360: 1901 093d ad03 9ebb f544 bf3d 77ca 013e
00000370: 2c66 043d 7d51 d13d bdb2 6ebe 2de0 8c3e
00000380: d538 6c3d 51a3 093c 9474 053e 43e4 11be
00000390: df43 973e c729 153d 814f a7bd 28ea ed3d
000003a0: 9638 e0bc fac0 0cbe 77d9 2dbe 4ce1 11be
000003b0: ae99 493b 3b5e 263e 0cf0 76be cd35 c2bd
000003c0: 959b 1cbd 1111 593d a5fd 0abe c099 1ebd
000003d0: 793e 643d a09c 63be 8ba4 463d 11b4 0fbd
000003e0: 1261 a1bd 087e 613e 1d41 01bc 8ee1 34be
000003f0: 5356 c63d c4ba 4c3d da62 40be 1c49 89be

weight f4 [256]
1.0538245 1.105368 1.2336134 0.9105794 0.8453651 0.5346813 1.020084 1.1985846
1.2203554 1.3102728 0.8243817 1.0283458 0.7137471 1.1184099 1.2641659 0.8447455
1.1775601 0.8534958 0.6942265 0.90979385 0.91428214 1.1576545 0.81862694 0.6736127
1.1039362 0.9386332 0.6173812 0.8215491 0.7290256 0.9684737 0.77782744 1.3252285
0.8241857 0.54031837 0.81471086 0.8095898 1.5111023 0.94793576 0.9710401 0.55075413
1.0954679 0.849041 0.51149976 0.76932883 1.0368886 0.45962536 0.933118 1.2203529
1.3369122 1.0168376 0.7278458 1.1344758 0.8234778 1.0620131 1.2393736 1.0381742
0.66257495 1.1250026 1.0125341 0.8155785 1.010203 0.69464123 0.8601762 0.7288094
0.89932454 0.7656078 0.8921601 0.7234104 0.68571633 0.7405445 1.3245534 0.90547043
0.89192057 0.98056537 0.80205864 1.0513141 0.8911407 1.0925037 1.0572164 0.74528146
0.86727256 0.9306996 1.0273645 0.9867598 0.9740663 0.77342737 1.1113002 0.9331342
0.69058037 0.86114055 0.81366926 1.0319957 1.0055938 0.8308621 0.6522416 0.93671274
0.8978487 0.76623094 0.81193334 0.80129695 1.3617375 1.4160898 0.5705273 1.1854347
0.89565116 0.7611282 1.3704929 1.2929717 0.67789286 0.93647426 0.74293363 1.0665203
1.1447215 0.7548568 0.80500066 0.86856735 1.180749 0.82927966 0.928085 0.6108447
1.116101 1.0060464 0.75101215 1.31931 1.2946453 0.9977294 1.2224723 1.089803
1.0985739 1.0891887 0.7722372 0.7590101 0.88560927 0.7417318 0.69137937 1.2408869
0.84862506 0.63036484 0.884213 0.5988729 0.83427215 1.0314287 0.66211814 0.90848905
1.1622448 1.1346267 1.1050224 0.9927662 0.69929165 0.9543301 1.1252226 1.1943141
0.84102035 0.55050474 0.70518273 1.0669456 0.67921335 1.0861931 1.1151919 0.6724928
0.9941936 1.3095899 1.2210994 1.5269529 0.8017379 0.67421716 0.8011778 0.76154315
0.7649857 0.88457817 0.7770486 1.1338363 1.0512885 0.75025976 1.086577 0.7459397
1.0546304 1.0040059 0.92975825 0.9035671 0.9744915 1.1465926 1.7921333 1.215217
1.074022 0.85145503 0.9458345 1.0013915 1.191269 0.5723344 0.768033 0.83288825
0.6216733 0.9551479 0.8991405 0.73289114 1.0825992 1.4909357 0.90655154 0.8788628
0.56096333 0.9948585 0.81486475 1.0199257 1.2415261 0.7225235 0.8222521 0.9645516
0.8978777 1.2130097 0.74985516 0.7791736 0.5866666 1.0571644 0.8177374 0.9151929
0.68354744 1.144434 0.73107743 0.836729 0.8686294 0.83432215 0.9139804 1.390035
1.2741055 0.7977535 0.94247705 0.77413994 1.1317991 0.7440888 0.96677077 0.8965947
0.3720461 0.999391 0.80541015 0.85411155 1.0547009 0.7093112 1.089505 0.98275995
1.004299 0.92465395 1.170916 0.69462556 1.2015867 0.8224187 0.7312709 1.2376784
0.8075494 1.0021645 0.8424139 0.8336469 0.8184051 0.7687427 0.7831569 0.9505875
00000000: b9e3 863f b37c 8d3f 0be7 9d3f bb1b 693f
00000010: d969 583f e0e0 083f 1d92 823f 386b 993f
00000020: 9b34 9c3f 05b7 a73f ae0a 533f d6a0 833f
00000030: 21b8 363f 0e28 8f3f 30d0 a13f 3e41 583f
00000040: 4aba 963f b37e 5a3f d4b8 313f 40e8 683f
00000050: 650e 6a3f 062e 943f 8991 513f e271 2c3f
00000060: c84d 8d3f 444a 703f b20c 1e3f 0b51 523f
00000070: 6ca1 3a3f e4ed 773f b31f 473f 16a1 a93f
00000080: d6fd 523f 4e52 0a3f e490 503f 4741 4f3f
00000090: cd6b c13f ebab 723f 1696 783f 39fe 0c3f
000000a0: 4b38 8c3f c05a 593f a6f1 023f bcf2 443f
000000b0: c4b8 843f 0454 eb3e d2e0 6e3f 8634 9c3f
000000c0: f01f ab3f bc27 823f 1a54 3a3f 8136 913f
000000d0: 71cf 523f 0cf0 873f cba3 9e3f e4e2 843f
000000e0: 839e 293f 1600 903f b89a 813f c1c9 503f
000000f0: 554e 813f 02d4 313f 8234 5c3f 4193 3a3f
00000100: 223a 663f dffe 433f 9b64 643f 6d31 393f
00000110: 1b8b 2f3f 5394 3d3f f78a a93f e9cc 673f
00000120: e854 643f 5506 7b3f b753 4d3f 7691 863f
00000130: cc21 643f 29d7 8b3f de52 873f c4ca 3e3f
00000140: 9305 5e3f 5442 6e3f ae80 833f 4a9c 7c3f
00000150: 695c 793f 56ff 453f 163f 8e3f e2e1 6e3f
00000160: e0c9 303f b573 5c3f a14c 503f 6f18 843f
00000170: 4cb7 803f 61b3 543f 4ef9 263f 68cc 6f3f
00000180: 6ad9 653f b627 443f ddda 4f3f cc21 4d3f
00000190: 6a4d ae3f 6e42 b53f 140e 123f 53bc 973f
000001a0: 6549 653f 4cd9 423f 506c af3f 1980 a53f
000001b0: 638a 2d3f c7bc 6f3f e630 3e3f bd83 883f
000001c0: 3c86 923f 4c3e 413f 8614 4e3f 6e5a 5e3f
000001d0: c922 973f ac4b 543f fb96 6d3f 5160 1c3f
000001e0: 66dc 8e3f 21c6 803f 5542 403f 26df a83f
000001f0: f0b6 a53f 326b 7f3f f979 9c3f aa7e 8b3f
00000200: 129e 8c3f 896a 8b3f 56b1 453f 7c4e 423f
00000210: 4ab7 623f 23e2 3d3f 3dfe 303f 62d5 9e3f
00000220: 7e3f 593f 975f 213f c85b 623f bc4f 193f
00000230: dc92 553f db05 843f 9380 293f bd92 683f
00000240: 70c4 943f 733b 913f 6071 8d3f ed25 7e3f
00000250: c704 333f fa4e 743f 4b07 903f 49df 983f
00000260: 1c4d 573f e1ed 0c3f db86 343f ac91 883f
00000270: ede0 2d3f 6008 8b3f 9cbe 8e3f 7d28 2c3f
00000280: 7983 7e3f a4a0 a73f fc4c 9c3f 3173 c33f
00000290: b23e 4d3f 7f99 2c3f fd19 4d3f 7ef4 423f
000002a0: 1ad6 433f b773 623f a8ec 463f 8c21 913f
000002b0: 9f90 863f 0611 403f f514 8b3f e7f5 3e3f
000002c0: 21fe 863f 4483 803f a304 6e3f 2c50 673f
000002d0: 4678 793f 8cc3 923f a064 e53f 3b8c 9b3f
000002e0: 8e79 893f f5f8 593f 3622 723f 992d 803f
000002f0: 817b 983f 8284 123f d09d 443f 2a38 553f
00000300: fb25 1f3f 9384 743f 122e 663f c19e 3b3f
00000310: 9c92 8a3f fbd6 be3f c313 683f 27fd 603f
00000320: 4b9b 0f3f 0caf 7e3f fa9a 503f ed8c 823f
00000330: 54ea 9e3f 4df7 383f 1d7f 523f dbec 763f
00000340: 50db 653f e743 9b3f 82f6 3f3f ec77 473f
00000350: c82f 163f 2a51 873f 3d57 513f 154a 6a3f
00000360: f7fc 2e3f d07c 923f e427 3b3f df33 563f
00000370: 7f5e 5e3f 2396 553f 9ffa 693f abec b13f
00000380: e415 a33f 9339 4c3f 2d46 713f 092e 463f
00000390: cbde 903f 9b7c 3e3f 4a7e 773f 3b87 653f
000003a0: d47c be3e 17d8 7f3f 5c2f 4e3f 0ea7 5a3f
000003b0: 7000 873f 6b95 353f e674 8b3f 2896 7b3f
000003c0: df8c 803f 1fb6 6c3f 93e0 953f fbd2 313f
000003d0: 98cd 993f 088a 523f 9234 3b3f 3f6c 9e3f
000003e0: 8fbb 4e3f ed46 803f 70a8 573f e269 553f
000003f0: ff82 513f 52cc 443f f87c 483f b459 733f

bias f4 [256]
0.15039892 0.11950742 0.08557691 0.096924745 0.08061677 0.034097794 -0.04773215 -0.07312099
0.054769818 -0.084303536 0.15555435 0.17427918 0.24688692 -0.13387217 0.08197957 0.08192917
-0.16939269 0.11313982 0.25057128 0.14827244 0.05116187 -0.050548993 0.081082866 0.24279134
-0.08763007 0.2084328 0.16341116 0.13763759 0.23906837 -0.0752089 0.17676498 -0.07509855
0.035359915 0.13201587 0.14791355 0.20298071 0.18050916 0.16025954 0.14655037 0.0016065999
0.2627303 0.082907796 0.07590448 0.05323977 -0.056949068 0.18584742 0.07693763 0.09047577
-0.10661374 -0.036001816 0.2633189 0.13486096 0.15011509 -0.064333595 0.026182171 0.07531591
0.14448419 0.01951172 0.27702916 0.15980978 0.035107084 0.25219533 -0.10271447 0.2671121
0.24295156 0.20207898 -0.044043347 -0.02346389 0.055750612 0.22424997 0.012556298 -0.03562554
0.16967139 0.05880526 0.15735143 -0.014794958 -0.05540023 -0.010949419 0.08560638 0.23887375
0.0962914 0.32319003 0.16851145 0.12213085 0.05966193 0.26897523 0.026400333 0.033055175
0.26235268 0.16678362 0.24281119 0.12519392 -0.05199195 0.13548423 0.036903232 0.050813142
0.24835594 0.19939506 -0.0034887714 0.16526009 -0.04072296 0.11966901 0.21201499 -0.113426246
0.24579397 0.2038375 -0.0038969163 0.117676705 0.25209835 -0.0376571 0.14369458 0.14247127
0.001069799 0.1986659 0.19064106 0.058324404 0.14757693 0.14263636 0.18849953 0.23202284
0.04216641 0.095746346 0.28137532 0.022585025 0.105836794 0.26265517 -0.019344857 0.12553477
-0.034495957 0.06039775 0.28264847 0.27835804 0.08172648 0.19774991 0.2613135 0.13596652
0.12014318 0.2268574 0.09084498 0.17417277 0.13092653 0.13395011 0.25522256 0.2717491
-0.05007976 0.11139626 0.17737931 -0.046360984 0.26281974 0.19360843 0.16487217 -0.04269863
0.12838608 -0.05495319 0.17748092 0.16386956 0.22103977 0.03901821 0.026833102 0.14075153
-0.00405135 0.031156478 0.093932174 0.12617294 0.15716687 0.065332815 0.15486531 0.26103452
0.185583 0.21703582 0.18936254 -0.014004084 0.08520054 -0.086913995 -0.07607 -0.06726262
0.06255838 0.05131497 0.040129647 0.12719233 0.03209843 0.08976548 0.13504374 0.030888671
0.22971399 0.20105745 0.15333252 0.2546209 0.10976287 -0.005387882 0.08687214 0.13132249
0.16489469 -0.04235523 0.019578021 0.2775087 -0.029687485 0.17394659 -0.051341143 0.031489674
0.08741515 0.06272044 0.28129846 0.16472791 0.05090863 0.23160471 0.06857568 -0.03271391
0.17050402 -0.0033022342 0.1556116 0.1878382 0.008631355 -0.055839267 0.14549604 -0.014387428
0.25317055 0.10293599 0.23026662 -0.030331116 0.09474768 0.13581629 -0.06458164 0.1767557
0.14335003 -0.029636404 -0.019754337 0.027267428 0.053142566 0.22848992 -0.111652754 -0.03743003
0.1276796 -0.033767972 0.13398507 0.11284117 -0.026037699 0.21412353 0.008707373 0.00047409226
-0.08515358 0.08117321 0.07113425 0.23834953 -0.0759833 0.23690416 -0.020084318 -0.057492968
0.20891158 0.024314132 -0.022639645 0.2217612 0.15164576 0.064377375 0.14249192 -0.06693118
00000000: 2d02 1a3e 4ec0 f43d f242 af3d 7b80 c63d
00000010: 681a a53d 21aa 0b3d c982 43bd 75c0 95bd
00000020: 5156 603d 55a7 acbd a449 1f3e 3e76 323e
00000030: edcf 7c3e c915 09be e8e4 a73d 7bca a73d
00000040: 4775 2dbe dab5 e73d e14a 803e bbd4 173e
00000050: 1c8f 513d 760c 4fbd c60e a63d 4b9e 783e
00000060: 6577 b3bd 686f 553e 4155 273e def0 0c3e
00000070: 57ce 743e 2007 9abd e101 353e 45cd 99bd
00000080: 8fd5 103d 2b2f 073e a676 173e 2dda 4f3e
00000090: 65d7 383e 141b 243e 4d11 163e 8c94 d23a
000000a0: 9684 863e 90cb a93d cf73 9b3d f211 5a3d
000000b0: 6d43 69bd c94e 3e3e 7a91 9d3d 5c4b b93d
000000c0: 4e58 dabd a476 13bd bcd1 863e fe18 0a3e
000000d0: c5b7 193e 55c1 83bd fe7b d63c 3a3f 9a3d
000000e0: aaf3 133e 0bd7 9f3c c4d6 8d3e 2da5 233e
000000f0: 72cc 0f3d bf1f 813e f75b d2bd ebc2 883e
00000100: 4bc8 783e cbed 4e3e cc66 34bd 5837 c0bc
00000110: c15a 643d c9a1 653e eeb8 4d3c 16ec 11bd
00000120: 56be 2d3e c9dd 703d bc20 213e 8d66 72bc
00000130: 5aeb 62bd 3165 33bc 6652 af3d 529b 743e
00000140: 6d34 c53d 2a79 a53e 448e 2c3e bd1f fa3d
00000150: 1160 743d 1fb7 893e 8345 d83c dd64 073d
00000160: 1753 863e 53c9 2a3e 7fa3 783e d632 003e
00000170: 83f5 54bd 61bc 0a3e d827 173d 7121 503d
00000180: 0551 7e3e 382e 4c3e dfa3 64bb f139 293e
00000190: 1ecd 26bd 0715 f53d 751a 593e 054c e8bd
000001a0: 6ab1 7b3e c7ba 503e 6863 7fbb 7c00 f13d
000001b0: 0913 813e 553e 1abd ac24 133e fde3 113e
000001c0: 7f38 8c3a 136f 4b3e 6937 433e 92e5 6e3d
000001d0: 681e 173e 440f 123e 0506 413e 6597 6d3e
000001e0: afb6 2c3d a916 c43d 6d10 903e 3b04 b93c
000001f0: f6c0 d83d bd7a 863e 1b79 9ebc 308c 003e
00000200: a24b 0dbd a263 773d 4db7 903e f284 8e3e
00000210: 3660 a73d f47e 4a3e e2ca 853e cf3a 0b3e
00000220: a10d f63d 4e4d 683e ef0c ba3d 595a 323e
00000230: 9b11 063e 382a 093e 88ac 823e b322 8b3e
00000240: 6f20 4dbd b923 e43d eca2 353e 04e5 3dbd
00000250: 4f90 863e 4a41 463e 40d4 283e c2e4 2ebd
00000260: a477 033e 9916 61bd 8fbd 353e 6ccd 273e
00000270: 4058 623e 8fd1 1f3d 18d1 db3c 2b21 103e
00000280: 30c1 84bb df3b ff3c 835f c03d 7b33 013e
00000290: 5af0 203e 36cd 853d 0395 1e3e 51a6 853e
000002a0: 7809 3e3e a33e 5e3e 41e8 413e 6371 65bc
000002b0: 9f7d ae3d f7ff b1bd 97ca 9bbd fcc0 89bd
000002c0: 9c1e 803d a52f 523d fc5e 243d b53e 023e
000002d0: a579 033d f7d6 b73d e848 0a3e 3d0a fd3c
000002e0: 253a 6b3e 01e2 4d3e 3303 1d3e ac5d 823e
000002f0: 5bcb e03d d48c b0bb 05ea b13d 6779 063e
00000300: 27da 283e ad7c 2dbd 1662 a03c 9f15 8e3e
00000310: 2b33 f3bc 0e1f 323e 174b 52bd 51fb 003d
00000320: b706 b33d 9373 803d 5a06 903e 6fae 283e
00000330: 9185 503d c929 6d3e 6871 8c3d 05ff 05bd
00000340: 9b98 2e3e 4c6a 58bb a658 1f3e a858 403e
00000350: 876a 0d3c b7b7 64bd eafc 143e 3fb9 6bbc
00000360: 929f 813e 1bd0 d23d 03cb 6b3e f678 f8bc
00000370: 120b c23d 6d13 0b3e 6143 84bd 72ff 343e
00000380: 5aca 123e 0bc8 f2bc d9d3 a1bc f15f df3c
00000390: 05ac 593d 43f9 693e 33aa e4bd 3b50 19bd
000003a0: 71be 023e 4950 0abd 6233 093e 4519 e73d
000003b0: 034d d5bc 3343 5b3e 5fa9 0e3c 968f f839
000003c0: 0065 aebd 243e a63d d5ae 913d e611 743e
000003d0: 229d 9bbd 0197 723e de87 a4bc bf7d 6bbd
000003e0: ebec 553e 6e2e c73c c776 b9bc 5e15 633e
000003f0: 0749 1b3e 49d8 833d 67e9 113e 3713 89bd

weight f4 [256, 256]
-0.5172275 -0.13489658 0.05370646 0.057648525 0.052358102 0.0648881 -0.045232657 0.097597465
-0.058771662 0.17191431 0.03178593 -0.051944528 0.0069957483 -0.35025492 -0.32200778 0.23940413
-0.20619632 0.050043594 0.03165981 -0.07761121 0.13144669 0.40762538 0.016607817 -0.099341325
0.1571714 -0.26758307 -0.14113776 0.049000334 0.08079054 0.15841377 -0.010434537 0.19465627
-0.13290925 0.035411138 -0.04817104 0.19826381 -0.35098544 -0.17893293 -0.18252528 0.116919756
-0.4812082 -0.24213915 -0.032544274 -0.040275536 0.16053195 0.09932443 -0.115163594 -0.05887533
-0.22200382 0.102303535 -0.11289343 0.049213994 0.043196928 0.054969344 0.1375575 -0.6648006
-0.089043185 0.07085121 -0.116472244 0.010212059 0.01688781 -0.046278093 -0.11849814 0.29452088
0.23594227 0.031028962 -0.16616517 -0.028164167 -0.039592784 0.052626476 0.016630212 0.02461634
0.13135755 0.069905706 -0.048574977 0.03667961 0.14355065 0.09507392 -0.2271093 -0.09079097
-0.047853176 0.02108457 -0.029055782 0.1953353 -0.08687947 -0.0903994 -0.2011772 -0.1668344
-0.055735663 -0.101778485 -0.16742596 0.05568219 0.02610927 -0.0004506879 -0.055174373 0.043952428
-0.08585909 -0.03780625 -0.09611332 -0.0069108396 0.14036466 -0.1717645 0.11770664 -0.21806107
0.12192868 -0.0031946898 0.45449784 -0.6341092 -0.030201405 -0.02009967 0.15833677 0.08452837
0.113729976 -0.12882172 -0.10213904 -0.15100618 -0.421824 -0.049796313 -0.03441591 -0.015199944
-0.052089706 0.06539445 -0.077105395 0.059902 0.055271704 -0.2145742 0.044872437 -0.09011084
-0.23976694 0.19331013 -0.027767355 0.039230444 0.011017267 0.04396967 -0.04754266 -0.1711512
0.036940213 0.020404892 0.030146653 -0.12466498 0.016363988 -0.15973662 0.005416948 0.15017727
-0.21350479 -0.14445134 0.16131544 0.14265785 -0.09382018 0.13630322 0.14379428 -0.32773477
-0.006573933 0.23351304 -0.03443779 0.063056 -0.10174193 0.33430666 -0.07621489 0.21906573
0.23825568 0.32120222 0.10154658 0.446844 0.058217283 0.07044978 0.060633607 0.14005816
-0.0040852786 -0.04735352 -0.048493333 0.083440356 -0.045867324 0.11920766 -0.022188434 0.04405815
0.01156926 0.090861514 0.05009795 -0.12097134 -0.11718572 -0.40281147 -0.36006197 -0.15626377
-0.20272738 -0.27084753 -0.15154319 0.2717308 0.30126435 0.10070845 0.0038450444 -0.035768848
-0.22673805 0.13055423 -0.1713854 -0.03833462 0.067605376 -0.11482416 0.10400489 0.0708481
-0.13985726 -0.026233135 -0.055220738 -0.23099168 0.0010900297 -0.055448104 -0.04750925 -0.07651059
-0.5915069 0.29182845 -0.30749792 -0.0045263167 0.12498769 -0.07170673 0.046289634 0.13360529
-0.08379636 0.19302842 -0.027250467 -0.010116402 -0.02929519 -0.05319018 0.042433016 0.36695415
-0.5219528 -0.09457405 -0.12657286 -0.07057241 -0.06756492 -0.00791214 -0.30126002 -0.160789
-0.0029233496 0.11289171 0.011701068 0.03979067 0.041603565 -0.089977525 0.14736164 0.17204288
0.021968694 0.023012944 -0.40655953 -0.27268457 -0.14651626 0.13429931 -0.031112032 0.20694366
-0.19748378 0.04382527 -0.064426824 0.031365693 0.0021808103 -0.016948923 -0.15495443 0.13813332
00000000: 0569 04bf 5422 0abe 4efb 5b3d dc20 6c3d
00000010: 7375 563d 0de4 843d e145 39bd 2ee1 c73d
00000020: 8eba 70bd 4e0a 303e f731 023d c9c3 54bd
00000030: 973c e53b 9d54 b3be 34de a4be 5b26 753e
00000040: 2125 53be 83fa 4c3d b8ad 013d a0f2 9ebd
00000050: f699 063e 46b4 d03e 1e0d 883c 7773 cbbd
00000060: 8af1 203e a600 89be 6b86 10be 93b4 483d
00000070: 8375 a53d 3837 223e 9ff5 2abc f953 473e
00000080: 5d19 08be 450b 113d ff4e 45bd ab05 4b3e
00000090: 5db4 b3be 323a 37be e8e7 3abe a073 ef3d
000000a0: ec60 f6be 53f3 77be 254d 05bd f6f7 24bd
000000b0: 7d62 243e 9b6a cb3d e4da ebbd 4227 71bd
000000c0: f854 63be 8484 d13d ac34 e7bd 9d94 493d
000000d0: 43ef 303d 8927 613d e0db 0c3e 5f30 2abf
000000e0: 465c b6bd 701a 913d 0089 eebd 7b50 273c
000000f0: 4e58 8a3c 198e 3dbd 27af f2bd 71cb 963e
00000100: da9a 713e 7330 fe3c 3427 2abe 8ab8 e6bc
00000110: 0b2c 22bd dc8e 573d 153c 883c 35a8 c93c
00000120: 9882 063e b92a 8f3d 8ef6 46bd 5c3d 163d
00000130: f1fe 123e 1eb6 c23d 578f 68be 9ef0 b9bd
00000140: b101 44bd 8cb9 ac3c 6406 eebc fa05 483e
00000150: dded b1bd 5223 b9bd 6501 4ebe a3d6 2abe
00000160: 144b 64bd 3d71 d0bd b671 2bbe 0213 643d
00000170: 1ce3 d53c 4e4a ecb9 86fe 61bd 7607 343d
00000180: e4d6 afbd bada 1abd 0fd7 c4bd 5374 e2bb
00000190: c1bb 0f3e 08e3 2fbe 2e10 f13d 674b 5fbe
000001a0: beb5 f93d 005e 51bb f1b3 e83e fb54 22bf
000001b0: f068 f7bc 10a8 a4bc 0923 223e 361d ad3d
000001c0: 43eb e83d d7e9 03be 462e d1bd 5da1 1abe
000001d0: 51f9 d7be 38f7 4bbd b2f7 0cbd 3009 79bc
000001e0: 045c 55bd 87ed 853d 6fe9 9dbd cd5b 753d
000001f0: 9564 623d 57b9 5bbe 29cc 373d 088c b8bd
00000200: 7785 75be 17f3 453e 5d78 e3bc 1ab0 203d
00000210: c481 343c 8a19 343d 18bc 42bd 4342 2fbe
00000220: 9f4e 173d 2928 a73c 1df6 f63c 5a50 ffbd
00000230: c50d 863c ff91 23be a780 b13b 12c8 193e
00000240: 00a1 5abe 0deb 13be e02f 253e e614 123e
00000250: cb24 c0bd 1293 0b3e cf3e 133e dacc a7be
00000260: 266a d7bb 0b1e 6f3e a40e 0dbd 8123 813d
00000270: 135e d0bd 3e2a ab3e 8d16 9cbd c452 603e
00000280: 4cf9 733e 9e74 a43e a7f7 cf3d bdc8 e43e
00000290: 3f75 6e3d f947 903d f25a 783d 686b 0f3e
000002a0: cddd 85bb c4f5 41bd f2a0 46bd c7e2 aa3d
000002b0: 60df 3bbd 2523 f43d 85c4 b5bc 5276 343d
000002c0: fe8c 3d3c 9a15 ba3d 8233 4d3d d2bf f7bd
000002d0: 11ff efbd 4e3d cebe 0b5a b8be 9c03 20be
000002e0: c497 4fbe 87ac 8abe 232e 1bbe 4d20 8b3e
000002f0: 523f 9a3e 3b40 ce3d 24fd 7b3b 5b82 12bd
00000300: 052e 68be 02b0 053e a87f 2fbe c304 1dbd
00000310: b074 8a3d ee28 ebbd 8400 d53d cf18 913d
00000320: be36 0fbe dfe6 d6bc 242f 62bd 1589 6cbe
00000330: 54df 8e3a 8d1d 63bd 0f99 42bd 96b1 9cbd
00000340: ff6c 17bf 8a6a 953e 5e70 9dbe 7f51 94bb
00000350: 8cf9 ff3d fada 92bd 339a 3d3d d3cf 083e
00000360: 6d9d abbd 3ea9 453e 5f3c dfbc 44bf 25bc
00000370: 77fc efbc f2dd 59bd 3ece 2d3d 6ae1 bb3e
00000380: b39e 05bf 0ab0 c1bd 519c 01be 4588 90bd
00000390: 7a5f 8abd eca1 01bc c13e 9abe dfa5 24be
000003a0: ab95 3fbb c533 e73d d6b5 3f3c 8bfb 223d
000003b0: 8068 2a3d 2346 b8bd f8e5 163e 022c 303e
000003c0: b1f7 b33c a485 bc3c 9228 d0be 509d 8bbe
000003d0: 5c08 16be c285 093e a9de febc 0ae9 533e
000003e0: 3039 4abe 2082 333d 36f2 83bd 5079 003d
000003f0: edeb 0e3b 78d8 8abc 60ac 1ebe d272 0d3e

bias f4 [256]
-0.017252794 0.0059479927 0.17586584 -0.056814723 0.10540115 -0.16680534 0.029160686 0.08316846
-0.27093878 -0.12877709 -0.16128843 0.14444287 -0.034224976 0.08956858 0.11688217 -0.09142554
0.06141548 -0.020851957 -0.2025674 -0.12175209 -0.1262747 0.21341711 0.060984142 0.047625184
-0.28802297 -0.13709761 0.25100538 -0.023855522 -0.09767505 -0.19230351 -0.13858734 -0.28735822
-0.28417388 -0.24631783 0.19805595 -0.015791833 -0.1571999 0.09590848 0.27199242 0.11505546
-0.10738749 -0.011496372 0.10869329 -0.078293934 -0.0055526765 -0.24968727 0.024993269 -0.048611537
0.0019957172 -0.07206449 -0.073582426 0.2174578 0.031097123 -0.1744761 -0.09697669 0.0807385
-0.017991068 -0.19564147 0.0018799652 0.14218241 0.107275195 0.022354094 -0.140782 0.0752088
-0.14700612 -0.012775415 0.0560784 -0.11684976 0.20507126 -0.18793766 -0.023595115 0.0025308568
-0.16039483 -0.14724772 0.22548164 0.036347196 0.21841985 -0.02035936 0.12698613 -0.10361196
-0.117963545 0.08139894 -0.14461175 -0.07924164 0.06649527 -0.2173773 0.041005123 0.11215276
0.06937771 0.10944003 -0.0782828 -0.04590117 0.14929466 0.106504045 -0.039872646 -0.044268567
0.014990998 -0.09849043 -0.112974934 0.30061916 0.22325437 0.22481908 -0.17920564 -0.0035459846
-0.049629424 -0.15138051 0.0019168293 0.024582563 0.09744564 -0.20684855 -0.18236233 -0.23137458
0.10535568 0.008289545 0.018867522 -0.07547805 -0.2728638 0.09928732 -0.24308595 -0.14657776
0.08278361 -0.06434731 0.031200416 0.11423634 -0.16888538 0.07205289 0.027334075 0.06760223
-0.1556469 0.17279631 -0.0156022515 -0.2444003 -0.0013293677 -0.3024021 -0.16218671 -0.116828665
-0.22098522 0.028154207 0.13031355 -0.06665542 -0.2493456 0.15482214 -0.26303053 -0.1210208
0.11124317 -0.07329745 -0.20735334 0.12110648 0.052249234 0.100305595 -0.113383256 0.0083207805
-0.13221742 -0.14575484 -0.187007 -0.1600219 -0.12440969 0.14687237 -0.23633239 0.027052704
-0.039261423 -0.09519658 -0.028277636 -0.051605884 0.103909686 -0.1722307 -0.22215444 0.13203067
0.11288916 -0.12553413 -0.052363224 -0.082097605 0.23103318 -0.22650842 0.08337972 0.07555656
0.16511793 0.1335043 0.04737704 0.021793867 -0.24990301 -0.058584996 0.04890806 -0.040171094
0.059732404 -0.011366377 0.02183762 0.31846523 -0.2118254 -0.013206295 -0.20031051 0.04016836
-0.071383335 -0.033049755 -0.042444296 -0.07563142 0.03784025 0.14522599 -0.1601111 0.14090125
0.014648692 0.069201365 -0.040086094 -0.06190745 -0.2204932 -0.20370944 -0.066140234 -0.11151335
-0.13009062 0.07472001 0.16129157 -0.19511937 -0.16969831 -0.20623915 0.06643514 0.06215182
-0.0325343 -0.16794387 0.12166488 -0.13961248 0.058624957 -0.06469308 -0.063146465 -0.18922947
0.0144267 0.09533824 0.027069014 -0.080098376 0.078862235 0.06564925 0.080305584 -0.009897985
-0.13018285 0.041789364 -0.33917665 -0.05192882 0.18029842 0.11434669 0.109646514 -0.12844886
-0.16523431 -0.08358304 0.09618805 0.21632592 0.038322404 0.055767316 0.01847321 -0.06496898
-0.16039531 0.11312569 0.0047618477 -0.118689805 0.14297241 0.068053044 0.20729025 0.035326026
00000000: bb55 8dbc 61e7 c23b 2d16 343e 8eb6 68bd
00000010: 8fdc d73d 05cf 2abe 64e2 ee3c 3a54 aa3d
00000020: 7db8 8abe 24de 03be cb28 25be d5e8 133e
00000030: 7d2f 0cbd bb6f b73d eb5f ef3d 503d bbbd
00000040: cc8e 7b3d b9d1 aabc d46d 4fbe 2959 f9bd
00000050: 284e 01be 048a 5a3e 82ca 793d a012 433d
00000060: bf77 93be 5163 0cbe c783 803e a86c c3bc
00000070: db09 c8bd 36eb 44be d7e9 0dbe 9e20 93be
00000080: 3d7f 91be be3a 7cbe 2ecf 4a3e e05d 81bc
00000090: 03f9 20be aa6b c43d 9742 8b3e 32a2 eb3d
000000a0: f9ed dbbd 475b 3cbc 969a de3d 9258 a0bd
000000b0: 3af3 b5bb 05ae 7fbe afbe cc3c e41c 47bd
000000c0: 94ca 023b 8c96 93bd 62b2 96bd 42ad 5e3e
000000d0: 65bf fe3c dda9 32be b79b c6bd 3a5a a53d
000000e0: 0162 93bc 3d56 48be 2a69 f63a 4498 113e
000000f0: 19b3 db3d ef1f b73c 2829 10be 1207 9a3d
00000100: c688 16be f94f 51bc 77b2 653d ed4e efbd
00000110: 33fe 513e bb72 40be 8b4a c1bc bbdc 253b
00000120: 8b3e 24be 1bc8 16be a9e4 663e cce0 143d
00000130: 74a9 5f3e acc8 a6bc a708 023e 8232 d4bd
00000140: df96 f1bd 7db4 a63d 1a15 14be 7149 a2bd
00000150: ac2e 883d 2898 5ebe fdf4 273d 59b0 e53d
00000160: e715 8e3d 1822 e03d bc52 a0bd dd02 3cbd
00000170: b3e0 183e cb1e da3d 8051 23bd f552 35bd
00000180: ce9c 753c 5ab5 c9bd 675f e7bd c1ea 993e
00000190: cb9c 643e f936 663e af81 37be c063 68bb
000001a0: 3948 4bbd 7e03 1bbe 1e3e fb3a 5f61 c93c
000001b0: 9491 c73d 1bd0 53be 31bd 3abe 75ed 6cbe
000001c0: b8c4 d73d dfd0 073c 1090 9a3c 3c94 9abd
000001d0: ceb4 8bbe 2757 cb3d 86eb 78be 7b18 16be
000001e0: 748a a93d 86c8 83bd 0498 ff3c bef4 e93d
000001f0: 4af0 2cbe 7790 933d b6eb df3c 0a73 8a3d
00000200: e761 1fbe 84f1 303e 96a0 7fbc 1244 7abe
00000210: 2e3e aeba 73d4 9abe 4614 26be de43 efbd
00000220: f349 62be a7a3 e63c ea70 053e a382 88bd
00000230: 7454 7fbe b289 1e3e f0ab 86be c1d9 f7bd
00000240: 76d3 e33d f91c 96bd 6f54 54be ad06 f83d
00000250: 4b03 563d 056d cd3d 7b35 e8bd e253 083c
00000260: 0164 07be c240 15be c37e 3fbe c8dc 23be
00000270: 82ca febd b665 163e 1e01 72be a29d dd3c
00000280: 96d0 20bd 6df6 c2bd 80a6 e7bc b160 53bd
00000290: 9ace d43d 3f5d 30be 747c 63be 0c33 073e
000002a0: 6f32 e73d 058c 00be d27a 56bd ca22 a8bd
000002b0: f693 6c3e d3f1 67be fdc2 aa3d 66bd 9a3d
000002c0: ad14 293e 5ab5 083e 6d0e 423d 0d89 b23c
000002d0: 93e6 7fbe d2f6 6fbd d153 483d 728a 24bd
000002e0: f7a9 743d 0a3a 3abc cfe4 b23c e00d a33e
000002f0: c2e8 58be 375f 58bc 331e 4dbe 9487 243d
00000300: 6d31 92bd 2e5f 07bd 12da 2dbd a5e4 9abd
00000310: 61fe 1a3d 1fb6 143e 2af4 23be 6b48 103e
00000320: 1101 703c 72b9 8d3d 5131 24bd ab92 7dbd
00000330: f8c8 61be 3599 50be 8874 87bd 1c61 e4bd
00000340: 7a36 05be ce06 993d 9e29 253e 5fcd 47be
00000350: 65c5 2dbe 5b30 53be 260f 883d e892 7e3d
00000360: b042 05bd 7af9 2bbe 702b f93d 93f6 0ebe
00000370: b920 703d ce7d 84bd ef52 81bd 5fc5 41be
00000380: f75d 6c3c b240 c33d d6bf dd3c 9e0a a4bd
00000390: 8682 a13d 1d73 863d 4177 a43d 282b 22bc
000003a0: a74e 05be 532b 2b3d 90a8 adbe 50b3 54bd
000003b0: 26a0 383e 992e ea3d 5a8e e03d 1988 03be
000003c0: 2f33 29be 962d abbd 3efe c43d 8b84 5d3e
000003d0: f4f7 1c3d 456c 643d 2155 973c 750e 85bd
000003e0: ab3e 24be 71ae e73d 4609 9c3b a413 f3bd
000003f0: 5c67 123e 655f 8b3d e543 543e 06b2 103d

weight f4 [256]
1.6608318 0.969883 0.99366206 1.2779111 0.9342291 1.2080075 1.5295341 1.1320876
1.135719 1.131076 1.1328568 1.2192662 1.2652084 1.0264195 0.44672838 1.0271415
1.1296335 1.2280381 1.1289694 1.1284926 1.0823711 1.0672175 1.1294422 1.5346884
1.124448 1.129924 1.0188472 0.8848916 1.1591425 1.1284623 1.1321121 1.1252496
1.1328073 1.1258245 1.0783666 0.91546667 1.1340109 1.1245034 0.9581039 1.0207198
0.92055386 1.1934488 1.0771875 1.0218184 0.97703564 1.133619 1.1071665 1.1500964
1.2918571 1.0695158 1.0780702 1.0780958 1.3341615 1.1301665 1.1171637 1.2232202
1.0774933 1.1292865 1.3019388 0.90408236 0.8971912 1.0434328 1.1120784 1.0649209
1.1291908 1.08364 1.0886711 1.131035 0.9818161 1.1146662 1.1075329 1.1499106
1.6511867 1.2974752 1.128088 1.256586 0.96814513 1.0112503 0.8362734 0.9300144
1.1161352 1.5050633 1.1134017 1.1275457 1.1089826 1.1232836 1.1021817 0.96705806
0.92649645 1.1911501 1.128077 1.1046379 0.7652552 1.1168499 0.82495123 0.9791019
1.0745058 1.14557 1.1086628 0.92192733 1.1869863 1.0053566 1.124819 1.1715628
1.3180262 1.1209126 1.034966 0.9569436 1.2748618 1.1359836 1.1268451 1.119622
1.4057374 1.2314448 1.3082658 1.0434259 1.1325085 0.89292985 1.1236525 1.102544
1.2041401 1.1090268 1.2373979 1.1709886 1.1244866 0.97493356 0.9073957 0.8019259
1.1029179 0.9348535 1.0745574 1.1312609 0.7929361 1.1278818 1.1098818 1.1291795
1.1399642 0.9790435 0.84509736 1.0039737 1.1308485 0.9295417 1.1160531 1.1366966
1.0555075 1.0123633 1.1627076 0.90121883 1.0722101 0.80400175 1.1139777 0.96873415
1.1269659 1.0971854 1.1309348 1.1306272 1.1355028 1.1588562 1.1163371 0.95529896
0.9361265 1.0492125 1.3492177 1.1351957 1.0055238 1.1085966 1.1369634 1.0100669
1.0002074 1.0783528 1.0089229 1.2039208 0.87493163 1.0983837 1.1081655 1.0817174
0.9079389 0.48020443 1.3805544 0.42516938 1.1264324 1.1190016 1.1814578 1.1159056
1.1455103 1.0100515 1.0675155 0.9810482 1.1243753 1.0454797 1.111909 1.3068815
1.0656193 0.97225237 1.1652641 1.5128758 1.144364 0.97956973 1.131808 1.030646
1.1045424 1.074197 1.0933475 1.1052203 1.1351241 1.1144283 1.1508286 1.1012751
1.3699995 1.0278347 0.9573787 1.1330403 1.1323236 1.1268597 0.6875999 1.052585
0.82559675 1.194337 1.2858765 1.1325226 1.1196306 1.2172552 1.4888425 1.238124
0.9265859 1.1252877 1.1244466 0.9771923 1.03189 1.2354683 0.4950441 1.0004472
1.1295767 0.9286276 1.1341822 1.0465994 1.0267104 1.0428694 1.0196043 1.1201363
1.122404 1.1301104 1.2705746 0.91936356 1.2302164 1.000887 1.1277987 1.0834149
1.1354417 1.1086215 1.0181307 1.3575326 1.1850116 0.95074785 1.0731401 0.8316936
00000000: 2396 d43f 414a 783f a360 7e3f 9792 a33f
00000010: a329 6f3f fd9f 9a3f c6c7 c33f 3fe8 903f
00000020: 3d5f 913f 19c7 903f 7401 913f ea10 9c3f
00000030: 59f2 a13f b761 833f 95b9 e43e 5f79 833f
00000040: d597 903f 5a30 9d3f 1282 903f 7272 903f
00000050: 238b 8a3f 959a 883f 9091 903f ab70 c43f
00000060: e9ed 8f3f 5aa1 903f 9669 823f 4288 623f
00000070: c85e 943f 7471 903f 0de9 903f 2e08 903f
00000080: d4ff 903f 041b 903f eb07 8a3f 065c 6a3f
00000090: 4527 913f baef 8f3f 4c46 753f f2a6 823f
000000a0: 6ba9 6b3f eec2 983f 48e1 893f f2ca 823f
000000b0: 021f 7a3f 6d1a 913f a2b7 8d3f 5c36 933f
000000c0: 935b a53f e5e5 883f 34fe 893f 0bff 893f
000000d0: cec5 aa3f 4ca9 903f 38ff 8e3f 7b92 9c3f
000000e0: 4deb 893f 768c 903f eea5 a63f f171 673f
000000f0: 53ae 653f 358f 853f 9658 8e3f 544f 883f
00000100: 5389 903f b7b4 8a3f 9359 8b3f c1c5 903f
00000110: 4d58 7b3f 62ad 8e3f a3c3 8d3f 4530 933f
00000120: 165a d33f ab13 a63f 3065 903f cfd7 a03f
00000130: 5cd8 773f a670 813f 0316 563f 6c15 6e3f
00000140: 85dd 8e3f eaa5 c03f f283 8e3f 6b53 903f
00000150: 24f3 8d3f c2c7 8f3f 4a14 8d3f 1e91 773f
00000160: df2e 6d3f 9b77 983f d464 903f c664 8d3f
00000170: c4e7 433f f0f4 8e3f 0130 533f 6ca6 7a3f
00000180: 6889 893f 0aa2 923f aae8 8d3f 6e03 6c3f
00000190: 2bef 973f 86af 803f 12fa 8f3f c5f5 953f
000001a0: 15b5 a83f 107a 8f3f c479 843f 41fa 743f
000001b0: ac2e a33f e967 913f 763c 903f c64f 8f3f
000001c0: 34ef b33f fc9f 9d3f 4175 a73f fb8e 853f
000001d0: 0af6 903f 0d97 643f d8d3 8f3f 2920 8d3f
000001e0: 4321 9a3f 97f4 8d3f 0e63 9e3f f4e2 953f
000001f0: 2def 8f3f 3f95 793f 164b 683f 044b 4d3f
00000200: 6a2c 8d3f 8f52 6f3f 198b 893f 28cd 903f
00000210: dcfd 4a3f 6e5e 903f 9b10 8e3f f488 903f
00000220: 59ea 913f 98a2 7a3f 4d58 583f 3682 803f
00000230: a5bf 903f 72f6 6d3f d4da 8e3f 467f 913f
00000240: df1a 873f 1f95 813f 9ad3 943f 47b6 663f
00000250: 2e3e 893f 0fd3 4d3f d296 8e3f f6fe 773f
00000260: 6b40 903f 9270 8c3f 79c2 903f 64b8 903f
00000270: 2858 913f 6655 943f 22e4 8e3f 798e 743f
00000280: fca5 6f3f 984c 863f 2ab3 ac3f 184e 913f
00000290: 01b5 803f 7ee6 8d3f 0488 913f df49 813f
000002a0: cc06 803f 7707 8a3f 6324 813f 141a 9a3f
000002b0: 85fb 5f3f d697 8c3f 5ed8 8d3f b775 8a3f
000002c0: af6e 683f 5bdd f53e 02b6 b03f cdaf d93e
000002d0: f02e 903f 723b 8f3f 023a 973f ffd5 8e3f
000002e0: 15a0 923f 5e49 813f 59a4 883f fa25 7b3f
000002f0: 88eb 8f3f 47d2 853f 0953 8e3f e547 a73f
00000300: 3766 883f 88e5 783f 6027 953f eaa5 c13f
00000310: 857a 923f 15c5 7a3f 16df 903f 35ec 833f
00000320: a561 8d3f 4a7f 893f d0f2 8b3f dc77 8d3f
00000330: bf4b 913f 96a5 8e3f 5a4e 933f 95f6 8c3f
00000340: 255c af3f 1690 833f c516 753f 7707 913f
00000350: fbef 903f f03c 903f 8c06 303f 1bbb 863f
00000360: 4f5a 533f 09e0 983f 9a97 a43f 80f6 903f
00000370: 0e50 8f3f 05cf 9b3f 6492 be3f d97a 9e3f
00000380: bc34 6d3f 6d09 903f deed 8f3f 4629 7a3f
00000390: f914 843f d323 9e3f 6c76 fd3e a70e 803f
000003a0: f895 903f 8aba 6d3f e22c 913f f8f6 853f
000003b0: 3f6b 833f bf7c 853f 6582 823f a060 8f3f
000003c0: efaa 8f3f 75a7 903f 30a2 a23f 695b 6b3f
000003d0: bb77 9d3f 111d 803f b55b 903f 57ad 8a3f
000003e0: 2756 913f 4fe7 8d3f 1b52 823f a1c3 ad3f
000003f0: 76ae 973f 3664 733f a85c 893f dfe9 543f

bias f4 [256]
-0.083508216 0.10784094 0.13472481 0.13426436 0.105414845 -0.114933945 -0.054752883 0.10267991
-0.122236356 -0.121019885 -0.12090612 0.17367747 -0.08722409 0.14440255 -0.15480086 -0.1487705
0.10743701 -0.081767224 -0.11591763 -0.12025202 -0.1219503 0.12225288 -0.13512877 -0.06693252
-0.11463549 -0.11670917 0.12871791 -0.13723746 -0.13217904 -0.11655678 -0.123871535 -0.113454394
-0.12126993 -0.11262626 0.1512151 -0.09492438 -0.1240204 0.1619314 0.125213 0.11360195
-0.14020135 0.11477939 0.10636313 -0.1161744 -0.12552321 -0.114823304 -0.10842984 -0.10764191
-0.034516588 -0.08272134 -0.11574569 0.13209021 0.099379994 -0.118738316 -0.11755907 0.17251506
-0.10089918 -0.11724588 -0.21337421 0.091550924 0.074571334 -0.09366873 -0.1028292 0.104740694
-0.11994183 -0.117580846 -0.10480991 -0.11803277 0.12769188 -0.11894268 -0.09608041 -0.14779462
-0.02581649 -0.08438202 0.13028356 -0.10416952 0.06604748 -0.12748541 0.087622166 -0.09631728
-0.1036133 -0.07956827 -0.11501432 -0.12329238 0.11453207 -0.11576162 -0.12463388 0.07149439
0.11258817 0.119224526 -0.119499795 -0.12451515 0.047961015 0.12550926 -0.13017826 -0.13448948
-0.11539485 -0.118748225 -0.09875225 0.096842706 0.13981384 0.09257552 -0.118471906 -0.09987312
-0.071283795 -0.115910724 -0.15334731 -0.08776029 0.14318164 -0.1229381 -0.1149758 -0.115242906
-0.110939726 -0.08766739 0.13714598 -0.071768396 -0.12111308 0.09351957 -0.11226382 -0.11400674
0.13454184 -0.12122291 0.14117089 0.16209587 -0.11193727 0.085484624 -0.12989426 0.086777695
-0.096677676 0.09391792 -0.12510805 -0.11863641 -0.043891665 -0.11514244 -0.09366208 -0.11990708
-0.12754108 -0.17733006 0.04563061 -0.12721562 -0.122249 0.060529288 -0.117773026 -0.12034279
0.124987446 -0.10697993 -0.10986175 0.09453851 -0.044821177 0.078204304 -0.11085171 -0.10173616
-0.116152406 -0.11690726 -0.11854038 -0.12381342 -0.09555772 0.10442086 -0.102781706 -0.10078757
-0.13522165 -0.08427647 0.12500401 -0.121151045 0.09409797 -0.116115056 -0.12383778 0.12015517
0.08233755 -0.10795843 -0.117271945 -0.13427196 0.074934594 -0.11555628 0.15976617 -0.19401078
0.079705544 -0.02167568 0.11843918 0.004186335 -0.116304584 -0.120458856 0.12665859 -0.11606868
0.11193612 -0.08382134 0.10869331 0.1162701 -0.11289285 -0.14123352 -0.114977434 0.12659864
-0.117556855 -0.1280766 -0.10007139 -0.112941526 -0.12912942 0.097957015 -0.11997339 0.09769905
0.1260299 -0.15360025 -0.14099047 -0.14753835 -0.1219278 -0.11522225 -0.0664538 -0.1156794
-0.058116224 0.10460899 0.12748921 -0.12252273 -0.122559816 -0.115948536 0.027842946 -0.11695128
-0.09893218 -0.11807998 0.07102899 -0.12384668 0.13889404 -0.07791519 -0.03127402 -0.12344697
0.07372171 0.14759152 -0.13312732 -0.107359745 0.13411772 0.10640345 -0.05158101 0.14159465
-0.12460615 -0.104082994 -0.12014345 -0.09014556 0.1406289 0.12640774 -0.03586706 -0.12010572
-0.11651419 -0.119049385 0.16376926 0.10603108 -0.21858838 0.0859046 -0.113923915 -0.115919165
-0.122698806 0.10464158 0.19427857 -0.12390134 0.11394694 0.11136231 0.10882169 -0.12919654
00000000: 5b06 abbd b6db dc3d 4df5 093e 997c 093e
00000010: bde3 d73d 7d62 ebbd 8f44 60bd d849 d23d
00000020: 0e57 fabd 46d9 f7bd a19d f7bd 82d8 313e
00000030: 8ba2 b2bd 43de 133e 1e84 1ebe 4b57 18be
00000040: ef07 dc3d 9375 a7bd 3966 edbd b146 f6bd
00000050: 14c1 f9bd b85f fa3d 325f 0abe eb13 89bd
00000060: 03c6 eabd 3805 efbd a1ce 033e fa87 0cbe
00000070: f159 07be 52b5 eebd 5cb0 fdbd c75a e8bd
00000080: 5e5c f8bd 99a8 e6bd 22d8 1a3e b767 c2bd
00000090: 68fe fdbd 58d1 253e d637 003e 24a8 e83d
000000a0: f190 0fbe 7511 eb3d ead4 d93d d8ec edbd
000000b0: 2889 00be 7b28 ebbd 7710 debd 5d73 dcbd
000000c0: 4461 0dbd ce69 a9bd 140c edbd a842 073e
000000d0: bd87 cb3d 132d f3bd cfc2 f0bd caa7 303e
000000e0: 3ba4 cebd 9c1e f0bd c57e 5abe 0d7f bb3d
000000f0: dbb8 983d 64d5 bfbd 1e98 d2bd 4a82 d63d
00000100: 10a4 f5bd 3ace f0bd 94a6 d6bd 2abb f1bd
00000110: a9c1 023e 3898 f3bd cec5 c4bd 7957 17be
00000120: 1b7d d3bc 7bd0 acbd 0e69 053e d456 d5bd
00000130: e743 873d 898b 02be 4073 b33d fe41 c5bd
00000140: 3633 d4bd b0f4 a2bd a18c ebbd b780 fcbd
00000150: ca8f ea3d 6e14 edbd 0c40 ffbd a76b 923d
00000160: a094 e63d fd2b f43d 4fbc f4bd cd01 ffbd
00000170: c572 443d 8085 003e 734d 05be 9cb7 09be
00000180: 2354 ecbd 4532 f3bd 9f3e cabd 7855 c63d
00000190: 5c2b 0f3e 3c98 bd3d 66a1 f2bd 478a ccbd
000001a0: 3dfd 91bd 9a62 edbd 1407 1dbe abbb b3bd
000001b0: 359e 123e f8c6 fbbd 6f78 ebbd 7904 ecbd
000001c0: 5e34 e3bd f68a b3bd ff6f 0c3e 4ffb 92bd
000001d0: 220a f8bd 3087 bf3d 93ea e5bd 5e7c e9bd
000001e0: 56c5 093e b843 f8bd 1a8f 103e 76fc 253e
000001f0: 5e3f e5bd 9012 af3d 0003 05be 81b8 b13d
00000200: f2fe c5bd 0a58 c03d 531c 00be a5f7 f2bd
00000210: bfc7 33bd cdcf ebbd e8d1 bfbd d891 f5bd
00000220: 219a 02be 0396 35be 2ae7 3a3d d044 02be
00000230: af5d fabd 8fed 773d fc32 f1bd 4876 f6bd
00000240: 6bf9 ff3d 4b18 dbbd 32ff e0bd 689d c13d
00000250: 6996 37bd 9429 a03d 3906 e3bd 0c5b d0bd
00000260: 50e1 edbd 136d efbd 4cc5 f2bd e491 fdbd
00000270: c4b3 c3bd 9bda d53d 377f d2bd b769 cebd
00000280: 8b77 0abe 2499 acbd 0d01 003e 0a1e f8bd
00000290: 70b6 c03d bbcd edbd a99e fdbd ea13 f63d
000002a0: 97a0 a83d 4f19 ddbd 462c f0bd 977e 09be
000002b0: 4f77 993d c5a8 ecbd be99 233e c3aa 46be
000002c0: a93c a33d 3291 b1bc 3e90 f23d 862d 893b
000002d0: 1931 eebd 22b3 f6bd cab2 013e 6bb5 edbd
000002e0: c43e e53d 86aa abbd 999a de3d 051f ee3d
000002f0: 5e34 e7bd 859f 10be 4a79 ebbd 13a3 013e
00000300: a6c1 f0bd 8326 03be 3bf2 ccbd e34d e7bd
00000310: 813a 04be b09d c83d 9cb4 f5bd 7116 c83d
00000320: fb0d 013e 6249 1dbe ce5f 10be 4b14 17be
00000330: 48b5 f9bd a5f9 ebbd ee18 88bd 52e9 ecbd
00000340: 470b 6ebd 3d3d d63d 888c 023e 32ed fabd
00000350: a400 fbbd 6d76 edbd e416 e43c 2784 efbd
00000360: f49c cabd ebd3 f1bd a677 913d 54a3 fdbd
00000370: 3d3a 0e3e 0092 9fbd 3019 00bd c4d1 fcbd
00000380: 68fb 963d 3b22 173e 8752 08be 6ddf dbbd
00000390: 2856 093e 0dea d93d 9c46 53bd 30fe 103e
000003a0: 8231 ffbd 7729 d5bd c50d f6bd 3c9e b8bd
000003b0: 0601 103e 0871 013e 57e9 12bd fdf9 f5bd
000003c0: fe9e eebd 2ad0 f3bd 21b3 273e d326 d93d
000003d0: a2d5 5fbe c0ee af3d f150 e9bd 0767 edbd
000003e0: 8349 fbbd 534e d63d f6f0 463e fcbf fdbd
000003f0: 035d e93d ec11 e43d e8dd de3d 194c 04be
