player_model_ts.pt (torch, 507471 bytes, 12 tensors)

weight f4 [256, 84]
0.061863046 -0.049731318 0.40461507 -0.08501752 -0.18651266 -0.24025317 0.10444704 -0.16188899
-0.22672254 0.20774648 0.07332419 0.019530557 -0.35729524 0.34283903 -0.024841584 0.5778842
-0.22099875 0.28208005 0.046323083 0.034630816 0.015978528 0.1553791 0.06713636 -0.015658781
-0.12963523 0.12408923 -0.021201117 0.025928507 -0.13943785 0.18866256 0.030204928 0.5167272
-0.07883252 0.036873758 -0.13456237 -0.11938653 -0.07593628 -0.008495948 0.019327011 0.268204
0.09080597 0.104076445 -0.19046834 -0.01624369 -0.0037538868 0.025311913 -0.077191114 -0.21393253
0.17620498 -0.040065885 -0.21084462 -0.49849555 -0.026474107 -0.14812961 0.098221876 -0.57080084
-0.055552818 0.034297965 -0.009355614 -0.0004901176 -0.01365152 -0.06006064 -0.0034251413 0.2753162
-0.095717326 0.0729154 0.021454923 0.018697344 0.05710446 -0.073392406 -0.07686565 -0.10147129
-0.08624627 -0.093509905 -0.05158605 0.0029720813 0.050383903 -0.10240537 -0.08853933 -0.061465286
-0.08156471 0.001607962 0.013103455 0.044149093 -0.30690387 -0.0033682738 0.016258355 0.105933376
0.18160239 0.062668726 0.005918406 -0.17728363 0.16527645 -0.10683472 0.0024087983 -0.041657466
-0.04899827 0.019204188 -0.0065923566 -0.0073667257 -0.056522105 -0.016299905 0.0444887 -0.1021243
0.19552371 -0.057430018 0.097582415 0.16152331 0.13454686 0.03627326 -0.10070856 0.16955853
0.105243094 -0.020639444 0.09036955 0.07130961 0.002248693 -0.069467455 0.033298638 -0.07214651
-0.049106825 0.039193675 -0.118276834 -0.016577126 0.08280446 -0.015319053 -0.069207475 -0.042716186
0.033022128 -0.063330874 -0.08406807 0.19302307 0.10538586 0.02594071 -0.0028009235 0.031835366
0.0491692 -0.06729124 0.09884289 -0.011859951 0.0005858109 0.02751586 0.04600819 0.030678472
-0.053524867 0.058527894 -0.11380471 0.25509167 -0.053892415 -0.07528959 0.07226228 0.07957726
-0.056170505 0.06666211 -0.039292283 -0.052452758 -0.0037870333 -0.020613201 -0.061632827 -0.08427876
-0.060599085 0.02987028 0.05646015 -0.109052405 0.10246112 -0.065946765 0.0012085363 -0.074785575
-0.10132831 -0.13840543 0.10948653 -0.04471798 0.066751175 -0.025879 0.02660146 -0.04858628
-0.032567997 -0.13033691 0.031464513 0.032782204 0.031177467 0.06978678 0.07266806 -0.067490384
-0.022127587 -0.019724019 -0.029895434 0.006965098 -0.07061896 -0.00461002 0.09378054 0.035872083
-0.042361096 0.09818372 -0.081437774 -0.047951978 -0.050854143 -0.028630434 0.08433531 -0.07594148
-0.055382527 0.047239512 0.032781657 0.07109229 -0.033228677 0.08382339 -0.036951557 0.059689607
-0.015257728 0.014498941 -0.04694534 0.0228209 -0.023844315 -0.078887254 0.111844465 -0.104627624
-0.112787694 0.011550053 -0.010240808 -0.017031414 0.015317841 0.012390897 -0.023648944 -0.08817771
-0.01944975 0.014440923 -0.040390804 0.001391981 -0.078491874 -0.07771104 -0.022994332 0.06802698
0.024613194 0.10656326 0.027706228 0.082846425 -0.043807082 -0.0035940632 0.03646683 -0.09671239
-0.024975538 -0.035855338 -0.060881045 0.08827347 -0.057761677 -0.107728064 -0.0831558 -0.04050818
-0.0025288984 -0.066758014 0.059943207 -0.081254095 -0.0028674249 -0.05025204 -0.13187297 0.6391763
00000000: 1b64 7d3d 11b3 4bbd b529 cf3e aa1d aebd
00000010: 2dfd 3ebe ed04 76be 54e8 d53d 3ac6 25be
00000020: f429 68be 7ebb 543e fe2a 963d 8cfe 9f3c
00000030: 67ef b6be 9988 af3e 9480 cbbc 38f0 133f
00000040: 7f4d 62be cc6c 903e 46bd 3d3d 0bd9 0d3d
00000050: 67e5 823c b31b 1f3e ca7e 893d d846 80bc
00000060: 19bf 04be 7f22 fe3d f7ad adbc 0568 d43c
00000070: ccc8 0ebe c230 413e 5370 f73c 3c48 043f
00000080: f272 a1bd f008 173d b8ca 09be ed80 f4bd
00000090: 7b84 9bbd 9732 0bbc ae53 9e3c 0952 893e
000000a0: 7bf8 b93d 0826 d53d 220a 43be 7d11 85bc
000000b0: c503 76bb ee5a cf3c 6016 9ebd 2111 5bbe
000000c0: 146f 343e 201c 24bd a7e7 57be cf3a ffbe
000000d0: 3ae0 d8bc 4aaf 17be 8d28 c93d 0120 12bf
000000e0: 5a8b 63bd 067c 0c3d 4a48 19bc 3c7b 00ba
000000f0: a0aa 5fbc 2502 76bd 5678 60bb 3ff6 8c3e
00000100: 7207 c4bd ab54 953d 3cc2 af3c 2c2b 993c
00000110: 5ee6 693d c24e 96bd bd6b 9dbd 2ed0 cfbd
00000120: e2a1 b0bd 1f82 bfbd e54b 53bd 40c7 423b
00000130: 5a5f 4e3d e8b9 d1bd 1c54 b5bd 06c3 7bbd
00000140: 660b a7bd 40c2 d23a e0af 563c aed5 343d
00000150: 8122 9dbe 42be 5cbb 3e30 853c 99f3 d83d
00000160: faf5 393e 7658 803d 30ef c13b d789 35be
00000170: 3b3e 293e 29cc dabd eedc 1d3b 05a1 2abd
00000180: 69b2 48bd 1a52 9d3c b204 d8bb 9364 f1bb
00000190: b983 67bd 6187 85bc c839 363d 8c26 d1bd
000001a0: 5e37 483e bd3b 6bbd 4ad9 c73d 5e66 253e
000001b0: a7c6 093e 4593 143d 4a40 cebd c0a0 2d3e
000001c0: b189 d73d 0d14 a9bc ac13 b93d c60a 923d
000001d0: cf5e 133b f444 8ebd 2764 083d 8dc1 93bd
000001e0: 3d24 49bd 8c89 203d 203b f2bd c1cc 87bc
000001f0: 6295 a93d c4fc 7abc a6bc 8dbd 2bf7 2ebd
00000200: 3642 073d 9eb3 81bd e12b acbd d7a7 453e
00000210: 8bd4 d73d 9d81 d43c b38f 37bb cd65 023d
00000220: a565 493d fdcf 89bd 246e ca3d 3d50 42bc
00000230: 1b91 193a f168 e13c 1573 3c3d 6b51 fb3c
00000240: e43c 5bbd f2ba 6f3d 7212 e9bd 609b 823e
00000250: 4bbe 5cbd 6e31 9abd 3ffe 933d 67f9 a23d
00000260: 0b13 66bd 2586 883d f2f0 20bd b4d8 56bd
00000270: e02f 78bb 04dd a8bc b472 7cbd 589a acbd
00000280: bf36 78bd 84b2 f43c c242 673d de56 dfbd
00000290: 23d7 d13d 190f 87bd c067 9e3a 2e29 99bd
000002a0: 3885 cfbd 27ba 0dbe 793a e03d 332a 37bd
000002b0: d7b4 883d 3200 d4bc 4eeb d93c 6802 47bd
000002c0: 0566 05bd 0a77 05be efe0 003d a246 063d
000002d0: e367 ff3c 5fec 8e3d fed2 943d 6638 8abd
000002e0: ea44 b5bc 4494 a1bc 45e7 f4bc 7a3b e43b
000002f0: aca0 90bd a70f 97bb 0310 c03d 9bee 123d
00000300: d482 2dbd 8c14 c93d d9c8 a6bd 4b69 44bd
00000310: 6f4c 50bd 5f8a eabc feb7 ac3d 3587 9bbd
00000320: cad8 62bd 387e 413d 0f46 063d d698 913d
00000330: cb1a 08bd 99ab ab3d 845a 17bd 177d 743d
00000340: 8dfb 79bc f78c 6d3c c249 40bd e5f2 ba3c
00000350: 2755 c3bc a48f a1bd b60e e53d 0247 d6bd
00000360: 3cfd e6bd 6f3c 3d3c 10c9 27bc 7785 8bbc
00000370: aff7 7a3c 3003 4b3c 6ebb c1bc 8496 b4bd
00000380: 1555 9fbc 9f99 6c3c d470 25bd 2273 b63a
00000390: 59c0 a0bd f726 9fbd 9c5e bcbc bb51 8b3d
000003a0: 9ca1 c93c d73d da3d 2cf8 e23c 63ab a93d
000003b0: 0e6f 33bd 608a 6bbb 3e5e 153d 2511 c6bd
000003c0: 8099 ccbc 0cdd 12bd 675e 79bd b9c8 b43d
000003d0: 8297 6cbd 88a0 dcbd 974d aabd e8eb 25bd
000003e0: e0bb 25bb 6db8 88bd 0287 753d 8c68 a6bd
000003f0: 68eb 3bbb 15d5 4dbd b509 07be 0fa1 233f

bias f4 [256]
0.07103998 0.053210445 -0.13743936 -0.10755258 0.009179598 -0.07212479 0.08743706 0.18825223
0.14222501 -0.09374188 0.31355873 0.05455704 0.17111655 0.100205235 -0.07557811 0.051675808
-0.119892485 -0.2836195 0.06902576 -0.19042598 0.043190874 -0.21178892 -0.1702247 -0.08639351
0.06716001 -0.2416181 -0.07689114 -0.22152635 0.32444942 0.065445274 0.045982514 0.26633635
-0.102203645 -0.064636335 0.051494315 0.01988373 -0.013787936 0.22463475 -0.1197079 0.03372918
0.0049088984 -0.092327066 -0.08916519 0.1526816 -0.2778659 -0.08489788 -0.12535366 0.046264306
0.058521345 -0.21186395 -0.033283062 -0.045980234 -0.058540627 0.014618684 -0.20265664 0.007979844
-0.035398986 -0.04608061 0.37999913 -0.19212525 -0.021930274 -0.06440974 -0.026625086 -0.11406629
0.096006304 -0.14429256 0.10717807 0.1980757 -0.019784221 0.010636074 -0.20507543 0.21998568
-0.10903933 -0.07775096 0.18685943 0.09490009 -0.2505562 0.056149546 -0.012611747 -0.01846324
0.18018591 -0.07896572 -0.08548808 -0.31167758 0.09195583 0.32268783 -0.065557465 0.044698678
-0.0527968 0.016739013 -0.0416084 0.014652948 0.15162736 0.032364186 0.0043914476 -0.1721247
0.2658376 -0.16508965 -0.15259276 -0.097941265 -0.029681692 -0.1453353 0.17697066 0.11621567
0.20912609 0.12606822 0.15668435 0.02055967 -0.27214983 -0.046564855 0.27818042 -0.20274669
-0.08036908 0.21174127 0.009793584 -0.111789405 0.09776625 0.104265235 0.030651594 -0.12953573
0.059289522 -0.07363638 -0.1395897 0.14433868 -0.03766373 0.049418934 0.047566026 -0.10017401
-0.1262902 0.14866325 -0.16369641 0.15531671 -0.024335349 0.05634548 -0.06675913 -0.13828999
-0.0723853 -0.21766378 0.22207592 -0.11242373 -0.013569742 -0.056675617 -0.0021474864 0.117719255
-0.13999178 -0.014565399 -0.14996901 -0.0840865 0.038166296 0.08819357 -0.1543737 0.054896276
-0.0528708 0.0007412304 0.07874726 0.16513273 -0.10695893 0.088779844 0.024730751 0.21753809
0.051379144 -0.07810523 -0.014940493 -0.14036942 -0.049867164 -0.038028214 -0.03186867 -0.08023211
-0.0927982 -0.21870455 -0.03992266 0.08262679 0.28211132 -0.11275931 -0.1915442 0.09659874
0.10613419 -0.008630407 -0.08600067 0.15448175 0.1675109 0.0148014985 -0.08248983 0.048916586
0.1967728 -0.20462856 0.0255126 -0.12305713 -0.08773558 0.14446497 -0.23102938 0.17463087
-0.078728355 0.035494465 0.08543884 0.038638122 0.16464432 0.056430805 -0.17718409 -0.05435497
-0.100588344 0.00046734442 -0.006112108 -0.12438467 -0.09680355 -0.24544336 0.02757412 -0.041486338
0.0392023 0.006014692 -0.16380417 -0.14738615 0.049202695 -0.004781657 -0.01747464 0.048778415
-0.03229186 -0.10442323 -0.16762245 6.8059606e-05 -0.055534825 0.06651852 -0.3281759 0.021530217
0.16637142 0.0003828101 -0.14393623 0.088783436 -0.20125951 0.21625212 -0.05686257 0.056355506
0.029556701 0.16444272 -0.24029669 -0.057384275 -0.13523851 -0.059973072 -0.06632595 -0.08734796
0.068330646 -0.07299827 -0.15594776 0.02754745 0.12012127 0.039497342 0.030070847 -0.14524925
-0.08182052 -0.22272548 0.10034317 0.34380862 -0.20585923 -0.07452502 -0.09004659 -0.014348272
00000000: 697d 913d 32f3 593d e7bc 0cbe 8744 dcbd
00000010: 0666 163c 29b6 93bd 3412 b33d 31c5 403e
00000020: 6fa3 113e befb bfbd c58a a03e 3477 5f3d
00000030: 2d39 2f3e 6738 cd3d b2c8 9abd 03aa 533d
00000040: 318a f5bd 9336 91be 615d 8d3d 07ff 42be
00000050: eae8 303d 32df 58be 624f 2ebe 15ef b0bd
00000060: 308b 893d bc6a 77be 1a79 9dbd ced7 62be
00000070: 3c1e a63e 2c08 863d 2958 3c3d 3d5d 883e
00000080: 2550 d1bd 0e60 84bd b4eb 523d 34e3 a23c
00000090: cce6 61bc a706 663e 6a29 f5bd 9c27 0a3d
000000a0: d3da a03b f915 bdbd 3d9c b6bd 9158 1c3e
000000b0: 7044 8ebe f1de adbd b65c 00be a47f 3d3d
000000c0: 14b4 6f3d ddf2 58be d253 08bd c555 3cbd
000000d0: 4cc8 6fbd 3483 6f3c 3985 4fbe e4bd 023c
000000e0: 87fe 10bd 06bf 3cbd 3f8f c23e 7bbc 44be
000000f0: 1ea7 b3bc 41e9 83bd da1c dabc 969b e9bd
00000100: f49e c43d 6ec1 13be 2d80 db3d 5bd4 4a3e
00000110: 8512 a2bc ed42 2e3c 4bff 51be ed43 613e
00000120: 0350 dfbd e53b 9fbd 1458 3f3e fa5a c23d
00000130: e748 80be 11fd 653d 80a1 4ebc 3840 97bc
00000140: a882 383e c8b8 a1bd 6014 afbd 3494 9fbe
00000150: 5753 bc3d 5737 a53e fe42 86bd f615 373d
00000160: 7541 58bd 4120 893c 926d 2abd eb12 703c
00000170: 3444 1b3e 4f90 043d 22e6 8f3b 7541 30be
00000180: de1b 883e 430d 29be 4741 1cbe 6e95 c8bd
00000190: 0527 f3bc c7d2 14be cc37 353e 7b02 ee3d
000001a0: 2625 563e 0718 013e dd71 203e c16c a83c
000001b0: 3957 8bbe caba 3ebd aa6d 8e3e d49c 4fbe
000001c0: 8b98 a4bd b4d2 583e 4575 203c d8f1 e4bd
000001d0: ac39 c83d 0389 d53d 0d19 fb3c 04a5 04be
000001e0: 92d9 723d acce 96bd 9af0 0ebe 85cd 133e
000001f0: 4945 1abd 826b 4a3d 98d4 423d 0828 cdbd
00000200: 3852 01be 2e3b 183e 08a0 27be 580b 1f3e
00000210: ed5a c7bc 85ca 663d 03b9 88bd e49b 0dbe
00000220: bf3e 94bd 41e3 5ebe df67 633e 6a3e e6bd
00000230: a053 5ebc b124 68bd d8bc 0cbb cb16 f13d
00000240: 015a 0fbe b6a3 6ebc 7a91 19be 8b35 acbd
00000250: 4354 1c3d d59e b43d 2414 1ebe ebda 603d
00000260: 0d8f 58bd 214f 423a 3e46 a13d 8e18 293e
00000270: 490d dbbd 35d2 b53d 2598 ca3c 4ec2 5e3e
00000280: f072 523d a3f5 9fbd f8c8 74bc 00bd 0fbe
00000290: 8341 4cbd 79c3 1bbd b988 02bd bc50 a4bd
000002a0: fc0c bebd 16f4 5fbe f185 23bd 3c38 a93d
000002b0: e570 903e 5aee e6bd 2a24 44be 8fd5 c53d
000002c0: e25c d93d 8d66 0dbc 1f21 b0bd 7730 1e3e
000002d0: fa87 2b3e fc81 723c 6ef0 a8bd c25c 483d
000002e0: cf7e 493e 268a 51be cdff d03c 6005 fcbd
000002f0: b6ae b3bd a0ee 133e f792 6cbe 6fd2 323e
00000300: 553c a1bd a562 113d 8ffa ae3d 0243 1e3d
00000310: 8598 283e fd23 673d bf6f 35be 51a3 5ebd
00000320: 4301 cebd e805 f539 1448 c8bb 64bd febd
00000330: f140 c6bd 8155 7bbe 1fe3 e13c 94ed 29bd
00000340: 9792 203d e516 c53b 48bc 27be 65ec 16be
00000350: c488 493d 72af 9cbb fa26 8fbc e0cb 473d
00000360: 7844 04bd d9db d5bd 38a5 2bbe 39bb 8e38
00000370: 7c78 63bd dd3a 883d ac06 a8be 2360 b03c
00000380: 455d 2a3e e7b3 c839 0564 13be 17d4 b53d
00000390: f916 4ebe 3271 5d3e bae8 68bd 08d5 663d
000003a0: e520 f23c ac63 283e 5610 76be c60b 6bbd
000003b0: f77b 0abe 53a6 75bd e6d5 87bd 7de3 b2bd
000003c0: f0f0 8b3d 1e80 95bd c5b0 1fbe 31ab e13c
000003d0: 2402 f63d f7c7 213d 2357 f63c 38bc 14be
000003e0: 8491 a7bd 2612 64be b880 cd3d af07 b03e
000003f0: c3cc 52be 93a0 98bd 596a b8bd 0415 6bbc

weight f4 [256]
1.1190194 0.6049994 0.64634395 0.98697025 0.6202028 0.6477559 0.9684916 0.6616553
1.4024415 0.8461309 1.5126568 0.5632341 0.84593207 1.1212741 1.2221904 0.87331355
1.1354048 0.68908596 0.9200024 0.6466956 0.6302949 1.2308923 0.44289616 1.1966628
1.2662915 0.49861372 0.9789915 1.1483449 0.69086933 0.6587026 1.2027708 0.9687521
0.6685603 0.93296224 0.74143547 0.8363123 0.95596015 0.7124091 0.9516748 1.281181
1.5635844 0.7306282 1.1076729 1.5924288 1.0127385 1.287052 0.79104906 0.68627733
1.5252873 0.78147143 0.66518533 1.0880009 0.9755886 0.6606248 1.1011091 0.9644165
0.628837 0.47248447 0.67968386 1.0670581 0.6255893 0.77205765 0.49646348 1.4029266
1.0187664 0.62392175 0.64401776 0.8323557 0.6267691 0.65421706 0.78031445 0.66829306
0.80407476 1.1336671 1.2111863 0.77117926 0.9786415 0.6313512 1.0816121 1.1554688
1.2402323 0.53792703 0.80814064 1.0230606 0.9988239 0.87396586 1.2622608 0.7502625
0.6459055 1.2002375 0.90451217 0.6420361 0.2676716 0.5031296 0.98235065 0.8206853
1.3015747 1.1041847 0.74253124 0.67973703 0.83460814 1.3124728 0.9468027 1.3585038
0.70451975 1.350976 0.91712195 0.9890319 1.1248474 0.20960167 1.2477305 0.8101305
1.4081547 0.6868916 0.84986126 0.6374258 0.6215085 0.8964655 1.2716955 0.6205238
0.6385659 0.6897052 0.4353171 1.266138 0.93345165 1.1305332 0.6359998 1.6217415
1.2106401 0.6592215 1.0012907 1.0423023 0.6258024 1.366802 0.4973077 0.94535965
0.6187742 0.99999946 1.0958408 0.69706094 0.7852058 0.9774858 0.62576866 0.66608924
0.67521334 0.9764679 0.9752368 1.0422914 0.8191181 0.9325422 1.0577724 0.47186136
0.8713272 0.62480617 0.9002233 1.4613191 0.41535097 1.0461247 1.1435577 0.34570837
0.63687927 0.61664456 0.63055074 0.7587216 1.1296073 0.9837181 0.6428939 0.67915714
0.99646664 0.98814887 0.84117967 1.3596606 0.8694681 0.6321485 0.659171 1.5289886
0.9669941 0.63228965 1.190374 0.9976164 1.3730891 1.2490668 1.6038126 0.916711
1.0569541 1.1526114 1.1906726 1.1534754 0.64468396 1.0441997 0.99038774 0.8737207
0.96800613 0.8520014 1.2834557 0.6259985 0.6814877 0.94620305 0.8131832 0.7743115
0.7822828 1.2527726 0.23088838 0.9294116 1.024603 0.757227 0.6514598 0.67999065
1.1262203 0.8052051 1.2867979 0.8327906 0.94847405 0.480134 0.6244819 0.7309685
0.8012063 0.970275 0.51283485 0.9309759 0.65517604 1.3119098 0.30716306 0.5855757
0.5658309 1.0251324 0.62305045 1.2975808 1.3906482 1.0116591 0.7765247 0.6381653
0.9848854 0.8302294 1.4653304 0.63928026 0.9350942 0.8016051 0.97238123 0.9369434
1.0423261 0.62472034 1.3505654 0.64402133 0.6262593 0.5536232 0.6947582 0.37887362
1.2775583 1.0152435 0.78706026 0.84973884 0.72426325 0.52730304 0.9604775 0.6436043
00000000: 073c 8f3f 3ee1 1a3f cc76 253f 15aa 7c3f
00000010: 9cc5 1e3f 55d3 253f 11ef 773f 3e62 293f
00000020: 3483 b33f 099c 583f bd9e c13f 1c30 103f
00000030: 018f 583f e985 8f3f bc70 9c3f 7a91 5f3f
00000040: f254 913f f067 303f 4785 6b3f d88d 253f
00000050: 025b 213f e18d 9d3f 49c3 e23e 3f2c 993f
00000060: d715 a23f 4c4a ff3e 309f 7a3f f7fc 923f
00000070: d0dc 303f bca0 283f 65f4 993f 2300 783f
00000080: c526 2b3f 9dd6 6e3f b7ce 3d3f 9018 563f
00000090: ceb9 743f 7160 363f f6a0 733f bdfd a33f
000000a0: 8923 c83f 730a 3b3f 3ac8 8d3f b5d4 cb3f
000000b0: 6aa1 813f 1fbe a43f 3182 4a3f dfaf 2f3f
000000c0: 9d3c c33f 830e 483f 9649 2a3f 9d43 8b3f
000000d0: 2dc0 793f b51e 293f 25f1 8c3f 00e4 763f
000000e0: 76fb 203f 7ce9 f13e c3ff 2d3f 5c95 883f
000000f0: 9f26 203f 92a5 453f 7630 fe3e 1993 b33f
00000100: f066 823f 56b9 1f3f 59de 243f 4315 553f
00000110: f173 203f c57a 273f b0c2 473f 4115 2b3f
00000120: d8d7 4d3f 011c 913f 2708 9b3f 016c 453f
00000130: 4088 7a3f 3ba0 213f 4472 8a3f 67e6 933f
00000140: efbf 9e3f 96b5 093f 4ee2 4e3f a6f3 823f
00000150: ecb2 7f3f 3abc 5f3f c391 a13f 3411 403f
00000160: 105a 253f 62a1 993f 1c8e 673f 7a5c 243f
00000170: 410c 893e 1acd 003f 557b 7b3f 6f18 523f
00000180: 009a a63f ed55 8d3f 8716 3e3f 3f03 2e3f
00000190: e1a8 553f 1cff a73f a961 723f 74e3 ad3f
000001a0: 685b 343f c8ec ac3f 81c8 6a3f 3231 7d3f
000001b0: 00fb 8f3f d2a1 563e a2b5 9f3f b664 4f3f
000001c0: 6a3e b43f 21d8 2f3f 8290 593f 562e 233f
000001d0: 2e1b 1f3f c37e 653f ebc6 a23f a6da 1e3f
000001e0: 0e79 233f 8590 303f e2e1 de3e cf10 a23f
000001f0: b0f6 6e3f 50b5 903f e2d0 223f 3a95 cf3f
00000200: 41f6 9a3f bdc2 283f 4b2a 803f 296a 853f
00000210: 9634 203f 5ef3 ae3f 1d9f fe3e 1703 723f
00000220: fc67 1e3f f7ff 7f3f 8344 8c3f 9672 323f
00000230: 3f03 493f 823c 7a3f 6032 203f d384 2a3f
00000240: c8da 2c3f cdf9 793f 1ea9 793f ce69 853f
00000250: b9b1 513f 16bb 6e3f 1665 873f d097 f13e
00000260: 4d0f 5f3f 4cf3 1f3f 0975 663f 810c bb3f
00000270: e2a8 d43e 6ae7 853f 1960 923f b000 b13e
00000280: 850a 233f 6bdc 1d3f c66b 213f 943b 423f
00000290: f996 903f f3d4 7b3f b294 243f 3edd 2d3f
000002a0: 7018 7f3f 53f7 7c3f 8d57 573f 5c09 ae3f
000002b0: 7695 5e3f 7cd4 213f 6ebf 283f e6b5 c33f
000002c0: ed8c 773f bcdd 213f 2d5e 983f ca63 7f3f
000002d0: 62c1 af3f 6ce1 9f3f bb49 cd3f 92ad 6a3f
000002e0: 464a 873f c588 933f f667 983f 15a5 933f
000002f0: 020a 253f 56a8 853f 0d8a 7d3f 29ac 5f3f
00000300: 40cf 773f c41c 5a3f 4748 a43f 7041 203f
00000310: fa75 2e3f 5d3a 723f c62c 503f 4739 463f
00000320: b043 483f da5a a03f 016e 6c3e ebed 6d3f
00000330: 3126 833f a1d9 413f 12c6 263f de13 2e3f
00000340: fd27 903f ec21 4e3f cbb5 a43f c431 553f
00000350: 32cf 723f 20d4 f53e 0cde 1f3f c020 3b3f
00000360: db1b 4d3f f163 783f 2549 033f 7054 6e3f
00000370: 9eb9 273f a9ec a73f 7a44 9d3e 4ae8 153f
00000380: 4bda 103f 8a37 833f 3c80 1f3f 2117 a63f
00000390: c300 b23f 0c7e 813f 53ca 463f cd5e 233f
000003a0: 7321 7c3f ea89 543f f28f bb3f dfa7 233f
000003b0: 5562 6f3f fe35 4d3f faed 783f 86db 6f3f
000003c0: f16a 853f aced 1f3f 54df ac3f 95de 243f
000003d0: 8852 203f 40ba 0d3f acdb 313f b9fb c13e
000003e0: 0887 a33f 80f3 813f c87c 493f 7c88 593f
000003f0: 5169 393f 55fd 063f dae1 753f 40c3 243f

bias f4 [256]
-0.0955042 -0.18974087 0.3530537 0.24759975 0.33743408 0.35313952 -0.07412724 0.34516162
0.1719899 0.36839265 0.21456373 0.007717238 0.368008 -0.029265521 0.1542818 -0.110389374
0.12981007 0.3661675 0.19654457 0.01820724 0.34290287 0.2782498 -0.10411561 0.17235903
0.05793178 -0.02787959 -0.05541078 0.20894144 0.3721649 0.36250582 -0.03153099 0.2976941
0.36626023 0.24263665 -0.100527905 -0.04122681 -0.04120519 0.36511612 -0.037811458 0.06556224
0.065597676 0.33805904 0.1628273 0.09848679 0.26805902 0.015666952 0.34423006 -0.10389928
0.20230272 -0.037799943 0.36482924 -0.030439746 0.2626293 0.361444 0.39269763 -0.05314996
0.34130222 -0.07985517 0.34647363 -0.077698655 0.34017134 -0.055605832 -0.09577964 -0.097567886
-0.068616055 0.33933243 0.3516596 0.20623282 0.3413374 -0.081551954 -0.11074901 0.33742335
-0.0064675603 0.017058574 -0.032297503 0.24226923 -0.05217366 0.34299105 0.017987767 0.19964747
0.043707237 -0.21681878 0.0055974275 -0.19913523 0.08952682 -0.005305558 0.06314409 -0.16755503
0.3530899 0.013036214 -0.05896701 0.3509565 0.035555765 -0.10483948 0.022332454 -0.11197352
0.072669454 0.19424534 0.2988052 -0.06901831 -0.0035403473 0.14246202 -0.1194752 -0.057711072
0.31743246 -0.051089488 0.28533912 0.3885946 -0.095872074 0.09106128 0.18668376 -0.17606083
0.052499287 0.34686348 -0.1785904 0.34899947 0.33666965 -0.040880777 -0.06332019 0.33807448
0.34712264 0.032584626 -0.08966155 0.0031077857 0.16051999 0.1048946 0.34768823 0.082934886
0.089792736 0.35604274 -0.08603971 0.06522269 0.3403244 0.105028026 -0.12911631 -0.08832087
0.33614048 0.09825714 0.28032038 0.027166668 -0.0809483 -0.048008293 -0.10774024 0.36775285
-0.032990504 0.16035244 -0.05204618 -0.043252002 -0.052191604 0.2029562 0.006092383 -0.05656996
-0.11213024 0.3406861 0.23406698 0.045250785 0.10259544 0.05455377 -0.10080578 0.06647382
0.34816325 0.33578256 0.34190324 -0.23399834 -0.03192207 -0.030110255 0.3513579 0.30506185
0.24115774 -0.15855817 0.072847486 0.06992423 0.20271163 0.34270027 0.039374705 0.09502646
-0.084071256 0.3449313 -0.05648368 0.07089786 0.15543501 -0.06330715 0.21556532 -0.049531747
0.27985305 0.19623378 -0.0067215883 0.012154591 0.3515093 -0.04476899 0.089527644 0.36285964
-0.0329243 -0.16408134 -0.10978881 0.34013963 0.35749963 0.05123568 0.20104696 -0.10918638
-0.14372517 -0.031708367 -0.05334334 -0.018938372 -0.1719167 -0.07915435 -0.064356275 -0.08982083
-0.028289692 0.26608515 0.2655771 -0.07218878 -0.098952755 -0.13657309 0.33997875 0.37255576
0.38508222 -0.10784586 0.11085055 -0.08010606 0.32472208 -0.013460491 -0.13312596 -0.04502317
0.2004341 0.36023936 0.34062314 0.03381369 -0.064977266 -0.066604346 0.2879832 0.34864873
0.25473943 0.3007195 -0.11708232 0.34818763 -0.06853888 -0.115415685 -0.081169344 -0.24445488
0.041168336 0.34094006 0.01769787 0.33728603 -0.0057629617 -0.047374506 0.2921711 -3.2915847e-05
-0.076234594 0.33885384 0.2839619 0.1920561 -0.1484602 -0.09805025 0.42996007 0.3515926
00000000: b597 c3bd 6e4b 42be 74c3 b43e ca8a 7d3e
00000010: 29c4 ac3e b4ce b43e 06d0 97bd 06b9 b03e
00000020: 1f1e 303e f69d bc3e 98b6 5b3e e2e0 fc3b
00000030: 8b6b bc3e 3fbe efbc 0cfc 1d3e d313 e2bd
00000040: eeec 043e 4e7a bb3e fb42 493e 5a27 953c
00000050: f790 af3e c276 8e3e 913a d5bd e37e 303e
00000060: e049 6d3d bd63 e4bc 6af6 62bd bff4 553e
00000070: 668c be3e 5d9a b93e a426 01bd 5c6b 983e
00000080: 7686 bb3e be75 783e 93e1 cdbd 72dd 28bd
00000090: c6c6 28bd 80f0 ba3e 30e0 1abd 7f45 863d
000000a0: 1358 863d 1316 ad3e 33bc 263e 71b3 c93d
000000b0: 083f 893e fb57 803c ec3e b03e 25c9 d4bd
000000c0: 7228 4f3e 1dd4 1abd e6ca ba3e c65c f9bc
000000d0: 5977 863e 300f b93e aa0f c93e c6b3 59bd
000000e0: 2abf ae3e 1b8b a3bd fe64 b13e 7920 9fbd
000000f0: f02a ae3e f1c2 63bd 1e28 c4bd acd1 c7bd
00000100: 9386 8cbd fbbc ad3e ba0c b43e b22e 533e
00000110: c7c3 ae3e b604 a7bd 61d0 e2bd c1c2 ac3e
00000120: d4ed d3bb 6cbe 8b3c 634a 04bd 6d15 783e
00000130: 0cb4 55bd 869c af3e 155b 933c 6370 4c3e
00000140: 5c06 333d be05 5ebe a06a b73b 1bea 4bbe
00000150: d659 b73d 3fda adbb b051 813d 8c93 2bbe
00000160: 33c8 b43e d895 553c 6487 71bd 92b0 b33e
00000170: eca2 113d 15b6 d6bd 8df2 b63c 5f52 e5bd
00000180: b9d3 943d 40e8 463e fffc 983e 7959 8dbd
00000190: 2c05 68bb 90e1 113e 6aaf f4bd 7262 6cbd
000001a0: 8286 a23e 3643 51bd f817 923e dff5 c63e
000001b0: 9458 c4bd 567e ba3d 072a 3f3e 4a49 34be
000001c0: 7e09 573d 1798 b13e 67e0 36be 0fb0 b23e
000001d0: f75f ac3e 9a72 27bd 04ae 81bd 1918 ad3e
000001e0: 0fba b13e 7577 053d 7aa0 b7bd feab 4b3b
000001f0: 5a5f 243e fbd2 d63d 3104 b23e c4d9 a93d
00000200: 41e5 b73d 3c4b b63e 9635 b0bd 7993 853d
00000210: 003f ae3e ef18 d73d 1137 04be 93e1 b4bd
00000220: 9b1a ac3e 0a3b c93d 2786 8f3e a28c de3c
00000230: 39c8 a5bd 58a4 44bd eaa6 dcbd 1a4a bc3e
00000240: 0d21 07bd 6e33 243e 602e 55bd 0329 31bd
00000250: ddc6 55bd c0d3 4f3e 9da2 c73b e7b5 67bd
00000260: 8aa4 e5bd 696e ae3e 41af 6f3e e358 393d
00000270: 8f1d d23d c673 5f3d 4373 cebd 6d23 883d
00000280: 7442 b23e b1eb ab3e f10d af3e 439d 6fbe
00000290: b7c0 02bd c8a9 f6bc 2fe5 b33e 1131 9c3e
000002a0: 0ef2 763e 135d 22be 1031 953d 6f34 8f3d
000002b0: a393 4f3e 6976 af3e 5f47 213d 3c9d c23d
000002c0: 8d2d acbd d69a b03e 6e5b 67bd e632 913d
000002d0: 5b2a 1f3e 2ea7 81bd 28bd 5c3e cde1 4abd
000002e0: e648 8f3e 82f1 483e c540 dcbb 0d24 473c
000002f0: 07f9 b33e b05f 37bd 455a b73d bdc8 b93e
00000300: a1db 06bd f004 28be f5d8 e0bd c826 ae3e
00000310: 310a b73e 81dc 513d 41df 4d3e 1c9d dfbd
00000320: b12c 13be a2e0 01bd 8c7e 5abd a524 9bbc
00000330: ee0a 30be ad1b a2bd 39cd 83bd fcf3 b7bd
00000340: c9bf e7bc 503c 883e b9f9 873e b6d7 93bd
00000350: bea7 cabd d1d9 0bbe b211 ae3e a1bf be3e
00000360: 7f29 c53e 4ade dcbd 9d05 e33d a50e a4bd
00000370: f941 a63e 6489 5cbc 2c52 08be 376a 38bd
00000380: 993e 4d3e 4b71 b83e 2866 ae3e 3980 0a3d
00000390: cd12 85bd dc67 88bd 8972 933e 1682 b23e
000003a0: 356d 823e e8f7 993e dbc8 efbd a645 b23e
000003b0: 1d5e 8cbd 0f5f ecbd 1d3c a6bd 6152 7abe
000003c0: 21a0 283d b28f ae3e 20fb 903c c1b0 ac3e
000003d0: 3ad7 bcbb c50b 42bd 7397 953e 1f0f 0ab8
000003e0: e220 9cbd 407e ad3e 7463 913e 5baa 443e
000003f0: f305 18be 92ce c8bd ba23 dc3e f203 b43e

weight f4 [256, 256]
0.17764057 0.010985671 -0.06813785 0.24479645 -0.014437359 -0.08171356 -0.14808267 -0.044161145
-0.027978221 -0.034313098 -0.13880278 0.06544608 -0.07437556 -0.023422725 -0.25044847 0.16080038
0.047047567 -0.16647972 0.13020286 0.26201594 -0.007770771 0.14796327 -0.18296644 -0.16248529
-0.13173123 -0.11338897 0.17402329 0.30031067 -0.10425832 -0.08066273 -0.021637483 -0.14056058
-0.030063864 -0.07524194 -0.10948848 -0.15396051 0.14525911 -0.43823722 0.13106658 0.060469396
-0.06838846 0.08500838 -0.024323242 0.015904265 -0.22032148 -0.0014184735 -0.010797177 -0.025248643
0.16944243 -0.15635717 -0.040478826 -0.021837167 -0.31763563 -0.026359284 -0.077621825 -0.1285444
-0.016351314 0.15767549 0.15935168 0.2065245 -0.046713278 -0.06267128 0.04410013 0.14792345
0.14147663 -0.04154842 -0.052831195 -0.011325023 -0.012954032 0.009896668 -0.021870088 -0.068385415
0.14494832 -0.04805115 -0.013044364 0.027014509 0.1425487 -0.060835954 -0.15344806 -0.32733652
0.0691859 0.04697587 0.05947825 0.06279694 -0.2788163 -0.10262063 -0.0009056329 0.08547047
-0.08247153 0.12739195 -0.035785638 0.017141959 -0.18262032 0.053300768 0.28938803 -0.05402177
0.09264406 -0.22887324 0.051510394 0.15774651 0.039304044 0.18360405 0.079175435 -0.01359729
0.023350839 0.11580729 -0.28727502 0.2613726 0.11321259 -0.27062258 0.060200106 0.14984488
-0.35214543 -0.23334466 -0.024701336 -0.014757076 -0.14600009 -0.03448153 -0.13072689 0.0005834182
-0.018731263 0.18121456 0.21557683 -0.015953897 -0.20244397 0.034412045 -0.10030294 -0.051593263
-0.06436431 -0.07461655 -0.123906024 -0.09239208 -0.062029332 -0.16637929 -0.029839393 -0.15862636
-0.056625526 -0.095507406 -0.03513058 -0.0013774736 0.050478313 -0.20063005 0.14766653 -0.070560604
-0.014930225 0.03495237 0.039988413 0.05919202 0.035880294 -0.0047336053 0.12659076 0.049107034
0.011657416 -0.023666397 -0.022504542 -0.10974481 -0.14983805 -0.07286553 0.19256708 -0.058687054
-0.032789025 -0.0689886 -0.020967845 -0.13680893 -0.16484597 -0.117533565 -0.09631767 0.014518612
-0.034056995 -0.08862305 -0.16310662 -0.0592532 -0.017309023 -0.053485062 -0.16520014 0.0416028
0.21412528 -0.03994455 -0.014533657 0.006690067 -0.0034011535 -0.021376712 0.022713115 -0.11554907
-0.29604834 -0.030367073 0.06053005 0.13267606 -0.039370563 0.10676385 0.049094357 -0.09460103
-0.15035212 -0.02104295 0.044048645 -0.008686638 -0.22062698 -0.10084379 0.04609782 -0.021531066
0.042512856 -0.110820405 0.13066119 0.1647142 -0.01726722 -0.1482244 0.14892194 0.046837058
-0.20520578 -0.01663543 0.168431 -0.13761622 0.028573848 0.025526153 -0.07593825 -0.10778841
-0.2084272 0.07717693 -0.27251178 -0.10741305 -0.0052388683 0.38517195 -0.1060015 -0.061470352
0.25787956 -0.1485815 -0.108859055 -0.3614008 0.075261675 -0.0407671 0.046677943 -0.031689778
0.12621106 0.036170624 0.19590825 -0.066294715 0.11201242 -0.2511286 -0.09469192 -0.004366194
0.102062985 -0.009291109 -0.09225975 -0.026655054 -0.0880923 -0.05626488 -0.009924138 0.020687405
0.12450746 0.05607532 0.017436467 -0.0039968207 -0.121043816 -0.10373934 -0.06750758 -0.03649706
00000000: 69e7 353e 3efd 333c db8b 8bbd ecab 7a3e
00000010: ac8a 6cbc 7059 a7bd fca2 17be 51e2 34bd
00000020: 9532 e5bc e48b 0cbd 5122 0ebe 9808 863d
00000030: 3752 98bd 04e1 bfbc c83a 80be dba8 243e
00000040: f3b4 403d a979 2abe e653 053e f426 863e
00000050: f4a1 febb af83 173e 8e5b 3bbe 8b62 26be
00000060: 8de4 06be 7a38 e8bd 2933 323e 52c2 993e
00000070: 6385 d5bd 8032 a5bd 1741 b1bc 1def 0fbe
00000080: 7e48 f6bc 7218 9abd 7f3b e0bd d3a7 1dbe
00000090: cebe 143e a160 e0be 5136 063e c2ae 773d
000000a0: 400f 8cbd e018 ae3d 8941 c7bc a949 823c
000000b0: f49b 61be 13ec b9ba a5e6 30bc 3ed6 cebc
000000c0: 5182 2d3e 181c 20be 20cd 25bd dce3 b2bc
000000d0: 23a1 a2be 6def d7bc 31f8 9ebd 25a1 03be
000000e0: 31f3 85bc af75 213e 162d 233e 297b 533e
000000f0: 6c56 3fbd cd59 80bd 57a2 343d 3f79 173e
00000100: 40df 103e ad2e 2abd 8665 58bd 978c 39bc
00000110: 263d 54bc a225 223c e628 b3bc a70d 8cbd
00000120: 556d 143e 48d1 44bd 07b8 55bc 884d dd3c
00000130: 49f8 113e 1f2f 79bd 7d21 1dbe a798 a7be
00000140: 56b1 8d3d c569 403d 779f 733d af9b 803d
00000150: 03c1 8ebe c42a d2bd ff67 6dba 240b af3d
00000160: d5e6 a8bd 0973 023e f693 12bd 4b6d 8c3c
00000170: d200 3bbe e851 5a3d ab2a 943e ee45 5dbd
00000180: 2bbc bd3d bf5d 6abe 90fc 523d 4d88 213e
00000190: 47fd 203d b302 3c3e bb26 a23d 2bc7 5ebc
000001a0: 424a bf3c 5f2c ed3d b615 93be a1d2 853e
000001b0: 01dc e73d 0b8f 8abe 6394 763d f070 193e
000001c0: 684c b4be e7f1 6ebe 755a cabc aac7 71bc
000001d0: 0c81 15be 813c 0dbd 45dd 05be 88f0 183a
000001e0: 4e72 99bc 4f90 393e 2cc0 5c3e bfb1 82bc
000001f0: 794d 4fbe a5f3 0c3d a16b cdbd 7553 53bd
00000200: 6fd1 83bd 90d0 98bd 71c2 fdbd 0f38 bdbd
00000210: 7812 7ebd 555f 2abe be71 f4bc f36e 22be
00000220: 2bf0 67bd 6399 c3bd 15e5 0fbd 588c b4ba
00000230: 59c2 4e3d f771 4dbe e535 173e 1482 90bd
00000240: e79d 74bc 372a 0f3d e4ca 233d 5573 723d
00000250: 37f7 123d 5c1c 9bbb 02a1 013e 7524 493d
00000260: bffe 3e3c 08e0 c1bc 725b b8bc e3c1 e0bd
00000270: 256f 19be 863a 95bd 4e30 453e d661 70bd
00000280: c94d 06bd e549 8dbd c2c4 abbc a417 0cbe
00000290: 62cd 28be 70b5 f0bd 3342 c5bd 79df 6d3c
000002a0: 597f 0bbd 0080 b5bd 6c05 27be 7cb3 72bd
000002b0: a7cb 8dbc 2713 5bbd 3a2a 29be b367 2a3d
000002c0: a843 5b3e e59c 23bd 931e 6ebc 5938 db3b
000002d0: e3e5 5ebb 371e afbc db10 ba3c fea4 ecbd
000002e0: a693 97be 5ec4 f8bc 5cee 773d 3cdc 073e
000002f0: 0743 21bd 01a7 da3d 2a17 493d 2fbe c1bd
00000300: e8f5 19be 4462 acbc 5a6c 343d 6752 0ebc
00000310: 0aec 61be 3087 cebd 11d1 3c3d eb61 b0bc
00000320: f621 2e3d cff5 e2bd 0ccc 053e d7aa 283e
00000330: fc73 8dbc 23c8 17be fe7e 183e 37d8 3f3d
00000340: 7721 52be 0647 88bc 2d79 2c3e 44eb 0cbe
00000350: b413 ea3c 391c d13c 8385 9bbd 2bc0 dcbd
00000360: f16d 55be f00e 9e3d aa86 8bbe 60fb dbbd
00000370: d0aa abbb 4235 c53e 5017 d9bd 56c8 7bbd
00000380: ca08 843e c025 18be 7ff1 debd 8709 b9be
00000390: cb22 9a3d 67fb 26bd 5f31 3f3d 24cd 01bd
000003a0: 793d 013e a627 143d 2c9c 483e 86c5 87bd
000003b0: c566 e53d ee93 80be d6ed c1bd 4a12 8fbb
000003c0: 6606 d13d bc39 18bc aef2 bcbd b35b dabc
000003d0: bc69 b4bd 0176 66bd da98 22bc a278 a93c
000003e0: c4fd fe3d 3caf 653d ecd6 8e3c c3f7 82bb
000003f0: d2e5 f7bd 4b75 d4bd 6a41 8abd f17d 15bd

bias f4 [256]
-0.02651233 -0.00281565 -0.004484354 0.04188901 -0.1068638 -0.38282868 0.004392679 -0.2007531
0.07367877 -0.07230094 -0.31200916 0.15619473 -0.29904622 -0.21476664 -0.16239148 -0.23380294
-0.025554752 0.006117602 0.15120646 0.027498035 -0.38147143 0.0564859 0.054781985 0.026494516
-0.10027198 0.1324821 -0.33797258 0.06440457 0.03347007 0.050852157 -0.06240501 0.042913787
-0.12890647 -0.41803494 -0.043504044 0.030262139 -0.3542682 -0.13746193 -0.028048415 0.11516707
-0.3090112 -0.4257389 -0.34233207 -0.0072690365 0.06857755 0.0033717437 -0.3315906 -0.10365457
0.07169657 -0.3750069 -0.011555342 0.002877178 -0.36811125 -0.03615387 -0.2309899 -0.5102457
-0.40035793 -0.31442985 -0.01870227 -0.2648363 0.075295076 -0.031973224 -0.32560667 -0.014721442
-0.31285596 0.11319523 0.17159699 -0.43958622 0.09205869 0.053086247 -0.35497856 0.08268814
0.02821744 0.024139905 -0.015039517 0.13735002 0.04335156 0.046422273 -0.0676309 -0.25097573
-0.13551196 -0.41213232 -0.25852907 -0.09852792 -0.4362567 -0.03644521 0.058549527 0.026763543
-0.22236046 0.03054709 -0.23744383 -0.14391361 0.06511652 0.14877272 0.07741275 -0.038675204
-0.01375602 0.023070965 -0.22701892 -0.09187358 -0.43120128 0.022043133 -0.079793766 -0.24994002
-0.3141386 -0.33340523 -0.014549492 0.1121334 0.011655107 0.03562039 -0.24913 -0.068307765
-0.034064956 0.051911518 -0.016762106 0.077357054 -0.25888392 0.07062945 -0.24201277 -0.20590357
0.17453682 0.09620278 -0.16156942 0.028916227 0.059317607 -0.26317137 -0.12258489 -0.3688975
0.016085057 0.025399556 -0.30274728 0.12684223 0.0637435 -0.24562222 0.014556695 0.041262895
-0.001959896 -0.15104109 -0.32663503 -0.30011553 0.03715084 0.044085868 -0.17103058 -0.21741267
0.1502098 0.02097307 -0.34980702 -0.4423087 -0.20397732 0.11244886 -0.10605581 -0.017613037
0.058226928 0.0042647044 0.08435295 -0.31605235 -0.05952501 -0.25346076 0.09456284 -0.032326594
0.06013033 -0.07152652 0.03359645 -0.31217185 -0.092499144 -0.40115634 -0.18622927 -0.18284792
-0.21785651 -0.114186935 -0.39738926 -0.3008022 0.11643514 -0.12539794 -0.020819297 -0.30749413
-0.092768036 -0.46651596 -0.27964994 -0.43573883 -0.0057519847 -0.50101113 -0.18931876 -0.36963263
0.05204262 -0.09629343 -0.2574059 -0.56838214 -0.43815202 -0.027324121 0.08076021 -0.030881122
0.14204633 0.023956051 0.06677679 -0.011285038 -0.010168517 0.10236278 -0.31970793 0.054108135
0.037417438 -0.021007327 0.06036432 -0.22032067 -0.35361555 -0.48725435 0.05174375 0.08199326
0.061321758 0.065791965 -0.0046270327 -0.28562006 0.11814526 -0.4831066 -0.55224216 -0.4179851
-0.006752921 -0.352398 -0.21100144 -0.10934586 -0.3063726 0.027226718 0.07632185 -0.28349632
-0.08759297 -0.060303062 -0.025054675 -0.38902408 -0.42336625 -0.3513376 0.025975106 -0.021141844
-0.3119335 0.031728487 -0.06736131 -0.334685 -0.14083223 0.03698338 -0.016944472 0.02236058
0.11541647 0.057380397 -0.060867704 -0.09571652 0.054331142 -0.28646407 0.0524627 -0.06968927
-0.1301778 0.1097988 -0.34396452 -0.05357909 0.12181751 -0.37324008 0.029427627 0.07236048
00000000: 6330 d9bc c586 38bb 7df1 92bb d093 2b3d
00000010: 68db dabd 1f02 c4be 76f0 8f3b 3892 4dbe
00000020: e5e4 963d 8412 94bd aabf 9fbe 83f1 1f3e
00000030: 961c 99be c9eb 5bbe f449 26be 0a6a 6fbe
00000040: 3358 d1bc 2a76 c83b ded5 1a3e 8f43 e13c
00000050: 3950 c3be c25d 673d 1363 603d 070b d93c
00000060: 655b cdbd 63a9 073e be0a adbe 8be6 833d
00000070: ea17 093d 5a4a 503d 659c 7fbd 5ec6 2f3d
00000080: 0f00 04be ad08 d6be 4c31 32bd 4ee8 f73c
00000090: a462 b5be d2c2 0cbe cac5 e5bc b6dc eb3d
000000a0: b736 9ebe 73fa d9be 2646 afbe 1931 eebb
000000b0: 6372 8c3d 79f8 5c3b 3ec6 a9be d948 d4bd
000000c0: a7d5 923d e800 c0be 9e52 3dbc 098f 3c3b
000000d0: 1479 bcbe 1516 14bd 9e88 6cbe 769f 02bf
000000e0: b7fb ccbe f3fc a0be 8135 99bc a098 87be
000000f0: 4e34 9a3d 5bf6 02bd ebb5 a6be 3432 71bc
00000100: a82e a0be e7d2 e73d 1fb7 2f3e 7211 e1be
00000110: 4489 bc3d f770 593d c0bf b5be 6658 a93d
00000120: 4328 e73c 0dc1 c53c 4e68 76bc 7ca5 0c3e
00000130: 6891 313d 4825 3e3d 1282 8abd e47f 80be
00000140: a6c3 0abe 0203 d3be ec5d 84be 02c9 c9bd
00000150: 0a5d dfbe 9347 15bd a1d1 6f3d 383f db3c
00000160: 76b2 63be e43d fa3c 7a24 73be 175e 13be
00000170: cf5b 853d e057 183e 938a 9e3d e469 1ebd
00000180: ee60 61bc 52ff bc3c a677 68be 3728 bcbd
00000190: 6ac6 dcbe cd93 b43c ea6a a3bd 47f0 7fbe
000001a0: c6d6 a0be 17b4 aabe fe60 6ebc 32a6 e53d
000001b0: 10f5 3e3c b0e6 113d ef1b 7fbe f1e4 8bbd
000001c0: b287 0bbd 2ca1 543d af50 89bc 606d 9e3d
000001d0: 6f8c 84be 2ca6 903d 32d2 77be 63d8 52be
000001e0: c8b9 323e f705 c53d 7472 25be b9e1 ec3c
000001f0: 05f7 723d 66be 86be c90d fbbd 22e0 bcbe
00000200: cfc4 833c bb12 d03c b101 9bbe eee2 013e
00000210: f48b 823d 6484 7bbe 347f 6e3c 4803 293d
00000220: 9971 00bb 84aa 1abe b53c a7be bea8 99be
00000230: 7b2b 183d 6293 343d a422 2fbe 6da1 5ebe
00000240: 99d0 193e b7cf ab3c e819 b3be 4976 e2be
00000250: 6edf 50be 974b e63d ca33 d9bd 3749 90bc
00000260: 5c7f 6e3d efbe 8b3b 3dc1 ac3d 9dd1 a1be
00000270: 7fd0 73bd 9cc5 81be 2aaa c13d e468 04bd
00000280: 394b 763d 7f7c 92bd 6e9c 093d fdd4 9fbe
00000290: 3170 bdbd 5d64 cdbe e3b2 3ebe 7c3c 3bbe
000002a0: c715 5fbe d7da e9bd 9b76 cbbe bf02 9abe
000002b0: 8c75 ee3d 5168 00be 3b8d aabc df6f 9dbe
000002c0: 2bfd bdbd 2edb eebe 472e 8fbe 2919 dfbe
000002d0: 257b bcbb 4442 00bf c7dc 41be 7d40 bdbe
000002e0: a42a 553d 7d35 c5bd b5ca 83be 7e81 11bf
000002f0: 7655 e0be d6d6 dfbc 9c65 a53d 68fa fcbc
00000300: 9874 113e 7b3f c43c 45c2 883d e1e4 38bc
00000310: da99 26bc 94a3 d13d c2b0 a3be 7ea0 5d3d
00000320: 0743 193d 8f17 acbc 9440 773d be9b 61be
00000330: 190d b5be 6779 f9be 41f1 533d 15ec a73d
00000340: 862c 7b3d f0bd 863d 5d9e 97bb cb3c 92be
00000350: 24f6 f13d c059 f7be be5f 0dbf 2502 d6be
00000360: 9b47 ddbb 836d b4be c310 58be b9f0 dfbd
00000370: dfdc 9cbe 910a df3c a14e 9c3d 6e26 91be
00000380: f163 b3bd 5800 77bd 763f cdbc 2a2e c7be
00000390: 76c3 d8be 86e2 b3be bfc9 d43c a931 adbc
000003a0: bfb5 9fbe bbf5 013d baf4 89bd d55b abbe
000003b0: 5336 10be e27b 173d 22cf 8abc 892d b73c
000003c0: 785f ec3d b507 6b3d 6a50 79bd 0607 c4bd
000003d0: 558a 5e3d 6bab 92be 21e3 563d 3fb9 8ebd
000003e0: 544d 05be 31de e03d 1e1c b0be bf75 5bbd
000003f0: 757b f93d 5319 bfbe 3512 f13c bb31 943d

weight f4 [256]
0.3615318 0.76422924 1.349934 1.3247656 1.3717839 1.0929384 0.9460104 1.0885316
0.97863567 1.3690543 1.0910071 1.1704304 1.087706 1.095488 1.0967542 1.0863062
1.3307108 0.79925054 1.0118052 1.0563452 1.0883651 1.0277454 1.3917072 1.0455433
1.4940269 0.9641657 1.0883342 1.2277187 1.1908786 1.1718976 1.0586635 1.1499491
1.3239192 1.0903956 1.1637162 0.9463987 1.0986474 1.2624798 1.2948779 0.921014
1.0919261 1.0868083 1.0975169 1.4620516 1.5246159 1.25334 1.0838306 1.2116728
0.97214985 1.0836854 1.3527678 0.9436453 1.0904558 1.4725717 1.1162095 1.0920047
1.0962387 1.0777421 1.2342019 1.0847645 1.2208539 1.1081427 1.1459066 1.257374
1.0938903 1.0072889 1.0482874 1.0871105 0.8705945 0.7887782 1.0922626 1.0131873
1.3232367 1.3025928 1.3355148 1.0472763 1.3618598 1.1517804 1.3195202 1.3509257
1.1091578 1.0959252 1.0858793 1.0762415 1.0884926 1.2339401 0.6908024 1.1687093
1.0759205 1.216073 1.3031296 1.4266808 0.6859736 1.2324042 1.1996502 1.3535092
1.1131096 1.4058821 1.3620372 1.0283865 1.0933449 0.6933468 1.3441943 1.1031932
1.0922478 1.0984083 1.3063544 1.3241136 1.2196571 1.5646247 1.4125867 1.3412424
1.1992205 1.1336286 1.133998 1.054588 1.3383291 1.2688488 1.0922165 1.2174616
0.77766067 1.1506565 1.4004858 1.146022 1.1327667 1.0942482 1.3091683 1.0877774
1.1702155 1.0421866 1.0951427 0.9916329 0.802197 1.0899583 1.5794916 0.7770008
1.4836633 1.3770602 1.0910906 1.0912985 0.45829114 0.63128215 1.3969109 1.0924865
1.2019794 0.9050051 1.0940442 1.0812049 1.4037298 0.7642842 1.3574684 1.2732854
1.2291958 1.2240213 1.2860783 1.0972785 1.3084941 1.0907406 1.2332505 1.2204958
1.0631384 0.78934497 0.9764771 1.0807711 0.98995966 1.0876582 1.7093394 1.097498
1.2908211 1.0928988 1.089791 1.0892965 1.250125 1.5479084 1.2196609 1.0906321
1.4950393 1.0821141 1.2194817 1.0836649 1.2710773 1.0849342 1.0931959 1.0901116
1.1196685 1.3634865 1.0913166 1.0944726 1.0987004 1.1358802 1.1006473 0.9044494
1.0202993 1.215477 1.3261303 1.4671729 1.1375105 1.1618037 1.0880724 1.355508
1.1899242 1.3251104 1.1849368 1.2846321 1.0894984 1.093978 1.323682 1.4176226
1.164498 1.2426391 1.1677645 1.0920326 0.90522116 1.0910355 1.0914166 1.0813625
1.0637848 1.0855131 1.3702455 1.2643123 1.093444 1.1674562 1.269238 1.0787958
1.3160012 0.94723463 1.0962038 1.0820613 1.0940844 1.0886708 1.27348 1.2033948
1.0912861 1.3154901 1.3142902 1.0880302 1.2651569 1.2042866 1.0247085 0.94060826
1.2305019 1.614172 1.2039081 1.2546663 1.1210976 1.0865932 1.1694418 1.2544727
1.359139 1.0915457 1.0912281 1.106099 1.1913514 1.088392 1.1541986 1.3599473
00000000: b21a b93e 87a4 433f a3ca ac3f eb91 a93f
00000010: 9d96 af3f 68e5 8b3f bd2d 723f 0155 8b3f
00000020: de87 7a3f 2c3d af3f 1fa6 8b3f aad0 953f
00000030: f339 8b3f f338 8c3f 7162 8c3f 150c 8b3f
00000040: bb54 aa3f af9b 4c3f d582 813f 5236 873f
00000050: 8c4f 8b3f 298d 833f 7623 b23f 5dd4 853f
00000060: 463c bf3f 90d3 763f 894e 8b3f e325 9d3f
00000070: b66e 983f be00 963f 4982 873f 8831 933f
00000080: 2f76 a93f 1592 8b3f a7f4 943f 2f47 723f
00000090: 7aa0 8c3f f098 a13f 8fbe a53f 93c7 6b3f
000000a0: 3cc4 8b3f 891c 8b3f 6f7b 8c3f 8224 bb3f
000000b0: 9d26 c33f 726d a03f f6ba 8a3f 1818 9b3f
000000c0: d0de 783f 34b6 8a3f 7f27 ad3f bd92 713f
000000d0: 0e94 8b3f 3b7d bc3f f4df 8e3f cfc6 8b3f
000000e0: 8d51 8c3f 74f3 893f 54fa 9d3f 90d9 8a3f
000000f0: f144 9c3f 9fd7 8d3f 11ad 923f a2f1 a03f
00000100: 9904 8c3f d8ee 803f 482e 863f 7026 8b3f
00000110: 48df 5e3f 5eed 493f 43cf 8b3f 1fb0 813f
00000120: d25f a93f 5cbb a63f 26f2 aa3f 260d 863f
00000130: 6c51 ae3f 8a6d 933f 0ae6 a83f 22eb ac3f
00000140: e2f8 8d3f 4747 8c3f 18fe 8a3f 48c2 893f
00000150: ba53 8b3f c0f1 9d3f 6dd8 303f 4498 953f
00000160: c3b7 893f 48a8 9b3f f3cc a63f 7a9d b63f
00000170: f79b 2f3f 6cbf 9d3f 238e 993f ca3f ad3f
00000180: 607a 8e3f f2f3 b33f 3c57 ae3f 2ba2 833f
00000190: baf2 8b3f 2d7f 313f 8f0e ac3f 6f35 8d3f
000001a0: c7ce 8b3f a598 8c3f 9f36 a73f 8e7c a93f
000001b0: b91d 9c3f 9f45 c83f a4cf b43f d5ad ab3f
000001c0: 0f80 993f be1a 913f d926 913f bdfc 863f
000001d0: 5e4e ab3f a369 a23f c0cd 8b3f c8d5 9b3f
000001e0: c514 473f b648 933f 1e43 b33f d9b0 923f
000001f0: 80fe 903f 5310 8c3f d492 a73f 4a3c 8b3f
00000200: 9fc9 953f 5f66 853f a32d 8c3f a7db 7d3f
00000210: c85c 4d3f c183 8b3f c82c ca3f 86e9 463f
00000220: aee8 bd3f 8243 b03f dba8 8b3f abaf 8b3f
00000230: 23a5 ea3e b59b 213f facd b23f 99d6 8b3f
00000240: 76da 993f 6aae 673f a409 8c3f ec64 8a3f
00000250: 6bad b33f 21a8 433f 86c1 ad3f 04fb a23f
00000260: 4a56 9d3f bbac 9c3f 379e a43f 9f73 8c3f
00000270: bc7c a73f 639d 8b3f 27db 9d3f 3539 9c3f
00000280: eb14 883f 8312 4a3f 67fa 793f b556 8a3f
00000290: ff6d 7d3f 6238 8b3f a2cb da3f d17a 8c3f
000002a0: a039 a53f 1ce4 8b3f 467e 8b3f 116e 8b3f
000002b0: 1904 a03f dd21 c63f d91d 9c3f d599 8b3f
000002c0: 735d bf3f b782 8a3f fa17 9c3f 88b5 8a3f
000002d0: a9b2 a23f 20df 8a3f d8ed 8b3f c788 8b3f
000002e0: 4c51 8f3f ba86 ae3f 43b0 8b3f ae17 8c3f
000002f0: 37a2 8c3f 8664 913f 03e2 8c3f ff89 673f
00000300: 2b99 823f c094 9b3f a3be a93f 52cc bb3f
00000310: f299 913f fcb5 943f f545 8b3f 4981 ad3f
00000320: 704f 983f 389d a93f 02ac 973f d36e a43f
00000330: af74 8b3f 7907 8c3f 696e a93f a874 b53f
00000340: 450e 953f cc0e 9f3f 4f79 953f b9c7 8b3f
00000350: 93bc 673f 0da7 8b3f 8ab3 8b3f 166a 8a3f
00000360: 1a2a 883f 18f2 8a3f 3464 af3f fcd4 a13f
00000370: f9f5 8b3f 346f 953f 6476 a23f fb15 8a3f
00000380: ba72 a83f f87d 723f 6850 8c3f fc80 8a3f
00000390: f50a 8c3f 9159 8b3f 6501 a33f d708 9a3f
000003a0: 43af 8b3f fb61 a83f a93a a83f 9344 8b3f
000003b0: a9f0 a13f 1026 9a3f a629 833f b4cb 703f
000003c0: 1681 9d3f 309d ce3f a919 9a3f e898 a03f
000003d0: 2080 8f3f 7c15 8b3f 45b0 953f 9092 a03f
000003e0: 44f8 ad3f c5b7 8b3f 5dad 8b3f a794 8d3f
000003f0: 347e 983f 6e50 8b3f c8bc 933f c112 ae3f

bias f4 [256]
-0.09699427 -0.047107045 0.053254124 0.077351585 -0.051306013 -0.042114824 0.0014600264 -0.04644257
-0.0510533 -0.045626327 -0.049086027 0.07071744 -0.041678745 -0.05246388 -0.053126525 -0.048365243
-0.028134279 -0.0010855234 0.03780675 -0.14931655 -0.04509092 0.028024165 -0.241767 0.018943822
-0.07184171 0.06377219 -0.05262278 0.07060386 -0.07795914 0.09139335 -0.1919967 -0.183727
-0.070990704 -0.043422222 0.12770146 0.044981766 -0.05218535 -0.073879704 0.11510253 0.022000045
-0.054499794 -0.04637654 -0.048837963 0.07791312 0.06500231 -0.13256048 -0.041270655 -0.09066517
-0.020652657 -0.04119835 -0.17351449 -0.092249386 -0.045379512 -0.10526358 -0.061757494 -0.04563275
-0.044220608 -0.0331154 0.051818956 -0.04072064 0.0838348 -0.13694422 -0.04654279 -0.09489255
-0.054596726 0.05194922 0.014279222 -0.04795752 0.022409726 0.04363436 -0.043927796 0.024751311
0.11621408 0.12847339 -0.04780241 0.03951323 0.08404482 -0.17747028 -0.082447566 -0.08721743
0.12570147 -0.04597783 -0.043434776 -0.045354906 -0.041881938 -0.102797054 -0.066298634 0.015569788
-0.032332223 0.08543047 -0.09508317 0.15435095 -0.101011634 0.10294481 0.102363214 -0.045404784
-0.081352085 -0.17543823 -0.07327726 -0.03203338 -0.047736857 -0.12558605 0.11249803 -0.05060037
-0.051209677 -0.05386552 0.092486165 -0.12197379 -0.13534115 0.16051678 -0.06464592 -0.09514825
-0.15195253 0.03186998 -0.108647175 -0.1350948 -0.07209712 -0.10830241 -0.048496276 -0.07662767
-0.08862516 0.048527367 -0.023813035 0.05751202 -0.1992834 -0.049730357 0.10595844 -0.04034125
0.06975771 -0.15857446 -0.05307024 0.03594684 0.005362313 -0.045883805 -0.13910836 -0.12525672
-0.11391483 -0.09387539 -0.042898767 -0.045022808 -0.13013345 0.012137944 -0.10057306 -0.046479106
0.074655876 -0.17933154 -0.045449957 -0.038623698 -0.0637587 -0.06283006 0.12169454 -0.07884385
0.11492766 -0.027777858 0.112325504 -0.049283363 -0.088819325 -0.048517846 0.08567394 0.097978696
-0.008768008 0.07400771 0.07077655 -0.03366336 -0.10748667 -0.040594954 -0.044570487 -0.050314628
-0.048440278 -0.04652202 -0.046295423 -0.04821891 -0.25763127 -0.092131756 0.09586593 -0.0435323
-0.105531365 -0.043025438 -0.078900136 -0.044047307 0.116630904 -0.051434267 -0.0498156 -0.046918657
0.052377928 -0.09949108 -0.04594249 -0.053144142 -0.053897966 -0.108896084 0.025505468 0.008117615
0.043285396 0.0059985355 -0.15807708 0.06897504 -0.10037491 0.10679568 -0.04039205 0.07842238
0.013309753 0.04943005 0.04546708 -0.081154115 -0.03921068 -0.050198145 0.090136684 0.038380437
-0.115355805 0.0682791 -0.08193762 -0.04400885 0.0053323 -0.04767609 -0.039996736 -0.034076102
-0.1534721 -0.039224207 -0.05147868 0.08166597 -0.045664836 0.07062663 -0.0543699 -0.0520776
0.1378803 -0.031520966 -0.12615077 -0.041034367 -0.046549316 -0.046001926 0.08148266 -0.008747742
-0.041854538 -0.044825573 0.09119411 -0.04550321 0.11227301 0.043227788 -0.12872314 -0.17025745
0.07918126 0.019464377 0.12335387 0.09219045 0.05090967 -0.041909255 0.076025896 0.07815039
-0.06300454 0.030162256 -0.04971185 -0.027562844 -0.2046788 -0.042828254 -0.20305793 -0.1460827
00000000: efa4 c6bd 51f3 40bd ff20 5a3d 826a 9e3d
00000010: 4126 52bd 9880 2cbd 5b5e bf3a 903a 3ebd
00000020: 441d 51bd ace2 3abd 6e0e 49bd 4ed4 903d
00000030: 55b7 2abd 5ee4 56bd 339b 59bd a21a 46bd
00000040: dc79 e6bc 1f48 8eba 40db 1a3d 70e6 18be
00000050: 42b1 38bd ef92 e53c c591 77be 1330 9b3c
00000060: bf21 93bd fe9a 823d fc8a 57bd c298 903d
00000070: 0ba9 9fbd 702c bb3d c89a 44be ee22 3cbe
00000080: 9363 91bd 80db 31bd 2cc4 023e cd3e 383d
00000090: 4ec0 55bd 3e4e 97bd e0ba eb3d 7039 b43c
000000a0: 2d3b 5fbd 54f5 3dbd 510a 48bd ea90 9f3d
000000b0: ee1f 853d efbd 07be 6b0b 29bd a9ae b9bd
000000c0: c32f a9bc 9abf 28bd c8ad 31be 3fed bcbd
000000d0: dedf 39bd 6f94 d7bd 6df5 7cbd 68e9 3abd
000000e0: ab20 35bd 03a4 07bd 1d40 543d b0ca 26bd
000000f0: 94b1 ab3d 1b3b 0cbe a7a3 3ebd 0657 c2bd
00000100: d1a0 5fbd b5c8 543d 66f3 693c 1b6f 44bd
00000110: 9a94 b73c f1b9 323d a2ed 33bd 43c3 ca3c
00000120: a601 ee3d 878e 033e 76cc 43bd a0d8 213d
00000130: b11f ac3d c5ba 35be 45da a8bd 0d9f b2bd
00000140: e3b7 003e 4053 3cbd aae8 31bd 11c6 39bd
00000150: 658c 2bbd 4387 d2bd 94c7 87bd 6d18 7f3c
00000160: cb6e 04bd 2cf6 ae3d f7ba c2bd 2d0e 1e3e
00000170: 30df cebd bbd4 d23d cea3 d13d 5efa 39bd
00000180: ec9b a6bd 14a6 33be 6312 96bd 6f35 03bd
00000190: b987 43bd a199 00be 5e65 e63d 5542 4fbd
000001a0: 3dc1 51bd 17a2 5cbd 6369 bd3d 65cd f9bd
000001b0: df96 0abe 835e 243e 1565 84bd 16dd c2bd
000001c0: 7299 1bbe 198a 023d 6982 debd 4b56 0abe
000001d0: a8a7 93bd a7cd ddbd 08a4 46bd f8ee 9cbd
000001e0: 1c81 b5bd a2c4 463d 8e13 c3bc b991 6b3d
000001f0: f310 4cbe 0fb2 4bbd bd00 d93d de3c 25bd
00000200: 21dd 8e3d 5861 22be 2e60 59bd fe3c 133d
00000210: 57b6 af3b a8f0 3bbd 6c72 0ebe 4c43 00be
00000220: 2e4c e9bd be41 c0bd 9eb6 2fbd d669 38bd
00000230: b441 05be 3ade 463c 40f9 cdbd e060 3ebd
00000240: 2ee5 983d b0a2 37be bc29 3abd e233 1ebd
00000250: ec93 82bd 0cad 80bd fd3a f93d e278 a1bd
00000260: 315f eb3d 648e e3bc ea0a e63d 5add 49bd
00000270: e8e6 b5bd a6ba 46bd d275 af3d 0ea9 c83d
00000280: b1a7 0fbc 5b91 973d 4cf3 903d 97e2 09bd
00000290: f921 dcbd e546 26bd 8b8f 36bd b616 4ebd
000002a0: 5069 46bd e08d 3ebd 45a0 3dbd 3181 45bd
000002b0: 3fe8 83be 93af bcbd 5b55 c43d ed4e 32bd
000002c0: d420 d8bd 713b 30bd 6596 a1bd f36a 34bd
000002d0: 2fdc ee3d bdac 52bd 710b 4cbd c72d 40bd
000002e0: 3d8a 563d fbc1 cbbd 312e 3cbd acad 59bd
000002f0: 1dc4 5cbd e904 dfbd d8f0 d03c bfff 043c
00000300: 074c 313d 5d8f c43b f5de 21be c942 8d3d
00000310: 5c91 cdbd b2b7 da3d 2272 25bd ea9b a03d
00000320: 2611 5a3c 2a77 4a3d b03b 3a3d 2134 a6bd
00000330: 619b 20bd 929c 4dbd 9599 b83d ce34 1d3d
00000340: aa3f ecbd ead5 8b3d e9ce a7bd a042 34bd
00000350: 93ba ae3b 0148 43bd 9ed3 23bd 6293 0bbd
00000360: ca27 1dbe 90a9 20bd 4fdb 52bd 7d40 a73d
00000370: 0d0b 3bbd b2a4 903d f9b2 5ebd 524f 55bd
00000380: 7e30 0d3e 211c 01bd ab2d 01be a713 28bd
00000390: 7faa 3ebd 846c 3cbd 61e0 a63d b052 0fbc
000003a0: aa6f 2bbd 059b 37bd fac3 ba3d 9361 3abd
000003b0: 64ef e53d 9f0f 313d 00d0 03be f857 2ebe
000003c0: c929 a23d c273 9f3c f4a0 fc3d 59ce bc3d
000003d0: a886 503d 0aa9 2bbd 77b3 9b3d 500d a03d
000003e0: 8608 81bd d616 f73c a79e 4bbd 79cb e1bc
000003f0: 5297 51be ae6c 2fbd 6bee 4fbe b496 15be
