player_model_ts.pt (torch, 505423 bytes, 12 tensors)

weight f4 [256, 84]
0	0xbe218ae8	-0.15775645
1	0x3e56b8fd	0.20969005
2	0xbdb4f088	-0.0883494
3	0x3db65d02	0.089044586
4	0xbf9a20f3	-1.2041305
5	0xbe0e6e5b	-0.13909285
6	0x3d12afcf	0.035812195
7	0xbe1c1b4f	-0.15244792
8	0xbe7caba1	-0.24674846
9	0x3bca1458	0.006166976
10	0x3b9e0c81	0.004823268
11	0x3dc8194c	0.0977045
12	0x3da5c390	0.08093941
13	0x3e0e4450	0.13893247
14	0x3de598c0	0.112107754
15	0x3e91e264	0.28493035
16	0xbadcfaab	-0.0016859373
17	0x3e11af97	0.14227138
18	0xbd2cf430	-0.042225063
19	0xbdf23f41	-0.11828471
20	0x3dc7f0cd	0.09762726
21	0x3ee71c97	0.45139
22	0xbe1b559b	-0.15169375
23	0x3d65a5b9	0.05606625
24	0xbe4d0669	-0.20021977
25	0xbe68e565	-0.22743757
26	0xbbe2239e	-0.0069012186
27	0xbe70dccb	-0.23521726
28	0xbe1f8741	-0.15578939
29	0xbddf1bda	-0.10893984
30	0xbcd151be	-0.025551673
31	0xbe14c7b9	-0.14529313
32	0xbdad7c1d	-0.08470938
33	0xbd544806	-0.0518265
34	0x3da3fabe	0.0800681
35	0xbd569be1	-0.05239475
36	0xbd9221a1	-0.071353205
37	0xbc7370d0	-0.01485844
38	0x3d9a0172	0.07519807
39	0xbde13e27	-0.10998183
40	0xbd413020	-0.047165036
41	0xbd31ed7a	-0.043439366
42	0xbc260700	-0.010133505
43	0xbd49ddca	-0.04928378
44	0xbd97b84e	-0.074082
45	0x3c239e18	0.009986423
46	0xbd44ab31	-0.048014823
47	0x3d174046	0.03692653
48	0xbd5e9a80	-0.05434656
49	0x3d7f876e	0.062385015
50	0xbdbe57a7	-0.09294062
51	0x3d3fa7e2	0.046790965
52	0xbda8cd56	-0.0824229
53	0x3b2cee20	0.002638705
54	0xbc846064	-0.016159244
55	0xbd3eb62a	-0.046560444
56	0x3c786a60	0.0151620805
57	0xbdac2fdc	-0.08407566
58	0xbbd89880	-0.0066099763
59	0x3c9bdea4	0.019027062
60	0x3c8ac1fc	0.016938202
61	0x3d9857bf	0.07438611
62	0x3d97386f	0.07383811
63	0x3c1f3058	0.009716116
64	0xbd3c3b18	-0.045954794
65	0x3b9aca30	0.0047238097
66	0x3dd634af	0.10459267
67	0x3db1811b	0.08667203
68	0xbd843558	-0.06455487
69	0x3d867195	0.06564633
70	0x3cdd6824	0.027027197
71	0x3d0d4df2	0.034498163
72	0x3c9d07d4	0.019168772
73	0x3cfb466c	0.030673228
74	0x3d1a9b1e	0.037745588
75	0xbd7aa2be	-0.06119036
76	0x3d30973e	0.043112986
77	0x3dc1564f	0.0944029
78	0xbd67b4b9	-0.056568835
79	0xbd33aca2	-0.043865807
80	0xbdad15c5	-0.08451418
81	0xbd257230	-0.0403921
82	0xbd5331f0	-0.051561296
83	0xbb85a8d0	-0.004078962
84	0xbe3dcd67	-0.18535386
85	0x3e96eed1	0.29479077
86	0xbe7fe333	-0.24989013
87	0x3ee4a4ba	0.44656926
88	0xbf5ab8d8	-0.854383
89	0xbe1cd1ac	-0.15314358
90	0xbc833e2b	-0.016020855
91	0xbdac0c22	-0.08400752
92	0xbf605e8e	-0.8764428
93	0xbda8f138	-0.08249134
94	0x3e40d82c	0.18832463
95	0xbe0fc2fc	-0.14039224
96	0xbe698cc8	-0.2280761
97	0xbdd25aa8	-0.102711976
98	0x3ebc4b90	0.367764
99	0x3e9d6438	0.30740523
100	0x3e0dddc8	0.13854134
101	0x3def4ae4	0.11684206
102	0xbe385e62	-0.18004754
103	0xbd46df6a	-0.048552908
104	0x3d112a79	0.035440896
105	0x3f0a26a1	0.53965193
106	0xbe66f4a3	-0.22554259
107	0x3e15ed06	0.14641199
108	0xbe352990	-0.17691636
109	0xbe13b5e2	-0.14424852
110	0x3d882b5c	0.06648895
111	0xbd85d186	-0.06534104
112	0xbd36c2fe	-0.044619553
113	0xbddcff4d	-0.10790882
114	0x3e175ae7	0.1478077
115	0xbd4395fd	-0.04775046
116	0xbe408764	-0.18801647
117	0xbd412495	-0.047154028
118	0x3e0b40dd	0.13598962
119	0x3cc543ed	0.024080241
120	0xbd74205d	-0.059601177
121	0xbe39f3d6	-0.18159422
122	0x3e22c868	0.15896761
123	0xbdf35b0c	-0.118826
124	0xbced1b58	-0.028943703
125	0xbd593c77	-0.05303618
126	0xbd1190d7	-0.03553852
127	0xbde24622	-0.11048533
128	0xbd0ce6b1	-0.034399692
129	0xbe0ae0c9	-0.13562311
130	0x3cb9ce74	0.022681452
131	0xbc53177c	-0.012884017
132	0xbd25a2e6	-0.040438555
133	0xbbc2c2e0	-0.005943641
134	0x3d981569	0.07425959
135	0xbdd2f0fe	-0.10299872
136	0xbdd2bc26	-0.10289793
137	0x3c124b00	0.008929014
138	0xbc6d18f8	-0.014471285
139	0xbae6d780	-0.0017611831
140	0xbdab5ff5	-0.08367912
141	0x3d9b468b	0.075818144
142	0xbbc21ac0	-0.005923599
143	0x3ccfa22c	0.025345884
144	0xbc044418	-0.008072875
145	0xbd1f05f0	-0.03882402
146	0x3dac8fcd	0.08425865
147	0xbd42cc81	-0.04755831
148	0x3d06e3fe	0.032932274
149	0x3dba60dd	0.091005065
150	0xbd29f650	-0.041494668
151	0x3cb9222c	0.022599302
152	0x3c542560	0.012948364
153	0x3ca34344	0.019929536
154	0xba235500	-0.00062306225
155	0x3c8397ac	0.016063534
156	0x3dc164cf	0.09443056
157	0x3dc29425	0.095009126
158	0x3d961605	0.07328419
159	0x3d94fe79	0.07275099
160	0xbd7289e8	-0.05921355
161	0x3ddb9329	0.10721428
162	0xbd9fa336	-0.07794802
163	0xbcfd2d34	-0.030905344
164	0xbcd0b834	-0.02547846
165	0x3d48319a	0.04887543
166	0xbd59e043	-0.05319239
167	0xbd9b52fc	-0.075841874
168	0x3e63200a	0.2218019
169	0xbddd13ce	-0.10794793
170	0xbe815ceb	-0.25266203
171	0xbf2d7f89	-0.6777273
172	0x3da7dbb7	0.08196204
173	0xbe1b6774	-0.15176183
174	0xbe0f8378	-0.14014995
175	0x3e56afc6	0.2096549
176	0xbe33ce2d	-0.17559119
177	0x3cbe7ed2	0.023253832
178	0xbf3c1be8	-0.7348008
179	0x3e3ca490	0.1842215
180	0xbdc2308b	-0.09481915
181	0xbe6397ab	-0.22225825
182	0xbebdd68a	-0.37077743
183	0x3da71492	0.0815822
184	0xbd2580ee	-0.04040616
185	0xbe0f3a66	-0.13987121
186	0xbeee56c5	-0.46550575
187	0x3c8e9d2d	0.017408932
188	0xbc2aa8a5	-0.010416185
189	0xbe7598c3	-0.23984055
190	0xbe397b33	-0.18113403
191	0xbe0a13a0	-0.13484049
192	0xbea3aec9	-0.31969288
193	0xbe872112	-0.26392418
194	0x3e7c2790	0.24624467
195	0xbd688732	-0.056769557
196	0xbe3a28f1	-0.1817968
197	0xbd4e9f39	-0.050444815
198	0x3df4f5c2	0.11960937
199	0x3d29bc05	0.041439075
200	0xbddd4f10	-0.108060956
201	0xbd00a539	-0.03140757
202	0x3d74c680	0.059759617
203	0x3c664b3e	0.014056025
204	0xbd32c304	-0.043643013
205	0xbe1e0dea	-0.15434995
206	0x3dfb8faa	0.12283261
207	0xbd346895	-0.04404505
208	0xbe0bea10	-0.13663507
209	0xbe028dd4	-0.12749416
210	0xbcb2f278	-0.021844134
211	0x3e1b9c47	0.15196334
212	0x3d6591d9	0.056047294
213	0xbe115db5	-0.14195903
214	0x3dcbbd86	0.09948258
215	0x3c97c5d1	0.018526943
216	0x3ca64afd	0.02029943
217	0xbbc4de2e	-0.006007931
218	0x3d54fc48	0.051998407
219	0x3dd3bebe	0.103391156
220	0xbd59a44b	-0.053135198
221	0x3cc5a53c	0.024126641
222	0xbdec97cd	-0.11552391
223	0xbc050072	-0.008117782
224	0xbd842076	-0.06451504
225	0xbdbcfd50	-0.09228003
226	0x3dc8d033	0.09805336
227	0x3d456cde	0.048199527
228	0x3d0d9c62	0.034572966
229	0x3d473726	0.048636578
230	0x3ca00694	0.019534387
231	0x3db1b13d	0.08676384
232	0x3d4713ca	0.048602857
233	0xbd77bfdf	-0.060485717
234	0x3d487846	0.048942827
235	0xbd8676b8	-0.065656126
236	0x3dccfb15	0.100088276
237	0xbd72f29c	-0.0593134
238	0x3d1a50c2	0.037674673
239	0xbd8edf2e	-0.06976162
240	0x3d48fe5a	0.049070694
241	0x3dbe76a1	0.092999704
242	0x3dc1e527	0.094675355
243	0x3d38e4ea	0.045140184
244	0x3d984c65	0.07436446
245	0x3c154f60	0.009113163
246	0x3db10561	0.08643604
247	0x3ce3562c	0.02775105
248	0x3d98ba21	0.07457376
249	0xbdc249b6	-0.094867155
250	0xbd84ead0	-0.064900994
251	0x3d75189e	0.05983793
252	0x3e5ae2fc	0.2137565
253	0x3edad65e	0.42741674
254	0x3e49b466	0.19697723
255	0xbe9c8c86	-0.3057596

bias f4 [256]
0	0x3e85e8a8	0.26154065
1	0x3e692c35	0.2277077
2	0xbd6bc850	-0.05756408
3	0xba0b2f84	-0.00053095096
4	0xbd301f7e	-0.042998783
5	0xbd0f4c49	-0.03498486
6	0xbe110ea5	-0.14165743
7	0xbe16cf65	-0.14727552
8	0xbdbc0bf0	-0.091819644
9	0x3d116ff5	0.03550716
10	0x3d24e6cd	0.04025917
11	0x3d1a171f	0.037619706
12	0xbd4debc0	-0.050273657
13	0xbcafc5b7	-0.021456582
14	0x3da64354	0.081183106
15	0x3dcf7b61	0.101309545
16	0xbdf66769	-0.12031443
17	0xbc3aa7c7	-0.01139254
18	0xbe729ced	-0.23692675
19	0x3d06831d	0.032839883
20	0xbe2936e0	-0.1652484
21	0x3e610cb3	0.219775
22	0xbe561c40	-0.20909214
23	0xbe36d7e6	-0.17855796
24	0x3d286b27	0.041117813
25	0x3ded9547	0.11600738
26	0xbd2488f3	-0.040169667
27	0xbc256f01	-0.010097266
28	0x3dc01356	0.09378688
29	0xbde565d8	-0.11201066
30	0xbe2d758b	-0.1693937
31	0x3ea1324e	0.31483692
32	0x3de31d35	0.11089555
33	0x3d3a8412	0.04553611
34	0x3defe3b5	0.117133535
35	0xbe3ad35e	-0.18244693
36	0x3cdfccbd	0.027319307
37	0x3e627d64	0.22118145
38	0x3c28f3b7	0.010312012
39	0xbdebf95c	-0.11522171
40	0x3dd4a571	0.10383118
41	0x3ebf6349	0.37380436
42	0xbd4b2d8c	-0.049603984
43	0xbe2a98f7	-0.16659914
44	0x3dc589e2	0.0964544
45	0x3b073b36	0.0020634658
46	0x3e5f0c6e	0.21782085
47	0xbb866696	-0.0041015847
48	0xbd91dc43	-0.0712209
49	0xbe4d758e	-0.20064375
50	0x3e1deb63	0.15421824
51	0xbdde911d	-0.10867522
52	0x3d5144d3	0.051091027
53	0x3c1e0f9b	0.009647275
54	0x3e02118f	0.1270201
55	0x3e99876e	0.29986137
56	0x3d339ddb	0.043851715
57	0xbe401400	-0.1875763
58	0xbe16d0a5	-0.14728029
59	0x3cb8bbd3	0.022550499
60	0x3ce24d87	0.027624859
61	0x3e004ba8	0.1252886
62	0x3e0487af	0.12942384
63	0xbe9b01be	-0.30274767
64	0x3df74ee8	0.12075597
65	0x3e196fc8	0.14984047
66	0xbda65687	-0.081219725
67	0xbe878d76	-0.26475114
68	0x3e10b8ba	0.14132968
69	0x3ea98e38	0.33116317
70	0x3e8fee4b	0.2811149
71	0xbda733fa	-0.081642106
72	0x3e286cbd	0.1644773
73	0x3d0739b1	0.033014003
74	0xbd4d3af8	-0.050105065
75	0x3a409445	0.00073463126
76	0x3ccd4c1b	0.025060704
77	0x3e28d539	0.16487588
78	0xbbce22c6	-0.0062907664
79	0xbdfd53a5	-0.123694696
80	0x3e927ad7	0.28609344
81	0x3d360632	0.044439502
82	0x3dc36e2c	0.09542498
83	0xbc799694	-0.0152336545
84	0x3e5daabe	0.21647164
85	0xbdcfd2ac	-0.10147604
86	0x3b87c38b	0.0041431836
87	0xbb70bbf0	-0.0036733113
88	0x3e352352	0.17689255
89	0xbde4daa7	-0.11174517
90	0xbd97f4b2	-0.07419719
91	0x3d80ce47	0.06289344
92	0x3c3c5584	0.011494998
93	0x3e843316	0.25820225
94	0xbe036b0b	-0.12833802
95	0x3e58d36e	0.21174404
96	0xbea2059b	-0.31644902
97	0x3db781d7	0.08960312
98	0xbd673f21	-0.05645669
99	0xbc85ec11	-0.016347917
100	0xbdad3256	-0.084568664
101	0x3d159921	0.03652299
102	0xbda7996d	-0.081835605
103	0xbe8afecb	-0.27147517
104	0xbd0728d9	-0.03299794
105	0x3c1a341e	0.00941184
106	0xbd3f6f4f	-0.04673701
107	0xbd818f87	-0.06326204
108	0xbebf160a	-0.37321502
109	0x3ece8193	0.40333232
110	0x3d113180	0.035447598
111	0xbe1a57d5	-0.15072568
112	0xbdfb32f3	-0.12265577
113	0xbda4fcec	-0.080560535
114	0xbdda9982	-0.106738105
115	0x3d92e1c9	0.07171971
116	0x3dc2c882	0.095109
117	0xbdaee6d0	-0.08540118
118	0xbd355fea	-0.044280924
119	0xbe91c7e2	-0.2847281
120	0xbd59bbf9	-0.05315778
121	0x3e1ea441	0.15492345
122	0xbdfd5a1e	-0.12370704
123	0x3cfee2d2	0.031114016
124	0x3eaef939	0.34174517
125	0xbe4c25cd	-0.19936295
126	0xbd5af4ff	-0.053456303
127	0x3d122bbb	0.035686236
128	0x3eb32c60	0.34994793
129	0xbe6741a7	-0.22583638
130	0xbde90804	-0.11378482
131	0xbd278256	-0.040895782
132	0x3d547212	0.0518666
133	0xbdc436a3	-0.095807336
134	0xbd15d787	-0.036582496
135	0xbb14ecbf	-0.002272412
136	0x3d432d74	0.04765077
137	0xbe2e40c2	-0.1701689
138	0xbdc5f1ba	-0.09665246
139	0xbd9d3cad	-0.076775886
140	0xbe4b5315	-0.19855912
141	0x3d4291dd	0.047502387
142	0x3c40c44a	0.011765549
143	0xbdc313b1	-0.0952524
144	0xbd896967	-0.06709557
145	0x3d5315ab	0.051534336
146	0x3eb3e766	0.3513748
147	0xbd6ac708	-0.057318717
148	0xbd7c6062	-0.061615355
149	0x3e9ae40f	0.3025212
150	0x3e333f73	0.17504673
151	0xbdfbd054	-0.12295595
152	0x3e5dc19b	0.21655886
153	0x3dbe5cd5	0.0929505
154	0xbd1c1205	-0.038103122
155	0x3e1a1ec4	0.15050799
156	0xbda19ec6	-0.07891612
157	0x3e2d8853	0.16946535
158	0xbd479cfd	-0.0487337
159	0x3cc4c12f	0.024017898
160	0x3d0224e5	0.031773467
161	0xbb1c4112	-0.0023842496
162	0xbd9cfa8c	-0.076649755
163	0x3ccf6a29	0.025319176
164	0xbdbc2fc0	-0.09188795
165	0xbe04160d	-0.12899037
166	0xbe72b3f7	-0.23701464
167	0xbe60c591	-0.21950366
168	0x3e875682	0.26433188
169	0x3c7a0297	0.0152594065
170	0xbe24ead5	-0.16105206
171	0xbe1e69f4	-0.15470105
172	0x3e2bf861	0.16793968
173	0x3d9dfcd0	0.07714236
174	0xbd9393fa	-0.07205959
175	0x3dcf6fb7	0.1012873
176	0x3e23b76d	0.1598794
177	0x3d4d9fbd	0.050201166
178	0xbdd83f5d	-0.105589606
179	0xbe28dd83	-0.1649075
180	0xbcf6f41a	-0.030145694
181	0xbd867b40	-0.06566477
182	0xbe0aa038	-0.13537681
183	0xbe2359ef	-0.15952276
184	0x3abeecf3	0.0014566466
185	0x3c4ba563	0.012429568
186	0x3add3c89	0.0016879003
187	0xbe523618	-0.20528448
188	0x3d94c350	0.072638154
189	0xbe67f403	-0.22651677
190	0x3c12f9b3	0.008970666
191	0x3c7cc592	0.015427964
192	0x3da6abfd	0.08138273
193	0xbe42b21d	-0.19013257
194	0xbdf23e27	-0.11828261
195	0xbe412ac2	-0.18863967
196	0xbe80b3f1	-0.25137284
197	0xbe10d7a5	-0.14144762
198	0xbdbabbba	-0.09117837
199	0x3d1b859c	0.037969217
200	0xbd0595cf	-0.03261357
201	0x3e5f8236	0.21827015
202	0x3e10a70c	0.14126223
203	0xbdff6181	-0.12469769
204	0x3dbd95cd	0.09257088
205	0xbda7b0b8	-0.08188003
206	0xbe385404	-0.180008
207	0xbe6e4ac3	-0.23270707
208	0xbe0c7f6e	-0.13720486
209	0xbda9d863	-0.082932256
210	0xbd8e2a0f	-0.06941616
211	0x3d198fc2	0.037490614
212	0x3e179e38	0.1480645
213	0xbd2886ef	-0.041144308
214	0x3e13d18f	0.14435409
215	0x3e908ad4	0.28230917
216	0x3df4e0c9	0.11956937
217	0x3e1112de	0.14167354
218	0x3e451a9e	0.19248435
219	0xbdab6f2d	-0.083708145
220	0xbc294a70	-0.010332689
221	0x3d1506d9	0.036383484
222	0xbe5ce852	-0.21572998
223	0xbe28a502	-0.16469195
224	0xbe5077b9	-0.2035817
225	0x3e474592	0.19460133
226	0x3bf2c964	0.0074092615
227	0xbdb657a2	-0.089034334
228	0x3d0bd5d1	0.034139458
229	0xbdad569a	-0.084637836
230	0x3df53147	0.119722895
231	0x3e29594c	0.1653797
232	0x3d45fa25	0.04833426
233	0xbe83227a	-0.2561224
234	0xbeae9c64	-0.34103692
235	0xbd0bb9b0	-0.034112632
236	0xbda96290	-0.082707524
237	0xbdfa9850	-0.122360826
238	0x3de952bc	0.113927335
239	0xbdef86a0	-0.116955996
240	0xbe6839d2	-0.22678307
241	0xbce9a989	-0.028523223
242	0xbda08628	-0.07838088
243	0xbcd941ba	-0.026520599
244	0xbd3058a0	-0.04305327
245	0x3d2d84ec	0.042363092
246	0xbe29226f	-0.16517042
247	0xbe24a4b1	-0.1607845
248	0x3d97d703	0.07414057
249	0x3e393097	0.18084942
250	0x3e3f0b3d	0.18656631
251	0xbbbe2f33	-0.0058039664
252	0x3ec8776f	0.3915362
253	0xbdf6f903	-0.12059214
254	0x3e306938	0.17227638
255	0xbe83b68f	-0.2572522

weight f4 [256]
0	0x3f280838	0.6563754
1	0x3f56599a	0.8373047
2	0x3f282790	0.6568537
3	0x3f8caab3	1.0989593
4	0x3f252b26	0.64518964
5	0x3fb30c68	1.3988161
6	0x3f8f1787	1.1179055
7	0x3f1faf1a	0.6237656
8	0x3f3ebb8b	0.7450492
9	0x3f7468a8	0.9547219
10	0x3f7fde08	0.9994817
11	0x3eea919f	0.45814225
12	0x3f5ae568	0.85506296
13	0x3fa16ad8	1.2610731
14	0x3f7b054d	0.98054963
15	0x3f8f6345	1.120217
16	0x3eb3ea74	0.3513981
17	0x3f4e8f24	0.80687165
18	0x3f6e0b85	0.9298633
19	0x3f8a7163	1.0815853
20	0x3e68b107	0.2272378
21	0x3f893407	1.0719002
22	0x3f823d6f	1.0174998
23	0x3ee8c9fd	0.45466605
24	0x3f303aef	0.68839926
25	0x3fbad1e7	1.4595307
26	0x3f665c44	0.89984536
27	0x3f240247	0.64065975
28	0x3f710606	0.94149816
29	0x3f201ec4	0.62546945
30	0x3f8f0a62	1.1175044
31	0x3f4a9914	0.7913983
32	0x3fbd2cea	1.4779332
33	0x3f70dc70	0.9408636
34	0x3f335e41	0.70065695
35	0x3f36c1a7	0.7138924
36	0x3fba9cf1	1.4579145
37	0x3f4d390e	0.80165184
38	0x3f40e1bc	0.75344443
39	0x3fd5563b	1.666694
40	0x3f5c6707	0.8609471
41	0x3f439525	0.7639945
42	0x3f84f97e	1.0388639
43	0x3f9da8fe	1.2317197
44	0x3f7c5527	0.9856743
45	0x3f11ef6b	0.5700595
46	0x3fb1563e	1.3854444
47	0x3f0a2e0b	0.53976506
48	0x3f239431	0.63898
49	0x3f3e6540	0.74373245
50	0x3f983c4f	1.1893405
51	0x3f690e94	0.9103787
52	0x3f94841f	1.160282
53	0x3f1b7dca	0.60738814
54	0x3f60e711	0.8785258
55	0x3fac0ad9	1.344081
56	0x3f80b110	1.0054035
57	0x3f767cce	0.96284187
58	0x3f550670	0.8321295
59	0x3f3d54c3	0.7395746
60	0x3f50faab	0.8163249
61	0x3f3575c6	0.70882833
62	0x3fd120cd	1.6338135
63	0x3eea7dd0	0.45799112
64	0x3f4ac49d	0.7920626
65	0x3f8d3f8c	1.1035018
66	0x3f86e714	1.053927
67	0x3f27d694	0.65561795
68	0x3f614fde	0.8801249
69	0x3f2a7d07	0.66597027
70	0x3f330beb	0.6994006
71	0x3f7a95c4	0.97884774
72	0x3f569730	0.83824444
73	0x3f860f71	1.0473462
74	0x3f213b98	0.6298156
75	0x3fce08ba	1.6096413
76	0x3f21186e	0.629279
77	0x3f9fd259	1.2486068
78	0x3f0ee8a3	0.55823725
79	0x3f20d0c4	0.6281855
80	0x3f60fc75	0.8788522
81	0x3f26dcbf	0.6518058
82	0x3f81de67	1.0145997
83	0x3f354de3	0.7082197
84	0x3f73edc7	0.95284694
85	0x3f823465	1.017224
86	0x3f87e910	1.0618
87	0x3f2ae7ed	0.6676014
88	0x3f9f5a76	1.2449481
89	0x3f96cba4	1.1780896
90	0x3f959636	1.1686466
91	0x3f17b69b	0.5926301
92	0x3f23b8cd	0.6395386
93	0x3f2ccc56	0.6749929
94	0x3f17d76f	0.593131
95	0x3fa2569b	1.268268
96	0x3f8adf89	1.0849468
97	0x3f5d20d1	0.863782
98	0x3f6274be	0.88459384
99	0x3fa3bcc8	1.2791986
100	0x3f994ae7	1.1975983
101	0x3f8c83a7	1.0977677
102	0x3f7e7951	0.99403864
103	0x3efcd729	0.49382904
104	0x3f9e91b0	1.238821
105	0x3f88f66b	1.0700201
106	0x3f255af2	0.64591897
107	0x3f39a0f5	0.72511226
108	0x3f87110d	1.0552078
109	0x3f6cc6db	0.9249093
110	0x3f973f56	1.1816204
111	0x3f918919	1.1369964
112	0x3f22bd76	0.63570344
113	0x3f99e8cc	1.2024169
114	0x3f5227b8	0.82091856
115	0x3f26a037	0.6508822
116	0x3fbb19b4	1.4617219
117	0x3f55575b	0.8333642
118	0x3f997722	1.1989481
119	0x3ec1095a	0.37702447
120	0x3f207fde	0.6269511
121	0x3fbb0149	1.4609767
122	0x3f213201	0.62966925
123	0x3ea8b292	0.32948738
124	0x3f248302	0.642624
125	0x3f6d595e	0.9271449
126	0x3f3508e7	0.7071671
127	0x3f4342a6	0.7627357
128	0x3f3b2e89	0.7311788
129	0x3e9dd311	0.30825093
130	0x3f24e8be	0.64417636
131	0x3f22f8b7	0.6366076
132	0x3f22d310	0.63603306
133	0x3e9739d3	0.29536304
134	0x3f67ceac	0.9054973
135	0x3f68c4e5	0.9092544
136	0x3ec063ce	0.37576145
137	0x3e530b4e	0.20609781
138	0x3f440d6a	0.7658297
139	0x3e6fa21f	0.23401688
140	0x3fa65fe3	1.2998012
141	0x3f2a8570	0.6660986
142	0x3f10df4d	0.5659073
143	0x3f981b1b	1.1883272
144	0x3f4fc5b8	0.8116107
145	0x3fa5bd1e	1.2948339
146	0x3fb1d949	1.3894435
147	0x3f844bb7	1.0335606
148	0x3f306383	0.6890184
149	0x3f251163	0.64479655
150	0x3f545f9e	0.829584
151	0x3f014869	0.50501114
152	0x3f38a756	0.72130334
153	0x3f673750	0.90318775
154	0x3f91936a	1.1373112
155	0x3f46a20d	0.7759102
156	0x3f3ceee7	0.73802036
157	0x3f5cf1ce	0.86306465
158	0x3f92abce	1.1458681
159	0x3ed6f636	0.4198472
160	0x3f99f409	1.2027599
161	0x3f61c0ce	0.8818482
162	0x3f4d6dce	0.80245674
163	0x3f6229f0	0.8834524
164	0x3f42ace4	0.7604506
165	0x3fa7de59	1.311473
166	0x3fce2465	1.6104857
167	0x3f8acfd1	1.084467
168	0x3f249e23	0.643038
169	0x3f7dc90a	0.99134886
170	0x3f6c0d03	0.92207354
171	0x3f96d2b2	1.1783049
172	0x3f4c6680	0.798439
173	0x3f2186b2	0.63096154
174	0x3f6a215e	0.91457164
175	0x3f8a5d6d	1.0809761
176	0x3f76ba3b	0.96377915
177	0x3f6fa093	0.9360439
178	0x3f35f991	0.71083933
179	0x3f57fa02	0.84365857
180	0x3f07e1a6	0.5307869
181	0x3f21eaa5	0.63248664
182	0x3f9e5c25	1.237187
183	0x3f7483c7	0.95513576
184	0x3f9368a4	1.1516309
185	0x3f7a09ef	0.9767141
186	0x3ee5b160	0.4486189
187	0x3f6180fb	0.88087434
188	0x3f20131a	0.62529147
189	0x3fb4cb9e	1.4124639
190	0x3f4b18d5	0.79334766
191	0x3f932c2f	1.1497859
192	0x3eab6d4f	0.33481833
193	0x3f91ecf9	1.1400443
194	0x3f87465a	1.0568345
195	0x3f98181a	1.1882355
196	0x3f962778	1.1730795
197	0x3f200a21	0.62515455
198	0x3f660d51	0.8986407
199	0x3f21342e	0.62970245
200	0x3f901f3a	1.125953
201	0x3f71633c	0.94292045
202	0x3f88e863	1.0695919
203	0x3f1fcf80	0.62425995
204	0x3f216ecf	0.63059705
205	0x3f607c4b	0.87689656
206	0x3f7e9706	0.99449193
207	0x3f89a49a	1.0753357
208	0x3e9b74ec	0.30362642
209	0x3f4b2f5d	0.79369146
210	0x3f224653	0.63388556
211	0x3f34b78e	0.7059258
212	0x3fb65f45	1.4247824
213	0x3f9ef0ef	1.2417277
214	0x3f917750	1.1364536
215	0x3fcd9f0f	1.6064166
216	0x3f940073	1.1562637
217	0x3f61646b	0.8804385
218	0x3fcde86c	1.6086555
219	0x3f5a50d6	0.85279596
220	0x3f312b2a	0.6920649
221	0x3f914041	1.1347734
222	0x3fb9f804	1.4528813
223	0x3f939b79	1.1531821
224	0x3f94595b	1.1589769
225	0x3f82e905	1.0227362
226	0x3f22695f	0.63442034
227	0x3f653fc1	0.89550406
228	0x3f12734c	0.5720718
229	0x3f7f2838	0.99670744
230	0x3f3200d2	0.695325
231	0x3fa53bdf	1.2908896
232	0x3f2b5893	0.6693203
233	0x3f876fb6	1.0580966
234	0x3f3024d1	0.6880618
235	0x3f807b18	1.0037565
236	0x3f1f836c	0.6230991
237	0x3f7a2651	0.97714716
238	0x3f825759	1.0182906
239	0x3f404663	0.751074
240	0x3f7fc597	0.99910873
241	0x3f2580ec	0.64649844
242	0x3f9112d0	1.1333866
243	0x3f8e2425	1.110478
244	0x3f02b946	0.51063955
245	0x3f89ab28	1.0755358
246	0x3f3f1b3c	0.7465093
247	0x3f80df34	1.0068116
248	0x3fa7a5e7	1.3097504
249	0x3f3f7574	0.74788594
250	0x3f7b097a	0.98061335
251	0x3f3f3280	0.7468643
252	0x3f3426b0	0.7037153
253	0x3f8de60e	1.1085832
254	0x3f3f1890	0.74646854
255	0x3f9be8c6	1.2180412

bias f4 [256]
0	0x3eae13aa	0.33999377
1	0x3e6535d9	0.22383823
2	0x3eaef024	0.34167588
3	0x3c735002	0.014850618
4	0x3eb65bda	0.35616952
5	0x3d58d775	0.05293985
6	0x3defc1b6	0.11706869
7	0x3eaedb22	0.3415156
8	0xbd206da1	-0.03916705
9	0xbdd29c6e	-0.10283743
10	0xbc03ae5b	-0.008037175
11	0x3dbb89c0	0.09157133
12	0xbdad04e5	-0.08448199
13	0x3e2201a4	0.15820938
14	0x3d0606e1	0.032721404
15	0x3dcb9c4b	0.0994192
16	0x3c6e9982	0.014562966
17	0x3ed1661b	0.40898213
18	0x3e839c93	0.25705394
19	0x3ce8e157	0.028427763
20	0x3ddc7e68	0.107662976
21	0x3df954ed	0.121744014
22	0x3df85756	0.12126033
23	0x3db0b7fe	0.08628844
24	0xbcb9d6ed	-0.022685492
25	0x3d842da7	0.0645402
26	0xbd711fb9	-0.058868144
27	0xbd2ea279	-0.042635415
28	0x3d90dd5c	0.07073471
29	0x3eaee365	0.34157863
30	0xbe013523	-0.12617926
31	0x3e6c276b	0.23061912
32	0x3e36c978	0.17850292
33	0xbdaf0621	-0.08546091
34	0x3c9d712e	0.019219007
35	0xbd13499b	-0.035958868
36	0x3e006db6	0.12541851
37	0x3e8fd33f	0.28090855
38	0x3e9dfdb9	0.30857638
39	0x3b65a766	0.0035042404
40	0x3d9dadc0	0.07699156
41	0x3e85865f	0.2607908
42	0xbdb8c4f4	-0.09021941
43	0x3ca6ddce	0.020369437
44	0xbcf1fe40	-0.029540181
45	0xbda8869b	-0.08228799
46	0x3defce4a	0.117092684
47	0xbd44dd2e	-0.048062496
48	0x3eafbca6	0.34323615
49	0x3cb51649	0.022105353
50	0x3d3799d9	0.044824455
51	0xbc6a1464	-0.014287088
52	0xbdc9885e	-0.09840463
53	0x3d141b83	0.03615905
54	0x3ef8cc7a	0.48593503
55	0x3dbe37e1	0.09288002
56	0xbd51c2ff	-0.051211353
57	0x3e47d2cf	0.19514011
58	0x3e78ef95	0.24310143
59	0x3cc1ac96	0.023641866
60	0x3d029d68	0.031888396
61	0x3e8daa74	0.27669108
62	0x3ca9435f	0.020662008
63	0x3dc8a719	0.09797496
64	0x3e545f29	0.20739426
65	0x3e794d67	0.24345933
66	0xbbc13cad	-0.0058971257
67	0x3dcb66d4	0.09931722
68	0x3e4d410e	0.20044348
69	0x3eae33b3	0.34023818
70	0x3eb77442	0.35830885
71	0xbb467f65	-0.0030288335
72	0x3ee0953d	0.4386386
73	0x3e6e2330	0.2325561
74	0x3eb13653	0.3461176
75	0x3bcb50e3	0.006204711
76	0x3eaf7e66	0.34276122
77	0x3dd4007b	0.10351654
78	0x3e146516	0.14491686
79	0x3eae7fa9	0.34081772
80	0x3e3bdb12	0.18345287
81	0x3eb816a5	0.35954776
82	0xbcfbd9f3	-0.030743575
83	0x3da8dbda	0.08245058
84	0x3c7b4632	0.01533656
85	0xbcd57eaa	-0.026061375
86	0xbdfca669	-0.12336428
87	0x3ea6e043	0.32592973
88	0x3dc6dac8	0.09709698
89	0x3e00622e	0.12537453
90	0x3e023bb2	0.12718084
91	0x3db86518	0.09003657
92	0x3eb29318	0.3487785
93	0x3ea5ed34	0.32407534
94	0xbd9c6e39	-0.07638211
95	0x3e5301d8	0.20606172
96	0xbd09451d	-0.033513177
97	0x3e444a60	0.19168997
98	0x3e73f594	0.2382415
99	0x3b1c464b	0.0023845609
100	0x3e7bf3f8	0.24604785
101	0xbd87d8b6	-0.06633131
102	0xbd4c6aec	-0.049906656
103	0x3e590a3b	0.21195309
104	0x3cca6608	0.024706855
105	0xbde77309	-0.11301238
106	0x3eb12c4c	0.34604108
107	0x3dd8ccdf	0.10585951
108	0xbd3fd456	-0.04683336
109	0x3e94316d	0.2894396
110	0x3cb39df3	0.021925902
111	0x3cc983f5	0.024599055
112	0x3eb16bdd	0.34652606
113	0x3e8ea799	0.27862242
114	0xbdc4e16a	-0.09613307
115	0x3eabee31	0.33580163
116	0xba8f488b	-0.0010931654
117	0x3ecc7b35	0.3993775
118	0xbd5b3ce1	-0.053524856
119	0x3dff98cd	0.12480316
120	0x3eae480b	0.3403934
121	0x3e8badbe	0.27280992
122	0x3eb0eccd	0.34555665
123	0x3e3c7cdf	0.1840701
124	0x3eb01471	0.34390596
125	0x3ea12d76	0.31479996
126	0x3ea64ab9	0.32478884
127	0x3e4c9f9a	0.19982758
128	0x3e9c0b86	0.30477542
129	0x3d4fb1d9	0.050706718
130	0x3ead1a7d	0.3380927
131	0x3eaf65da	0.34257394
132	0x3eaf6f43	0.34264573
133	0x3e22757f	0.15865134
134	0xbcf4fa55	-0.029904524
135	0xbcb28d4c	-0.021795891
136	0x3db8bf96	0.09020917
137	0x3debe0ff	0.11517524
138	0x3dccfcad	0.100091316
139	0x3dac5993	0.084155224
140	0xbdd10169	-0.10205347
141	0xbd5722ba	-0.052523352
142	0x3d907d16	0.07055108
143	0xbcb08135	-0.021545986
144	0x3e9d4c8c	0.30722463
145	0x3e22412e	0.15845177
146	0x3dc8172c	0.09770045
147	0xbc35314a	-0.011059115
148	0x3e9892d1	0.29799512
149	0x3ead55dd	0.3385457
150	0xbd0e4dbe	-0.03474211
151	0xbe130f3d	-0.14361282
152	0x3ebbb572	0.3666187
153	0x3dc67ad1	0.09691394
154	0x3bbd9a40	0.0057862103
155	0x3e5c2e8a	0.21502128
156	0x3e824241	0.25441173
157	0x3ea0a277	0.3137395
158	0xbcd52aef	-0.026021449
159	0xbdd62e5b	-0.1045806
160	0x3d9f7727	0.077863984
161	0xbe301703	-0.17196278
162	0x3c879727	0.016551567
163	0x3ee16925	0.4402553
164	0xbd8849b3	-0.06654682
165	0x3d40bd07	0.04705527
166	0xbd8d97b7	-0.06913703
167	0x3d876426	0.06610899
168	0x3eb2700c	0.3485111
169	0xbd9a2ab0	-0.07527673
170	0x3e343845	0.1759959
171	0x3f00c4b1	0.5030013
172	0xbdae486b	-0.085099064
173	0x3eae5ad4	0.3405367
174	0x3de565ac	0.11201033
175	0xbd86da3e	-0.06584595
176	0x3ea08f29	0.31359223
177	0x3c8df219	0.017327355
178	0xbd4ee245	-0.050508756
179	0x3ecc146d	0.39859334
180	0xbda30bdb	-0.079612456
181	0x3eaf96a0	0.34294605
182	0x3b1b240b	0.0023672606
183	0x3de04829	0.109512635
184	0xbbac8483	-0.00526482
185	0x3eb125c4	0.34599125
186	0xbdfdd5ca	-0.12394293
187	0x3e9dcb17	0.30819008
188	0x3eade1b0	0.33961248
189	0xbdcd295a	-0.10017653
190	0xbd020560	-0.031743407
191	0x3ccdd470	0.025125712
192	0x3e31e133	0.17371063
193	0x3d8daa38	0.06917232
194	0x3e4a3093	0.19745092
195	0xbd7d27bb	-0.061805468
196	0xbd2a63f9	-0.041599248
197	0x3ea70f7a	0.32628995
198	0xbe003f24	-0.12524086
199	0x3eae1971	0.34003785
200	0xbe074673	-0.13210468
201	0x3e0acca7	0.13554631
202	0x3cade0a8	0.021225289
203	0x3eace07b	0.33765015
204	0x3ead2ff1	0.3382564
205	0xbdeb5bd4	-0.11492124
206	0xbc3b2e8b	-0.011424671
207	0xbcf187c2	-0.02948368
208	0x3e2f30fd	0.17108531
209	0x3ed095e2	0.40739352
210	0x3eaf9be6	0.3429863
211	0xbd0b2ab8	-0.033976287
212	0x3e43853f	0.19093798
213	0x3cef1c64	0.029188342
214	0x3e6b2e54	0.22966892
215	0x3dece65f	0.11567377
216	0x3d9da2cc	0.07697067
217	0x3e8d1cac	0.27560937
218	0xbca4017a	-0.020020235
219	0xbd6bcd55	-0.057568867
220	0x3e9c3237	0.3050706
221	0x3ded4bf2	0.11586751
222	0xbafadd26	-0.0019139394
223	0xbd2d11ec	-0.04225342
224	0x3e0436d7	0.12911545
225	0x3e423876	0.1896685
226	0x3eb0d4fe	0.345375
227	0xbd00dfe0	-0.031463504
228	0xbe105eb1	-0.14098622
229	0x3dde0adc	0.10841915
230	0x3dc75616	0.097332165
231	0x3cbcc82c	0.023044668
232	0x3e80366d	0.25041524
233	0xbd800e6d	-0.062527515
234	0x3d4c631d	0.04989921
235	0xbcda4489	-0.026644008
236	0x3eaec2f0	0.341331
237	0xbd8fa1db	-0.07013293
238	0x3eb31605	0.34977737
239	0xbcdfb265	-0.027306745
240	0x3e9a181f	0.30096528
241	0x3eb50a6d	0.35359517
242	0x3d487ef2	0.04894919
243	0x3e4bd57f	0.19905661
244	0xbb6a0638	-0.0035709273
245	0x3e147856	0.1449903
246	0x3d985ad1	0.07439197
247	0x3c151b43	0.009100738
248	0xbd43c12d	-0.04779165
249	0x3ebd6f41	0.36998942
250	0x3e9325e0	0.28739834
251	0x3cc224c1	0.023699166
252	0x3eab10bf	0.33411214
253	0xbd9cca35	-0.076557554
254	0x3ea4046d	0.32034627
255	0x3cf03ac9	0.029324906

weight f4 [256, 256]
0	0xbe2cc440	-0.16871738
1	0xbdd16a63	-0.1022537
2	0xbbb1a2eb	-0.0054210327
3	0x3c9a5ebe	0.018844005
4	0x3cfbdc22	0.030744616
5	0x3d057a3b	0.03258727
6	0xbd9a1b04	-0.07524684
7	0x3da21c25	0.079155244
8	0xbce0c37f	-0.02743697
9	0xbe042f96	-0.12908778
10	0x3d7a9532	0.06117744
11	0x3de02d6d	0.10946164
12	0xbd21771a	-0.039420225
13	0xbdb95c3c	-0.090507954
14	0x3df17611	0.117900975
15	0xbc2c56d1	-0.0105187455
16	0x3d9a43a5	0.075324334
17	0xbdc9ac03	-0.09847262
18	0x3ed88c6f	0.42294642
19	0xbda0efe1	-0.07858253
20	0x3d8829d4	0.06648603
21	0xbe3721e9	-0.1788403
22	0x3c139752	0.009008246
23	0x3da1fee5	0.079099454
24	0x3d7535c5	0.05986573
25	0x3b90a212	0.0044138515
26	0x3cb1c41a	0.021699954
27	0x3d995a26	0.074878976
28	0x3d6bcf9b	0.057571035
29	0x3b42c45b	0.0029719088
30	0xbcf135e3	-0.02944464
31	0xbd9f94a0	-0.0779202
32	0x3ce4f7aa	0.027950127
33	0x3d69fe7d	0.057127465
34	0x3e097c6e	0.13426372
35	0xbe3a96cd	-0.18221588
36	0x3ad6caa7	0.0016387299
37	0xbe2a656e	-0.16640255
38	0x3dc70a31	0.09718741
39	0x3dee3498	0.11631125
40	0xbdea489b	-0.1143963
41	0xbd8c9e0b	-0.06866082
42	0xbe196f5c	-0.14983886
43	0x3da44efc	0.080228776
44	0x3d7d0ae2	0.061777957
45	0xbddb6029	-0.107117005
46	0x3e5d4360	0.21607733
47	0xbdd4b677	-0.10386365
48	0x3ce2ab62	0.027669612
49	0x3dfc0c2d	0.1230701
50	0x3d2b630e	0.041842513
51	0xbdf61f46	-0.12017684
52	0xbc7f9c60	-0.015601248
53	0x3db291eb	0.08719238
54	0xbe5b9033	-0.21441726
55	0xbc257943	-0.010099712
56	0x3d4348d9	0.047676895
57	0x3d8177ca	0.06321676
58	0x3dde5b1b	0.10857221
59	0x3e29663b	0.16542904
60	0x3e0f1ea7	0.13976537
61	0x3d230ee4	0.039809123
62	0xbdd3882e	-0.103287086
63	0x3de20b76	0.11037342
64	0x3db0147c	0.08597657
65	0xbbd12098	-0.0063820593
66	0x3d4bd953	0.049767803
67	0x3da209ed	0.079120494
68	0xbe911cce	-0.2834229
69	0x3d4365ef	0.047704633
70	0x3e06a5d1	0.13149191
71	0x3e104fc4	0.14092928
72	0x3f0cd707	0.55015606
73	0x3d8eb669	0.06968386
74	0x3de2dd0a	0.11077316
75	0x3dfdfba5	0.12401513
76	0xb945363e	-0.00018807591
77	0xbd14e681	-0.03635264
78	0xbdebafdb	-0.11508151
79	0xbbf9b688	-0.0076206364
80	0xbdcb145f	-0.09915995
81	0x3d841aad	0.064504005
82	0x3da2cd46	0.07949309
83	0x3e8c7301	0.2743149
84	0x3d99a446	0.07502036
85	0x3d4ed16c	0.05049269
86	0xbd657ffc	-0.05603026
87	0xbc82b5a5	-0.015955755
88	0xbe31b529	-0.17354263
89	0xbc0354aa	-0.008015791
90	0xbe5280ff	-0.2055702
91	0x3de5c8a5	0.112199105
92	0x3d1baf8f	0.038009223
93	0x3e0050d2	0.1253083
94	0xbd633b04	-0.055476204
95	0x3e80d2e9	0.25160912
96	0x3d905df1	0.07049168
97	0x3dbe5cb9	0.09295029
98	0x3c8b8e96	0.017035764
99	0xbd1765d6	-0.036962353
100	0xbdf1d9c0	-0.11809111
101	0x3c47a731	0.012185858
102	0x3e65b379	0.22431745
103	0x3e801513	0.25016078
104	0x3dd97d7d	0.10619638
105	0x3d5d7d9c	0.05407487
106	0x3cefaf5d	0.029258424
107	0x3d9f1bda	0.07768984
108	0xbd9adc09	-0.075614996
109	0x3db42d98	0.08797759
110	0xbdd0bb8c	-0.10192022
111	0x3e1bd5b7	0.15218244
112	0x3d20e87f	0.039284226
113	0x3daa1301	0.08304406
114	0x3e1f7ea7	0.15575658
115	0x3cabe03c	0.020980947
116	0x3d98057b	0.0742292
117	0xbd8cf68d	-0.06882963
118	0xbc33cdac	-0.010974329
119	0xbe94ac2f	-0.29037616
120	0x3c605972	0.0136932
121	0x3e03f279	0.12885465
122	0x3cdb4b40	0.02676928
123	0x3e2f0ec9	0.17095484
124	0x3e39c9ab	0.18143336
125	0x3e315067	0.17315827
126	0x3e65c751	0.22439314
127	0x3e192a4f	0.14957546
128	0xbdb44a41	-0.08803225
129	0x3d5db0d2	0.054123707
130	0xbd10d121	-0.03535569
131	0x3c8f3ec1	0.017485978
132	0xbe116ce7	-0.14201699
133	0x3da21ea0	0.079159975
134	0xbc11f079	-0.008907431
135	0x3c7e6497	0.015526912
136	0x3d41a652	0.047277756
137	0x3d6cbd88	0.05779794
138	0xbe09a47b	-0.1344165
139	0x3d8d5a97	0.06902044
140	0xbe707cac	-0.23485059
141	0xbd8e06ef	-0.06934916
142	0x3bd2042d	0.006409189
143	0x3e501b63	0.20322947
144	0x3e8a26a0	0.26982594
145	0x3c102391	0.008797542
146	0x3e20d219	0.15705146
147	0xbe00e4aa	-0.12587228
148	0xbcd2d36f	-0.025735585
149	0x3e20cf98	0.1570419
150	0x3d2e2cea	0.042523302
151	0x3d61be88	0.055113345
152	0x3eb9a494	0.36258376
153	0xbe2361c5	-0.15955265
154	0xbdae542e	-0.0851215
155	0xbc996780	-0.01872611
156	0xbd99489d	-0.07484553
157	0x3e566d22	0.20940068
158	0x3e00a186	0.12561616
159	0xbcfa9bdf	-0.030591903
160	0x3e3c740f	0.18403648
161	0xbe0e09e7	-0.13870965
162	0x3d813345	0.06308607
163	0xbe2420e5	-0.16028173
164	0xbcab146a	-0.020883758
165	0xbebf171d	-0.37322322
166	0xbec1a322	-0.37819773
167	0x3e5e961a	0.21736947
168	0x3ec197a1	0.37810996
169	0x3e2aa6c1	0.16665174
170	0xbe3e8139	-0.18603982
171	0xbe4da83e	-0.2008371
172	0xbd803b90	-0.06261361
173	0xbd08f602	-0.033437736
174	0xbebc99c5	-0.36836067
175	0x3e0c8cc2	0.1372557
176	0x3e694fae	0.22784302
177	0xbc2dc0dc	-0.010605063
178	0xbe16eb11	-0.14738108
179	0xbd644a91	-0.055735175
180	0x3d48bd93	0.049008917
181	0x3d15ba26	0.036554478
182	0x3e36413c	0.17798322
183	0xbe6c50cf	-0.23077701
184	0x3dbb85d5	0.09156386
185	0xbe300dbe	-0.17192742
186	0xbd195d25	-0.037442345
187	0x3e3f4055	0.18676884
188	0x3d59f7fd	0.053215016
189	0xbede0e36	-0.43370217
190	0x3e112d52	0.14177445
191	0x3de671f8	0.112522066
192	0x3e3788e4	0.17923313
193	0xbe849f50	-0.25902796
194	0x3eb1cf42	0.34728438
195	0xbd884b2a	-0.066549614
196	0xbe892d6a	-0.2679246
197	0x3ed8e0b1	0.42358926
198	0xbe0f406f	-0.13989423
199	0xbd08dcde	-0.03341376
200	0xbd11de7f	-0.03561258
201	0xbc87838b	-0.016542217
202	0x3e33b423	0.17549185
203	0x3b0582ba	0.0020372109
204	0x3cd6db94	0.02622775
205	0xbd171106	-0.03688147
206	0xbdd17fdf	-0.102294676
207	0xbd4e023d	-0.050295103
208	0xbd715704	-0.058920875
209	0xbb4b4ea7	-0.0031022222
210	0x3d03712e	0.03209036
211	0xbe44549a	-0.19172898
212	0xbdde6018	-0.10858172
213	0x3c3fd30d	0.011708033
214	0x3eda1205	0.42591873
215	0xbe1b58fc	-0.15170664
216	0xbe1de537	-0.1541947
217	0x3e566a64	0.20939022
218	0x3c54a1ac	0.012977999
219	0xbd3aa408	-0.04556659
220	0xbd5bde10	-0.053678572
221	0xbe93dacf	-0.28877875
222	0x3e3c56f8	0.18392551
223	0x3d4bf64e	0.04979544
224	0xbce5d78e	-0.028056886
225	0x3ac4a9a6	0.0015004172
226	0x3dbfd80f	0.09367382
227	0xbc0a53c6	-0.008442825
228	0x3db5f24a	0.088841036
229	0xbd84d7c3	-0.06486466
230	0xbe704c37	-0.23466574
231	0x3d0961f5	0.033540685
232	0x3d90c7e8	0.07069379
233	0x3e05cafe	0.13065717
234	0xbb396a68	-0.0028292183
235	0xbda038b5	-0.07823316
236	0x3de0b616	0.1097223
237	0x3e0786c6	0.13235006
238	0x3eae2426	0.34011954
239	0x3e6519a1	0.22373058
240	0xbda9a61b	-0.08283635
241	0x3df6c92e	0.12050091
242	0x3e7860a1	0.24255611
243	0xbe654cfa	-0.22392645
244	0x3d485851	0.04891235
245	0x3cd075af	0.02544674
246	0x3d5a6423	0.053318154
247	0xbe10d369	-0.14143147
248	0x3da15c01	0.078788765
249	0xbd87e151	-0.066347726
250	0x3d76c158	0.06024298
251	0xbb34a1b6	-0.0027562208
252	0x3e299a77	0.1656283
253	0xbc68964c	-0.01419599
254	0x3e16544a	0.14680591
255	0x3d21e6d0	0.03952676

bias f4 [256]
0	0x3dbfdfd4	0.09368864
1	0x3d64530b	0.05574326
2	0xbc827de7	-0.015929176
3	0xbe724d91	-0.23662402
4	0xbe26ed34	-0.16301423
5	0xbe23fede	-0.16015193
6	0xbe89cb3b	-0.26912865
7	0x3e1d2c75	0.1534899
8	0x3c3e2b6f	0.011607035
9	0xbe3f81da	-0.18701878
10	0xbe76e508	-0.24110806
11	0xbe400719	-0.18752708
12	0x3cd19f6d	0.025588715
13	0x3cf63b36	0.03005753
14	0x3cba9944	0.02277816
15	0xbd9ea50c	-0.07746324
16	0x3d9447c3	0.0724025
17	0xbee64a81	-0.44978717
18	0x3dd954c0	0.10611868
19	0x3da70697	0.08155554
20	0xbea4154e	-0.32047504
21	0x3d990bce	0.07472955
22	0x3e19ad51	0.15007521
23	0x3d90d19f	0.07071232
24	0xbd9b7323	-0.0759032
25	0xbcd4d4f3	-0.025980448
26	0xbcb47855	-0.022030035
27	0xbe207593	-0.15669851
28	0x3dd9411c	0.10608122
29	0xbe50ecbc	-0.20402807
30	0x3ba63ba8	0.0050730295
31	0xbba9a0cf	-0.0051766406
32	0x3db8f450	0.09030974
33	0xbdb3a7f0	-0.08772266
34	0xbdb51c36	-0.088432714
35	0xbe3237e0	-0.17404127
36	0xbcdf6231	-0.027268501
37	0x3e1f5f7a	0.15563765
38	0x3d8447b7	0.06458991
39	0xbe7501ae	-0.23926422
40	0xbeb7be25	-0.35887256
41	0x3d50c956	0.05097326
42	0xbd239343	-0.03993536
43	0x3cdeec79	0.027212368
44	0xbdd0417c	-0.1016874
45	0x3d13785c	0.036003456
46	0x3d90735a	0.070532516
47	0xbef1b75b	-0.47210202
48	0xbe29ce3d	-0.1658258
49	0x3e15cce2	0.14628938
50	0x3e236fd8	0.15960634
51	0xbc0ca102	-0.008583309
52	0x3ba077a2	0.004897074
53	0xbe9faeea	-0.31188136
54	0xbdb56e70	-0.08858955
55	0xbe9d02ed	-0.30666295
56	0xbddebc1f	-0.10875725
57	0xbe254aca	-0.16141811
58	0xbc6daa17	-0.014505885
59	0xbe924571	-0.28568605
60	0xbe913187	-0.283581
61	0x3d93be3a	0.07214017
62	0x3d456179	0.04818866
63	0x3d0d96e3	0.034567725
64	0xbeb2ca22	-0.3491984
65	0xbd4e1645	-0.050314207
66	0x3d8c1146	0.06839232
67	0x3d855fd8	0.06512421
68	0x3dba79e6	0.091052815
69	0x3cb9b1b6	0.022667747
70	0xbe50ec60	-0.2040267
71	0xbe7fa7e8	-0.24966395
72	0xbd46db75	-0.048549134
73	0x3dad1d72	0.08452882
74	0xbddbe4a2	-0.107369676
75	0xbdf9404f	-0.12170469
76	0xbddd690c	-0.10811052
77	0xbe021c46	-0.12706098
78	0xbe967958	-0.29389453
79	0xbc8297c4	-0.015941508
80	0xbe797f02	-0.24364856
81	0xbe81440b	-0.25247225
82	0x3d8d21d4	0.06891218
83	0xbddc956c	-0.107706875
84	0xbeab2f5e	-0.33434576
85	0xbeb3c8a7	-0.35114023
86	0x3de4e8e5	0.111772336
87	0xbcd2f314	-0.025750674
88	0xbe2e73e2	-0.17036393
89	0xbee21da0	-0.44163227
90	0xbdb34619	-0.087536044
91	0xbe74f149	-0.23920168
92	0xbe85d8be	-0.26141924
93	0x3e3a15c1	0.18172361
94	0x3ce4c553	0.027926123
95	0x3d481eab	0.048857372
96	0x3dc1a246	0.09454779
97	0x3dbed6e9	0.093183346
98	0xbd896970	-0.06709564
99	0x3d91ec6e	0.071251735
100	0xbeba72f0	-0.36415815
101	0x3d052dbe	0.032514326
102	0xbeaca526	-0.33719748
103	0xbdc024b4	-0.093820006
104	0x3d61f7b4	0.05516787
105	0xbd182a4b	-0.03714971
106	0x3d923dd8	0.07140702
107	0xbe9cb9b7	-0.3061044
108	0xbeb8a70b	-0.36064944
109	0xbe241826	-0.16024837
110	0xbebcf265	-0.36903682
111	0xbebfef3d	-0.37487212
112	0x3ad3f070	0.0016169678
113	0xbc1227d2	-0.008920627
114	0xbe5911e8	-0.21198237
115	0xbe97c7de	-0.29644674
116	0x3cdacd1f	0.026709137
117	0xbeb0c01d	-0.3452157
118	0xbbd6f362	-0.006559775
119	0x3e04cdf1	0.12969185
120	0xbe398304	-0.18116385
121	0x3d84fe69	0.064938374
122	0xbdbe3761	-0.092879064
123	0xbda22f75	-0.07919208
124	0x3c1f2590	0.009713545
125	0xbdadd3c4	-0.08487657
126	0x3a97bd44	0.0011576791
127	0x3c0085e6	0.007844424
128	0x3ce30552	0.027712498
129	0x3d5f116b	0.05445997
130	0xbe1548ab	-0.14578502
131	0x3d889663	0.06669309
132	0xbea129e2	-0.31477267
133	0xbdd62d11	-0.104578145
134	0xbccc4bdb	-0.024938514
135	0xbd224e77	-0.03962561
136	0xbd8390ac	-0.06424078
137	0xbe9afa1c	-0.30268943
138	0xbe2d26c7	-0.16909324
139	0xbe9d33b8	-0.3070352
140	0xbd992689	-0.07478053
141	0xbec24f1a	-0.37950975
142	0xbe87f084	-0.26550686
143	0xbe3e603d	-0.185914
144	0xbdb54023	-0.08850124
145	0xbed43a73	-0.41450843
146	0xbd2bf9fa	-0.041986443
147	0x3d58703b	0.052841406
148	0xbe386ee4	-0.18011051
149	0xbda6cf4f	-0.0814501
150	0x3c33c1ae	0.01097147
151	0xbe20e730	-0.15713191
152	0xbce76093	-0.028244292
153	0xbe096fbb	-0.13421528
154	0xbe614d42	-0.22002128
155	0xbe231699	-0.15926589
156	0xbe6b315c	-0.22968048
157	0xbb98dd2f	-0.004665039
158	0x3db0ce12	0.08633055
159	0xbd0ee68d	-0.03488784
160	0xbe278b01	-0.1636162
161	0xbdb2724b	-0.08713206
162	0x3c8eaf21	0.017417492
163	0xbd279301	-0.04091168
164	0x3cc971e2	0.024590436
165	0xbeb04cac	-0.34433496
166	0xbc5a3b43	-0.013319793
167	0xbd109ad6	-0.035303913
168	0x3d806f30	0.06271207
169	0x3db2271c	0.08698866
170	0x3de1d15c	0.1102626
171	0x3d71327e	0.058886044
172	0xbd4cade1	-0.04997051
173	0x3e24ed13	0.16106062
174	0xbe7fab4d	-0.2496769
175	0xbbacda5c	-0.005275054
176	0xbd1478c3	-0.03624798
177	0xbd4774d4	-0.0486954
178	0xbda08197	-0.07837217
179	0xbdc8f2a4	-0.09811905
180	0xbd5336fd	-0.051566113
181	0x3e17c3e7	0.14820825
182	0xbd643eb3	-0.055723857
183	0xbd7d48af	-0.061836895
184	0xbe61066a	-0.21975103
185	0x3c1374d8	0.009000026
186	0xbe46f645	-0.19429882
187	0x3d2a5f23	0.041594636
188	0x3cdc748e	0.026911046
189	0xbdaa77d5	-0.083236374
190	0xbd287009	-0.04112247
191	0x3d3b8f54	0.045790985
192	0xbdb7ca5d	-0.089741446
193	0xbeb8d05d	-0.3609647
194	0x3cf60428	0.030031279
195	0xbdb819f5	-0.08989326
196	0x3dab5ef4	0.0836772
197	0xbe93f7ac	-0.28899896
198	0xbec57b51	-0.38570645
199	0x3dc522d7	0.09625786
200	0xbe738ce7	-0.23784219
201	0x3d9acf45	0.07559065
202	0xbe6b15bf	-0.22957514
203	0x3d7fd2c6	0.06245687
204	0xbdb0153a	-0.08597799
205	0xbe40a277	-0.18811975
206	0xbc36ff48	-0.011169262
207	0xbd1cea12	-0.038309164
208	0x3df2e971	0.11860932
209	0xbdbfa944	-0.09358457
210	0xbe885a67	-0.26631472
211	0xbe50b07c	-0.20379823
212	0xbc0dcb57	-0.008654437
213	0xbe0629fb	-0.13101952
214	0xbe57d07e	-0.21075627
215	0xbddfe6d5	-0.109326996
216	0xbe145fd4	-0.1448968
217	0xbe2a09ab	-0.1660525
218	0x3e243dd8	0.16039217
219	0xbcaa9a1a	-0.020825434
220	0xbee4eee6	-0.44713515
221	0xbea57fee	-0.32324165
222	0x3c808cbf	0.015692113
223	0xbef4957d	-0.477703
224	0xbe853064	-0.26013482
225	0x3dece457	0.1156699
226	0x3d8aaf67	0.067717366
227	0xbccdb6c7	-0.02511157
228	0xbca2d25c	-0.019875698
229	0xbea82d5b	-0.32847103
230	0xbb930bdd	-0.004487498
231	0xbe59cbc3	-0.21269135
232	0xbe46b8e3	-0.19406466
233	0xbeec9a5d	-0.4621152
234	0xbea0c04f	-0.3139672
235	0xbe74c182	-0.23901942
236	0xbeca8130	-0.39551687
237	0x3e1e9f10	0.15490365
238	0xbebabd86	-0.3647272
239	0xbe509ebe	-0.20373055
240	0xbe401374	-0.18757421
241	0xbed3628b	-0.4128612
242	0x3cff4893	0.031162536
243	0xbddac9ef	-0.10683047
244	0xbdfb9bdc	-0.12285587
245	0xbe0d33f2	-0.13789347
246	0x3dbcfb90	0.09227669
247	0xbd36a4eb	-0.04459087
248	0xbeabaf07	-0.33531973
249	0x3ca23168	0.01979895
250	0xbe45856a	-0.19289175
251	0x3dd514a8	0.104043305
252	0x3d8f7274	0.07004252
253	0xbef1865e	-0.47172827
254	0xbe08678b	-0.13320749
255	0x3dccb2af	0.09995019

weight f4 [256]
0	0x3f34544c	0.70441127
1	0x3f84345a	1.0328476
2	0x3f9978ac	1.1989951
3	0x3f8835b6	1.0641391
4	0x3f8a4a24	1.0803876
5	0x3f99b1fc	1.2007442
6	0x3f8a7839	1.0817939
7	0x3f925e6e	1.1435068
8	0x3f9f1b90	1.2430286
9	0x3f898a2a	1.0745289
10	0x3f884b1d	1.0647923
11	0x3f8bcff1	1.0922834
12	0x3f8512b1	1.0396329
13	0x3f52e98b	0.8238761
14	0x3f37def4	0.71824574
15	0x3f67f3cf	0.906064
16	0x3e88bc6b	0.26706252
17	0x3f893236	1.0718448
18	0x3f8b0f2e	1.0864007
19	0x3f866e4c	1.050241
20	0x3f880b44	1.0628438
21	0x3f892b4a	1.0716336
22	0x3f859880	1.0437164
23	0x3f814786	1.0099952
24	0x3f81037b	1.0079187
25	0x3f210451	0.6289721
26	0x3f7c109a	0.9846283
27	0x3f8d5c74	1.104384
28	0x3f8057a0	1.0026741
29	0x3fb11012	1.3833029
30	0x3ee3c495	0.44485918
31	0x3f6b9b02	0.920334
32	0x3f93ba29	1.1541187
33	0x3fa22039	1.2666084
34	0x3f9c5ab2	1.2215178
35	0x3faa9738	1.3327398
36	0x3f9b48e8	1.2131624
37	0x3f770a98	0.9650054
38	0x3f767420	0.9627094
39	0x3f879934	1.0593629
40	0x3f896e6e	1.0736825
41	0x3ec4eb91	0.38460973
42	0x3f93844a	1.1524746
43	0x3f8590f7	1.0434865
44	0x3f88b020	1.0678749
45	0x3f88d35c	1.0689502
46	0x3f914b14	1.1351037
47	0x3f8846e7	1.0646638
48	0x3f8f93e1	1.1217004
49	0x3f8e41fd	1.1113888
50	0x3f74b8a7	0.9559426
51	0x3f8d10be	1.1020734
52	0x3eb691fc	0.35658252
53	0x3f8981a2	1.0742686
54	0x3f4b758e	0.7947625
55	0x3f89cc28	1.0765429
56	0x3f5d11cc	0.8635528
57	0x3f89d020	1.076664
58	0x3f02452e	0.5088681
59	0x3f893dcc	1.0721984
60	0x3f882a69	1.0637943
61	0x3f4ddaa2	0.8041173
62	0x3f946dad	1.159597
63	0x3f135f45	0.57567245
64	0x3f89fb4a	1.0779812
65	0x3f081660	0.5315914
66	0x3f9dd2e6	1.2329986
67	0x3f140139	0.57814366
68	0x3f771530	0.96516705
69	0x3e9e861a	0.30961686
70	0x3f8855c1	1.065117
71	0x3fa01bb0	1.250845
72	0x3fad7fcf	1.3554629
73	0x3f708485	0.9395221
74	0x3fa1d7f9	1.2644035
75	0x3f928539	1.1446906
76	0x3f9d9e9c	1.2314029
77	0x3f890b2d	1.0706536
78	0x3f898b27	1.0745591
79	0x3fb1a4c5	1.3878409
80	0x3f88ddc8	1.0692682
81	0x3faabc35	1.3338686
82	0x3f83143d	1.0240551
83	0x3f8ce3e6	1.1007049
84	0x3f8833aa	1.0640767
85	0x3f8a985c	1.0827746
86	0x3f868435	1.0509096
87	0x3f642b66	0.8912872
88	0x3fac4fa5	1.3461806
89	0x3f89a4b9	1.0753394
90	0x3f9c9675	1.2233416
91	0x3fa761c0	1.3076706
92	0x3f880e8a	1.0629437
93	0x3f88c403	1.0684818
94	0x3f9149ec	1.1350684
95	0x3f8f7237	1.1206731
96	0x3f845a42	1.0340044
97	0x3f83941c	1.0279574
98	0x3fa1b36e	1.2632883
99	0x3f40835d	0.75200444
100	0x3fba51a0	1.455616
101	0x3ee2c822	0.44293314
102	0x3f8967f1	1.0734845
103	0x3f89f343	1.0777363
104	0x3f91f50c	1.1402907
105	0x3f9d9e77	1.2313985
106	0x3f6bb1a9	0.9206796
107	0x3f888268	1.0664797
108	0x3f892878	1.0715475
109	0x3f99f082	1.2026522
110	0x3f8a505c	1.0805774
111	0x3f889703	1.0671085
112	0x3f310f82	0.6916429
113	0x3f905f51	1.1279088
114	0x3f891480	1.0709381
115	0x3fa15067	1.2602662
116	0x3f94c0b0	1.1621304
117	0x3f89c437	1.0763005
118	0x3f83a50a	1.0284741
119	0x3f6be939	0.92152745
120	0x3f897078	1.0737448
121	0x3f8f8243	1.1211628
122	0x3f8dbd77	1.1073445
123	0x3fa67d14	1.3006921
124	0x3f297a99	0.66202694
125	0x3f75f6d5	0.9607976
126	0x3f096a3a	0.53677714
127	0x3fa37f13	1.2773155
128	0x3f8e3be9	1.1112033
129	0x3f8ea951	1.1145421
130	0x3f87ee81	1.0619661
131	0x3f93fca6	1.1561477
132	0x3f892a1d	1.0715977
133	0x3fb13ef6	1.3847339
134	0x3fbb6e68	1.4643068
135	0x3f923941	1.1423723
136	0x3f8f0f75	1.1176592
137	0x3f888416	1.066531
138	0x3fc0ecb5	1.5072237
139	0x3f89e886	1.0774086
140	0x3f9a5e4d	1.2060028
141	0x3f891c14	1.0711694
142	0x3f891886	1.0710609
143	0x3f9538ac	1.165792
144	0x3faa1538	1.3287725
145	0x3f89f2f5	1.077727
146	0x3f25af63	0.64720744
147	0x3f842895	1.0324885
148	0x3f898723	1.0744365
149	0x3f90a016	1.1298854
150	0x3fa01bc7	1.2508477
151	0x3f9d9333	1.2310547
152	0x3f5b1ef3	0.855941
153	0x3f886956	1.0657146
154	0x3f892ebd	1.0717388
155	0x3f8830eb	1.0639929
156	0x3f87f275	1.0620867
157	0x3ef28673	0.47368202
158	0x3ecbf031	0.3983169
159	0x3f7d7a9d	0.9901522
160	0x3f89853c	1.0743785
161	0x3f8e5847	1.112069
162	0x3f769f6e	0.9633702
163	0x3f9420bd	1.1572491
164	0x3e9f20b2	0.31079632
165	0x3f893dbc	1.0721965
166	0x3f7214c1	0.9456292
167	0x3fa9e6bb	1.3273538
168	0x3f6e57a6	0.9310249
169	0x3f481090	0.7815027
170	0x3f760cf5	0.9611352
171	0x3f83cd47	1.0297021
172	0x3f838a6b	1.0276617
173	0x3e04fa6b	0.12986152
174	0x3f88a976	1.0676715
175	0x3f4d043d	0.8008459
176	0x3f8cf32e	1.1011713
177	0x3f7997d4	0.97497296
178	0x3f8cd141	1.1001359
179	0x3f9be98f	1.2180651
180	0x3f8bfa84	1.0935826
181	0x3f819641	1.0123979
182	0x3f717278	0.9431529
183	0x3f812be6	1.0091522
184	0x3fba41ac	1.4551291
185	0x3f0c3e3d	0.5478247
186	0x3fa09e6c	1.2548347
187	0x3f366c8a	0.7125937
188	0x3f333b54	0.700124
189	0x3fa8ea2b	1.3196462
190	0x3f99214e	1.1963289
191	0x3fa2b19e	1.2710454
192	0x3f904d85	1.1273657
193	0x3f896548	1.0734034
194	0x3f860598	1.0470457
195	0x3f957209	1.1675426
196	0x3f5f7fc5	0.87304336
197	0x3f89930f	1.0748004
198	0x3f8876b8	1.066123
199	0x3e938606	0.2881319
200	0x3f8896ec	1.0671058
201	0x3f9a3163	1.2046322
202	0x3f894063	1.0722774
203	0x3fa030d9	1.2514907
204	0x3f905e4c	1.1278777
205	0x3f88e2ae	1.0694177
206	0x3f97a895	1.1848322
207	0x3f94b0d7	1.1616467
208	0x3f81cbf2	1.0140364
209	0x3f9b01b2	1.2109892
210	0x3f89976a	1.0749333
211	0x3f889d0f	1.067293
212	0x3eb1cfef	0.34728953
213	0x3f893eb8	1.0722265
214	0x3f897347	1.0738305
215	0x3fb2e11f	1.3974952
216	0x3f8e784b	1.113046
217	0x3fa65fa0	1.2997932
218	0x3f8a28db	1.0793718
219	0x3f638378	0.8887248
220	0x3f891768	1.0710268
221	0x3f895bab	1.07311
222	0x3f154c49	0.58319527
223	0x3f897228	1.0737963
224	0x3f889497	1.0670346
225	0x3f819d7d	1.0126187
226	0x3f91a6da	1.1379044
227	0x3f8b7732	1.089575
228	0x3ee7c777	0.45269367
229	0x3f885a79	1.065261
230	0x3f5b78cd	0.857312
231	0x3fa9ac78	1.3255758
232	0x3f88372b	1.0641836
233	0x3f88a641	1.0675737
234	0x3f88b9e9	1.0681735
235	0x3f8851b9	1.064994
236	0x3f890fc6	1.0707939
237	0x3f854fb6	1.0414951
238	0x3f89261b	1.0714754
239	0x3f89c291	1.0762502
240	0x3fa15978	1.2605429
241	0x3f88ddba	1.0692666
242	0x3f9617ac	1.1725974
243	0x3f91c681	1.1388704
244	0x3f8780fd	1.0586239
245	0x3f6fa784	0.93614984
246	0x3f86223d	1.0479199
247	0x3fa1f6ca	1.2653439
248	0x3f8951d7	1.07281
249	0x3f8c745a	1.0973008
250	0x3f88c30f	1.0684527
251	0x3f90f060	1.1323357
252	0x3f00c951	0.50307184
253	0x3f899d84	1.0751195
254	0x3f8f8a10	1.1214008
255	0x3f3b6b74	0.73210835
