player_model_ts.pt (torch, 697625 bytes, 12 tensors)

weight f4 [256, 268]
0	0x3e7f41bc	0.2492742
1	0xbded27e6	-0.11579876
2	0xbe79d761	-0.24398567
3	0xbe059456	-0.13044867
4	0xbd08c449	-0.033390317
5	0x3dbf380e	0.093368635
6	0xbe222589	-0.15834631
7	0xbd3aa6fc	-0.045569405
8	0xbd8ca95e	-0.06868242
9	0x3dae67e6	0.08515911
10	0xbd94bca4	-0.07262543
11	0x3de600c8	0.11230618
12	0x3da61ac6	0.081105754
13	0x3d5d5d22	0.054043896
14	0xba7ac600	-0.00095662475
15	0xbd0fa294	-0.035067156
16	0xbd125d43	-0.035733473
17	0xbcc3c488	-0.023897424
18	0x3c742ae6	0.014902806
19	0xbd52feeb	-0.05151264
20	0xbe3ca94b	-0.18423955
21	0xbe2d46b3	-0.16921501
22	0x3e10a4a2	0.14125302
23	0xbd6996c8	-0.05702856
24	0xbcbefe14	-0.023314513
25	0xbd96852d	-0.0734962
26	0x3b31fc54	0.0027158456
27	0x3dd50249	0.104008265
28	0xbdbf2187	-0.09332567
29	0xbc540dc4	-0.012942735
30	0x3d832b59	0.06404752
31	0xbcd47667	-0.025935365
32	0xbbf9aa48	-0.007619176
33	0xbc3947a4	-0.011308584
34	0xbcf82edc	-0.030295782
35	0x3c885b0e	0.01664498
36	0x3caa5e1a	0.020796824
37	0x3c89329e	0.016747769
38	0x3bb87738	0.0056294464
39	0x3c441564	0.011967991
40	0x3d0350d1	0.032059494
41	0xbd6ab18f	-0.05729824
42	0xbd19bc5a	-0.03753314
43	0xbd725f1a	-0.059172727
44	0xbd11c754	-0.035590485
45	0xbd617ec2	-0.055052526
46	0x3c961306	0.018319618
47	0xbd527679	-0.051382516
48	0xbcc4859c	-0.023989491
49	0xbbdcc520	-0.0067373663
50	0x3d064e7f	0.032789703
51	0xbd1cd79d	-0.038291562
52	0xbd047da8	-0.032346398
53	0xbb98add8	-0.0046593957
54	0xbcdde3e0	-0.027086198
55	0x3c10c544	0.008836094
56	0xbd0afaa6	-0.033930443
57	0x399c1280	0.00029768422
58	0x3d270d0f	0.040783938
59	0x3cbcccfe	0.023046967
60	0xbd5c2750	-0.05374843
61	0xbd3887cd	-0.045051385
62	0xbaee0b60	-0.0018161349
63	0x3d450529	0.048100624
64	0xbd69594e	-0.056969933
65	0x3d42c36f	0.04754966
66	0xbc8480e6	-0.016174745
67	0x3cff41c2	0.031159285
68	0x3ce68fcc	0.02814474
69	0xbbec598b	-0.007212823
70	0xbc83d4a9	-0.016092615
71	0x3d5a0eb2	0.05323667
72	0xbd52a69e	-0.05142843
73	0x3ca15841	0.019695403
74	0xbde2468f	-0.11048614
75	0xbdd5f4ee	-0.10447107
76	0xbcaf2871	-0.021381589
77	0xbb2b53b1	-0.0026142413
78	0x3d9f660c	0.07783136
79	0x3db67dab	0.08910688
80	0xbd0bae99	-0.034102056
81	0x3d5c368d	0.05376296
82	0xbd2fec6d	-0.042950083
83	0xbcc04b83	-0.023473507
84	0x3bde901d	0.006792082
85	0xbd8fdfba	-0.07025094
86	0x3ce64d22	0.028112952
87	0xbda36b20	-0.07979417
88	0xba07789a	-0.00051678123
89	0x3ae17323	0.0017200451
90	0x3d4d9bbb	0.050197344
91	0xbd8e52a3	-0.069493555
92	0xbd9470e3	-0.07248094
93	0x3ccd9702	0.02509642
94	0x3c21b7c0	0.00987047
95	0x3cf353fc	0.029703133
96	0x3d991ed5	0.07476584
97	0xbd39cc8e	-0.045361094
98	0x3e163f87	0.14672671
99	0x3d96c543	0.073618434
100	0x3d22e33f	0.0397675
101	0x3990d1d2	0.0002762215
102	0xbd77b10c	-0.06047158
103	0xbcbfe03f	-0.023422359
104	0xbd201dee	-0.039091043
105	0x3c565118	0.013080858
106	0x3ddab419	0.10678882
107	0x3d5ec7f7	0.05438992
108	0xbcf005d5	-0.029299656
109	0xbd3599fc	-0.044336304
110	0xbdab8b0d	-0.08376131
111	0x3cdad7d5	0.026714245
112	0xbd1dc9ff	-0.038522717
113	0xbe020a94	-0.12699348
114	0x3e60cea3	0.21953826
115	0x3d03a6c1	0.03214145
116	0xbc233634	-0.0099616535
117	0xbaceb444	-0.0015770276
118	0xbdbc31e8	-0.09189206
119	0xbe0cd9b4	-0.13754922
120	0xbcf43d56	-0.029814404
121	0xbd496741	-0.049170736
122	0x3d8f370d	0.06992922
123	0x3b91930a	0.0044425773
124	0x3db2e83c	0.087357014
125	0x3e00d757	0.12582146
126	0xbdc38e60	-0.0954864
127	0xbd6077b2	-0.05480165
128	0x3d41f6ca	0.047354497
129	0xbc9eecb3	-0.019399976
130	0x3cd273ca	0.025689978
131	0x3d92710d	0.07150469
132	0x3afd2b69	0.0019315305
133	0x3d1fa807	0.038978603
134	0x3d3ecf17	0.046584215
135	0xbd081309	-0.03322128
136	0x3d51da63	0.05123366
137	0x3cab1629	0.02088459
138	0xbd332c40	-0.043743372
139	0xbd702578	-0.058629483
140	0x3cbaf999	0.022824096
141	0xb92fe0ef	-0.00016773095
142	0xbd629518	-0.055317968
143	0x3c5d63fd	0.013512609
144	0x3dcb168a	0.09916408
145	0x3cab723a	0.02092849
146	0x3d6ef9da	0.058343746
147	0xbd43fb5d	-0.04784714
148	0x3d4c8654	0.049932793
149	0xbdce8929	-0.10084755
150	0x3e0a3f2b	0.13500659
151	0x3d84b972	0.064806834
152	0xbdb1557b	-0.08658882
153	0x3c1e6d4e	0.009669615
154	0xbbde5d5f	-0.006786033
155	0xbde7239b	-0.11286088
156	0xbd81a641	-0.063305385
157	0xbc916e73	-0.017752862
158	0x3df09b75	0.11748401
159	0xbe22e0af	-0.15906022
160	0xbe133bdd	-0.14378305
161	0xbde71af4	-0.11284438
162	0xbdaf60e7	-0.085634045
163	0xbe8e15da	-0.27751046
164	0x3ce7f5c8	0.02831544
165	0xbd223c39	-0.039608214
166	0x3bef2867	0.0072985175
167	0xbd813438	-0.06308788
168	0xba7d6a80	-0.0009667054
169	0xbb3d3c70	-0.0028875135
170	0xbd0ed74e	-0.0348733
171	0x3d00421b	0.031313043
172	0x3d3cfda7	0.04614034
173	0x3cbaef2a	0.02281912
174	0x3ccbc7de	0.024875578
175	0xbc0e3894	-0.008680481
176	0x3c965f32	0.01835594
177	0xbc8e770c	-0.01739075
178	0x3d3f0297	0.04663333
179	0x3cd4acca	0.025961298
180	0xbd1cbe5d	-0.038267482
181	0x3d21826d	0.039431024
182	0xbd49e2f1	-0.049288694
183	0xbd673162	-0.05644358
184	0xbc28b1d4	-0.010296304
185	0x3cdf3f46	0.02725185
186	0x3d6ba309	0.05752853
187	0xbd2f17f6	-0.04274746
188	0x3c8e711e	0.017387923
189	0x3d02c6bf	0.03192782
190	0xbcc728c6	-0.024311434
191	0xbbac0cc8	-0.005250547
192	0x3d4fb78d	0.050712157
193	0x3cbc2ed2	0.022971544
194	0x3bfdabd8	0.0077414326
195	0x3d2c4a43	0.04206301
196	0xbc9cf37c	-0.019159071
197	0xbd091ac5	-0.033472795
198	0xbd70a508	-0.058751136
199	0xbc6767a8	-0.014123835
200	0x3b238f30	0.0024957173
201	0xbbfe59a0	-0.007762149
202	0xbbbe3df0	-0.0058057234
203	0xbd1af592	-0.03783185
204	0x3cf0d6a6	0.029399227
205	0xbd36fd70	-0.04467529
206	0x3ccb4876	0.024814826
207	0xbd117834	-0.035515025
208	0xbcdd5ee4	-0.027022786
209	0xbc279e48	-0.010230608
210	0xbc840668	-0.016116336
211	0xbcac5e18	-0.021040961
212	0xbcdd71ec	-0.027031861
213	0xbc0bef60	-0.008540958
214	0xbd411c12	-0.04714591
215	0x3d4d625f	0.050142642
216	0x3d19698b	0.03745417
217	0x3c3f7954	0.011686642
218	0x3d2dde79	0.042448495
219	0xbd0291ca	-0.031877317
220	0x3aa6ada0	0.0012716539
221	0x3d651c4f	0.0559352
222	0xbc301d70	-0.010749206
223	0xbc80d454	-0.015726246
224	0x3c067564	0.008206699
225	0xbd5db7f8	-0.054130524
226	0xbc343af0	-0.01100038
227	0xbc0fa9bc	-0.008768495
228	0xbd63fc66	-0.055660628
229	0x3cba989e	0.022777852
230	0xbc71eaec	-0.014765482
231	0xbb76d110	-0.0037661232
232	0x3d21b485	0.039478797
233	0xbc857ff8	-0.016296372
234	0xbd3702a3	-0.04468025
235	0xbd274606	-0.040838264
236	0x3c28875c	0.010286178
237	0x3c43a4fc	0.011941191
238	0x3d06d7eb	0.03292076
239	0x3d46d7db	0.0485457
240	0x3cc970aa	0.024589855
241	0xbd3eef50	-0.046614945
242	0xbcf44f2a	-0.029822905
243	0xbd20a059	-0.03921542
244	0xbc1f2734	-0.009713937
245	0x3d6ca5c9	0.057775293
246	0xbb393a60	-0.0028263554
247	0x3a83ee40	0.0010065511
248	0x3d1f3ddf	0.038877364
249	0x3d5eed15	0.054425318
250	0x3cf32a3e	0.029683229
251	0xbbc46560	-0.00599353
252	0x3c2ffe64	0.010741804
253	0x3d294b91	0.04133183
254	0xbb12fda0	-0.0022429004
255	0xbcbcf358	-0.023065254

bias f4 [256]
0	0xbd124ca5	-0.035717625
1	0xbd4e7621	-0.050405625
2	0x3db18484	0.086678535
3	0x3d3065c3	0.043065798
4	0x399eb81d	0.00030273283
5	0xbdbf86ac	-0.093518585
6	0x3ba05135	0.004892493
7	0xbba678f9	-0.005080339
8	0x3d2a78c6	0.041619085
9	0x3da79cf1	0.08184231
10	0xbd30178f	-0.042991217
11	0xbcb7b5a7	-0.022425486
12	0x3d36ed90	0.04466015
13	0xbd990d48	-0.07473236
14	0xbd3d216b	-0.046174448
15	0x3d0e5abb	0.034754496
16	0x3c086f78	0.0083273575
17	0x3cd134e2	0.025537912
18	0xbd3d82ef	-0.046267446
19	0xbe01c931	-0.12674405
20	0xbda39b47	-0.07988601
21	0xbc449e29	-0.012000599
22	0xbd9c6941	-0.07637263
23	0xbd8793d0	-0.0661999
24	0x3cd08bb1	0.025457235
25	0xbd44b6ab	-0.04802577
26	0x3d1a1741	0.037619833
27	0xbd3b38bf	-0.045708414
28	0x3ca418c3	0.020031339
29	0x3d28c602	0.04120446
30	0xbc6ea6e8	-0.014566161
31	0x3d28ded0	0.041228116
32	0x3c1df0d1	0.009639935
33	0xbbf02dd6	-0.007329683
34	0xb87fdf68	-6.10048e-05
35	0x3d06ecf7	0.03294083
36	0x3c5ce2fa	0.01348185
37	0xbcf4622f	-0.029831974
38	0x3c616097	0.013755939
39	0x3c2df42a	0.010617295
40	0xbd09342c	-0.03349702
41	0xbd980a3e	-0.074238285
42	0xbc4cb3e7	-0.012494064
43	0xbcbace58	-0.02280347
44	0xbd63d961	-0.05562723
45	0xbc0b7341	-0.008511365
46	0xbd6aa647	-0.05728748
47	0x3c8c3bf4	0.017118432
48	0x3d3d83fc	0.04626845
49	0xbc86767b	-0.016413918
50	0xbd4856e4	-0.04891099
51	0xbc82f1e6	-0.015984487
52	0xbdcb1bd9	-0.09917421
53	0xbcdc633a	-0.026902784
54	0xbd496517	-0.049168672
55	0x3d8adc99	0.06780357
56	0x3cc5dcbd	0.024153108
57	0xbd142ba9	-0.03617445
58	0xbaefd928	-0.001829897
59	0xbc4625c9	-0.01209397
60	0xbdbbcb97	-0.09169691
61	0xbd07bf74	-0.03314157
62	0x3dc399ca	0.09550817
63	0x392694c9	0.0001588642
64	0x3beecb94	0.007287452
65	0x3d744f87	0.059646156
66	0xbd0e64f3	-0.03476424
67	0xbd6daeda	-0.05802808
68	0x3c62bfd7	0.0138396835
69	0x3cb6f80f	0.02233508
70	0xbcdf9a1d	-0.027295167
71	0x3aec21db	0.0018015461
72	0x3dbf66bf	0.09345769
73	0xbddce326	-0.107855126
74	0x3d23bd3a	0.039975382
75	0xbba029ce	-0.004887796
76	0xbcc9783c	-0.024593465
77	0xbb2a7cd9	-0.0026014356
78	0xbd25699f	-0.04038393
79	0x3c26c802	0.0101795215
80	0x3d66e40f	0.056369837
81	0xbc8b7e11	-0.017027887
82	0xbbe8e58f	-0.0071074436
83	0x3c2411eb	0.010014038
84	0x3d31f897	0.043449964
85	0xbd41fda6	-0.04736104
86	0x3d07cc2d	0.0331537
87	0x3c9a59ee	0.01884171
88	0x3d89e1bd	0.06732509
89	0x3cf61cfa	0.030043114
90	0xbd57520f	-0.05256849
91	0xbd578a8b	-0.05262236
92	0xbc44e8d1	-0.012018398
93	0x3d1ec17e	0.038758747
94	0xbdbcb2cd	-0.09213791
95	0xbd124bac	-0.035716698
96	0xbc8333e5	-0.016015956
97	0xbdae11d0	-0.08499491
98	0x3d06bf5b	0.032897335
99	0xbce12df0	-0.027487725
100	0xbd7c7e49	-0.061643872
101	0xbdab7e48	-0.083736956
102	0xbd8c94f3	-0.06864347
103	0xbd63182d	-0.055442978
104	0x3d264dd0	0.04060155
105	0xbd93a2d2	-0.0720879
106	0xbc73a9db	-0.01487204
107	0x3dae6632	0.08515586
108	0x3d8b7bc5	0.068107165
109	0xbd1229a0	-0.035684228
110	0x3d061126	0.032731198
111	0x3da73e74	0.08166209
112	0x3c1fae88	0.009746201
113	0xbae41737	-0.0017401938
114	0xbd8ff652	-0.07029404
115	0x3c8acb87	0.016942753
116	0x3d1d3d31	0.038388435
117	0x3d005414	0.031330183
118	0xbd135118	-0.03596601
119	0xbd4595c9	-0.04823855
120	0x3c64ee31	0.013972805
121	0xbd5ea934	-0.054360583
122	0x3da288fc	0.07936284
123	0x3cf69cab	0.030104002
124	0xbcfd3931	-0.03091106
125	0x3d15e6e8	0.036597162
126	0xbcf48b2a	-0.029851515
127	0xbd67d269	-0.056597147
128	0x3cbe0dab	0.023199877
129	0xbd8f494b	-0.069964014
130	0x3c4b4c4f	0.01240833
131	0xbb0f105e	-0.0021829824
132	0x3d3aa2a7	0.045565274
133	0x3d027f46	0.03185966
134	0xbccb76da	-0.024836946
135	0x3de64d25	0.11245183
136	0xbd14b8d4	-0.03630908
137	0xbd19642d	-0.03744905
138	0xbd0f809e	-0.03503477
139	0xbdab028d	-0.08350096
140	0xbd917f94	-0.07104412
141	0x3c7e0e46	0.015506333
142	0x3b66d3a8	0.0035221372
143	0x3d8f6525	0.07001714
144	0x3bba0f11	0.0056780656
145	0x3d333c59	0.043758724
146	0xbcaeee53	-0.021353876
147	0x3cdd6772	0.027026866
148	0xbd6ca2a5	-0.057772297
149	0xbd69d71f	-0.05708992
150	0xbd22f1da	-0.03978143
151	0x3b52020c	0.0032044677
152	0x3c86c67d	0.016452068
153	0x3c8ac30a	0.016938705
154	0xbdaf753c	-0.085672826
155	0xbdbb0cff	-0.09133338
156	0xbd146d6f	-0.036237177
157	0xbc5a23df	-0.013314216
158	0x3bdefcaf	0.0068050246
159	0x3d8fe091	0.070252545
160	0xbc68cc7f	-0.014208912
161	0xbcbf2aa1	-0.023335757
162	0xbd11f3eb	-0.03563301
163	0x3d73c4ff	0.059514042
164	0x3dc2095b	0.09474441
165	0xbd161ce7	-0.036648657
166	0xbdb5bc9c	-0.08873865
167	0xbd508e62	-0.050917037
168	0xbbdb5ee0	-0.0066946596
169	0x3bf533e6	0.0074829934
170	0x3d7ab475	0.061207253
171	0xbd479d6e	-0.04873412
172	0x3d17ef66	0.037093543
173	0x3c5562e3	0.013024065
174	0xbd38afa9	-0.045089398
175	0xbd1cf83d	-0.038322676
176	0x3d064e6e	0.03278964
177	0x3cfda6f7	0.030963404
178	0x3c0e31a3	0.0086788265
179	0x3d35960e	0.044332556
180	0xbb19be56	-0.0023459396
181	0x3d16d4e1	0.03682411
182	0x3d17aaca	0.03702811
183	0x3cd501e8	0.026001886
184	0xbcaf7621	-0.021418633
185	0x3d013288	0.03154233
186	0xbdc9b470	-0.09848869
187	0xbb117812	-0.0022196812
188	0xbcd81861	-0.026378812
189	0x3cc3abd9	0.023885654
190	0x39478caf	0.00019030528
191	0xbd2a2468	-0.041538626
192	0x3cdeb968	0.027188018
193	0xbd9c68fc	-0.07637212
194	0xbd288fad	-0.041152645
195	0xbcdc1718	-0.02686648
196	0xbc009e25	-0.007850205
197	0x3a6ccc91	0.00090331683
198	0x3d1b8e9b	0.037977796
199	0x3cb7a385	0.02241684
200	0xbd45f7b6	-0.04833194
201	0xbd8ef7fd	-0.06980894
202	0x3cfa7642	0.030573968
203	0x3c8dadcd	0.017294789
204	0xbd4c0bb0	-0.049815834
205	0xba6a01d3	-0.00089266634
206	0x3d7db5e1	0.06194103
207	0x3d460cf8	0.04835221
208	0x3ccaab71	0.024739953
209	0xbd87e4a8	-0.066354096
210	0xbd88229b	-0.066472255
211	0xbd089455	-0.033344585
212	0x3d268b64	0.040660277
213	0x3c6562fe	0.014000652
214	0x3d34636c	0.04404013
215	0x3dae746f	0.08518302
216	0xbce84659	-0.028353857
217	0xbd860ac4	-0.06545022
218	0x3d924744	0.07142499
219	0x3cd25f33	0.02568016
220	0xbdaa5786	-0.08317475
221	0xbd476a3b	-0.048685294
222	0x3d0160fe	0.03158664
223	0xbd1b8c7b	-0.03797577
224	0x3cd87ca0	0.026426613
225	0xbd49416c	-0.049134657
226	0xbbfa952a	-0.0076471763
227	0x3aeccdb2	0.0018066673
228	0x3c8ee2df	0.017442165
229	0xbd25cc47	-0.040478017
230	0x3c871aab	0.016492208
231	0xbd4b5317	-0.049639788
232	0xbd9243f9	-0.07141871
233	0xbd8a2fb1	-0.06747378
234	0x3be310a9	0.0069294763
235	0x3d056ee0	0.03257644
236	0x3d3578d3	0.04430468
237	0xbd0bd7f2	-0.03414149
238	0xbd3d1a13	-0.046167444
239	0x3d411f58	0.047149032
240	0x3d29cf7d	0.041457642
241	0xbc996894	-0.018726625
242	0x3cbf05ae	0.023318138
243	0x3c37b08c	0.011211526
244	0x3c1b37fe	0.009473799
245	0x3c7c6415	0.015404721
246	0xbd36f5d8	-0.04466805
247	0xbd6b8dfe	-0.05750846
248	0xbd2b1897	-0.041771498
249	0x3c037a54	0.008024771
250	0x3c905967	0.017620755
251	0x3ba652ed	0.0050758035
252	0x3cf2f753	0.029658949
253	0xbce80d62	-0.028326694
254	0xbdaaecc9	-0.083459444
255	0xbd2bad65	-0.04191341

weight f4 [256]
0	0x3f854c88	1.041398
1	0x3f71633a	0.9429203
2	0x3f86d2a2	1.053303
3	0x3f8b4dfd	1.0883175
4	0x3f8d1db7	1.1024693
5	0x3f86e718	1.0539274
6	0x3f95307b	1.165542
7	0x3f67a244	0.9048197
8	0x3f814782	1.0099947
9	0x3f713132	0.9421569
10	0x3f884fd6	1.0649364
11	0x3f726305	0.9468234
12	0x3f6859d7	0.90762085
13	0x3f6a0d4f	0.9142656
14	0x3f5ac0a7	0.85450214
15	0x3f8176a4	1.0114331
16	0x3f719f4f	0.9438371
17	0x3f59b70b	0.85044926
18	0x3f7c6680	0.985939
19	0x3f85942d	1.0435845
20	0x3f7b74d5	0.98225147
21	0x3f82351e	1.017246
22	0x3f8a43c8	1.0801935
23	0x3f5e3075	0.8679269
24	0x3f890ae8	1.0706453
25	0x3f7ddb04	0.99162316
26	0x3f8111f1	1.00836
27	0x3f72d6ca	0.9485899
28	0x3f784aea	0.9698931
29	0x3f8142e5	1.009854
30	0x3f7f1d4b	0.9965407
31	0x3f92b9a0	1.1462898
32	0x3f795841	0.9740029
33	0x3f79c710	0.9756937
34	0x3f6c6a0c	0.92349315
35	0x3f5d7faa	0.86522925
36	0x3f649c4e	0.89301
37	0x3f78fa58	0.97256994
38	0x3f88ff17	1.0702847
39	0x3f85699f	1.0422858
40	0x3f58f354	0.8474629
41	0x3f64e102	0.89405835
42	0x3f95847f	1.168106
43	0x3f73a4a9	0.95173126
44	0x3f705358	0.9387717
45	0x3f77f4dd	0.96858007
46	0x3f75f73c	0.96080375
47	0x3f6b6127	0.9194512
48	0x3f7c5c18	0.98578024
49	0x3f67b24c	0.90506434
50	0x3f7b5c2a	0.98187506
51	0x3f69fbdb	0.91399926
52	0x3f6bc9f7	0.9210505
53	0x3f650e1c	0.89474654
54	0x3f749196	0.95534647
55	0x3f7848eb	0.96986264
56	0x3f753844	0.9578898
57	0x3f89fedc	1.0780902
58	0x3f87e47c	1.0616603
59	0x3f6d6a5f	0.92740434
60	0x3f76a49a	0.9634491
61	0x3f93f51e	1.1559179
62	0x3f82c07d	1.0214993
63	0x3f819f43	1.0126728
64	0x3f8b9dce	1.0907533
65	0x3f807934	1.0036988
66	0x3f802f7b	1.001449
67	0x3f5c7cc1	0.8612786
68	0x3f837df7	1.0272816
69	0x3f7cda81	0.9877091
70	0x3f90b46a	1.1305058
71	0x3f7d9dcb	0.990689
72	0x3f75a5ad	0.95955926
73	0x3f710e6f	0.9416265
74	0x3f75490b	0.9581458
75	0x3f83bbe4	1.0291715
76	0x3f88b003	1.0678715
77	0x3f8267f2	1.0187972
78	0x3f86ce62	1.0531733
79	0x3f7fdb21	0.9994374
80	0x3f878404	1.0587163
81	0x3f66f38f	0.9021539
82	0x3f78ed82	0.9723741
83	0x3f8c2a57	1.0950421
84	0x3f7b9f89	0.98290306
85	0x3f5c2283	0.8599016
86	0x3f85c736	1.0451419
87	0x3f63997e	0.88906085
88	0x3f8f3b1f	1.1189917
89	0x3f7519f8	0.9574275
90	0x3f6dc4c3	0.9287836
91	0x3f85426a	1.0410893
92	0x3f802962	1.0012629
93	0x3f6fc159	0.936544
94	0x3f589c4a	0.8461348
95	0x3f7da3a9	0.9907785
96	0x3f54dd1b	0.8314988
97	0x3f6fc4f9	0.9365993
98	0x3f8369c1	1.0266649
99	0x3f76c061	0.96387297
100	0x3f65183d	0.8949011
101	0x3f89f5f4	1.0778184
102	0x3f701e55	0.93796283
103	0x3f54a5bd	0.83065397
104	0x3f695c3a	0.9115635
105	0x3f72f5e0	0.94906425
106	0x3f96df34	1.1786866
107	0x3f92d63b	1.1471628
108	0x3f852934	1.0403199
109	0x3f84f6cf	1.038782
110	0x3f857aff	1.042816
111	0x3f9a8994	1.2073236
112	0x3f5e7302	0.8689424
113	0x3f6fdea0	0.93699074
114	0x3f6e9962	0.93202794
115	0x3f6cd51f	0.92512697
116	0x3f8092f9	1.0044852
117	0x3f7c0de5	0.984587
118	0x3f71aba7	0.94402546
119	0x3f5a0803	0.85168475
120	0x3f626142	0.88429654
121	0x3f9a996d	1.2078072
122	0x3f7cac0f	0.9870004
123	0x3f823f15	1.0175501
124	0x3f898240	1.0742874
125	0x3f802c16	1.0013454
126	0x3f70df52	0.9409076
127	0x3f85d8e7	1.0456818
128	0x3f848917	1.0354337
129	0x3f70d816	0.9407972
130	0x3f76dc42	0.96429837
131	0x3f7b3858	0.9813285
132	0x3f81539f	1.0103644
133	0x3f4b5af6	0.7943567
134	0x3f7ae03a	0.9799839
135	0x3f781798	0.96911
136	0x3f6d13a8	0.9260812
137	0x3f67db7f	0.905693
138	0x3f773531	0.9656554
139	0x3f6b2c69	0.9186464
140	0x3f6ca775	0.9244302
141	0x3f891565	1.0709654
142	0x3f8a8ec8	1.0824823
143	0x3f8447ef	1.0334452
144	0x3f83ac71	1.0287
145	0x3f8090da	1.0044205
146	0x3f848ea2	1.0356028
147	0x3f6e7056	0.9314016
148	0x3f9524f8	1.1651907
149	0x3f7376af	0.9510297
150	0x3f7c452c	0.9854305
151	0x3f5139f5	0.8172906
152	0x3f6b9aa7	0.92032856
153	0x3f575df0	0.8412771
154	0x3f89d777	1.076888
155	0x3f81dc64	1.0145383
156	0x3f81f0f5	1.0151659
157	0x3f789ddb	0.9711587
158	0x3f7de611	0.9917918
159	0x3f79952a	0.9749323
160	0x3f8ca53d	1.0987927
161	0x3f963f6a	1.1738102
162	0x3f827cbb	1.0194315
163	0x3f8a988a	1.0827801
164	0x3f8f2657	1.1183575
165	0x3f79e84e	0.97620094
166	0x3f88b34f	1.0679721
167	0x3f84d366	1.0377014
168	0x3f852e3a	1.0404732
169	0x3f6e3f9f	0.9306583
170	0x3f8bf34f	1.0933627
171	0x3f6698e1	0.90077025
172	0x3f7bc3e6	0.9834579
173	0x3f5ea811	0.869752
174	0x3f717d30	0.94331646
175	0x3f7031a4	0.93825746
176	0x3f5eb56c	0.8699558
177	0x3f928560	1.1446953
178	0x3f6b942c	0.9202297
179	0x3f757631	0.9588347
180	0x3f8052da	1.0025284
181	0x3f8ea082	1.1142733
182	0x3f886d65	1.0658385
183	0x3f7c5dd1	0.9858065
184	0x3f749453	0.95538825
185	0x3f6495bd	0.8929098
186	0x3f6d211b	0.9262864
187	0x3f7771f3	0.9665825
188	0x3f7950b4	0.9738877
189	0x3f810384	1.0079198
190	0x3f7ac821	0.9796162
191	0x3f7d78af	0.99012274
192	0x3f7ff32e	0.9998044
193	0x3f76c164	0.9638884
194	0x3f70fd7f	0.94136804
195	0x3f969d4d	1.1766754
196	0x3f7a0fe9	0.97680527
197	0x3f6c97a6	0.924189
198	0x3f78f758	0.97252417
199	0x3f621fc8	0.88329744
200	0x3f71f4ab	0.9451396
201	0x3f7a1ee4	0.97703385
202	0x3f8aa661	1.0832025
203	0x3f711019	0.9416519
204	0x3f806aef	1.0032634
205	0x3f84fbd3	1.0389351
206	0x3f7d55e0	0.9895916
207	0x3f977014	1.1831079
208	0x3f69ad03	0.9127962
209	0x3f577064	0.8415587
210	0x3f6f7a0d	0.9354561
211	0x3f75202e	0.9575223
212	0x3f8417ec	1.03198
213	0x3f9994b0	1.1998501
214	0x3f63390d	0.8875893
215	0x3f8583cb	1.0430845
216	0x3f5fcb0f	0.8741922
217	0x3f75d64b	0.9603011
218	0x3f776590	0.9663935
219	0x3f71a905	0.9439853
220	0x3f8732f8	1.056243
221	0x3f5905df	0.84774584
222	0x3f8433d6	1.0328319
223	0x3f60a4d0	0.87751484
224	0x3f71dfca	0.944821
225	0x3f74a046	0.9555706
226	0x3f666926	0.90004194
227	0x3f8aa8f3	1.0832809
228	0x3f6de2b2	0.92924035
229	0x3f6c5f91	0.9233332
230	0x3f836d5b	1.0267748
231	0x3f6eab9d	0.9323061
232	0x3f8e861b	1.1134676
233	0x3f6c078a	0.92199004
234	0x3f78cc57	0.971868
235	0x3f78737f	0.97051233
236	0x3f82941e	1.0201452
237	0x3f69b87d	0.9129713
238	0x3f7a29d8	0.977201
239	0x3f6efc02	0.93353283
240	0x3f78e9b4	0.972316
241	0x3f83c2e3	1.029385
242	0x3f840a5e	1.0315664
243	0x3f81c218	1.0137358
244	0x3f7556b5	0.9583543
245	0x3f8186a7	1.0119218
246	0x3f75ce9c	0.96018386
247	0x3f7aa8b9	0.979137
248	0x3f694bad	0.911311
249	0x3f6f3969	0.93446976
250	0x3f8d8e56	1.1059062
251	0x3f86971b	1.0514864
252	0x3f74ad84	0.95577264
253	0x3f70c53c	0.94050956
254	0x3f727fc9	0.94726235
255	0x3f5e9f38	0.869617

bias f4 [256]
0	0xbc707620	-0.014676601
1	0x3c3e3666	0.011609649
2	0x3cff6655	0.031176725
3	0xbd46adcc	-0.04850559
4	0x3cf177af	0.029476015
5	0xbd19dccc	-0.037564084
6	0xbc7e8e2c	-0.015536826
7	0x3da6477d	0.08119104
8	0x3c7e3c3f	0.0155172935
9	0x3d9833c9	0.07431752
10	0x3d0bfc23	0.034176003
11	0x3dab07c4	0.083510906
12	0x3db42552	0.08796181
13	0x3d9f0d16	0.07766168
14	0x3e1b8a17	0.15189396
15	0xbaaa49fd	-0.0012992021
16	0x3d5b1e0c	0.05349545
17	0x3dd7b5f6	0.10532753
18	0x3c3525f6	0.011056414
19	0x3d0d7456	0.034534775
20	0xbb6eb5c3	-0.0036424256
21	0x3d444879	0.047920678
22	0x3dceb478	0.100930154
23	0x3dfeb6ab	0.12437185
24	0xbca488cb	-0.02008476
25	0xbc5eb93d	-0.013593969
26	0x3bfb804a	0.0076752054
27	0x3cbaa0f4	0.022781827
28	0x3cbd7c03	0.023130422
29	0xbb5b0f14	-0.0033425735
30	0x3b80477e	0.0039147725
31	0xbc5cbf4a	-0.013473341
32	0xbc896cb5	-0.016775468
33	0x3cc16510	0.02360776
34	0x3d8e358d	0.06943808
35	0x3dd41757	0.10356014
36	0x3dd87994	0.10570064
37	0x3c8a70be	0.016899463
38	0x3c9cf324	0.019158907
39	0x3c6284ea	0.0138256345
40	0x3e0ed187	0.13947116
41	0x3dd798f5	0.10527221
42	0x3c41f5ea	0.011838416
43	0x3d332c3c	0.043743357
44	0x3da104ff	0.07862281
45	0x3cebf9cc	0.028805636
46	0x3ccef207	0.025261892
47	0x3d5793f9	0.052631352
48	0xbc5cc4de	-0.013474671
49	0x3dbf4df1	0.09341038
50	0xbbb5efde	-0.005552276
51	0x3d61baca	0.055109777
52	0x3d8b6c53	0.068077706
53	0x3db24fbb	0.08706614
54	0x3d4c671e	0.049903028
55	0x3bd314da	0.0064416947
56	0x3c949803	0.018138891
57	0xbc60e63d	-0.013726768
58	0xb99664c0	-0.00028685294
59	0x3d0e0313	0.0346709
60	0x3d076748	0.03305748
61	0x3c7cf244	0.01543862
62	0x3cffbad6	0.03121702
63	0xbb561044	-0.0032663504
64	0x3bc8cb4e	0.0061277514
65	0xbb92db03	-0.0044816746
66	0x3c83b5ae	0.016077843
67	0x3e2ea2eb	0.17054336
68	0x3c365351	0.011128263
69	0x3d890a81	0.066914566
70	0x3c9d01a0	0.019165814
71	0x3d97f7fc	0.07420346
72	0xbc1b8220	-0.009491473
73	0x3c70c9ef	0.014696582
74	0x3d190fe3	0.037368666
75	0x3cbb9008	0.022895828
76	0xbad5698d	-0.0016282067
77	0x38ff3759	0.00012169657
78	0xbb594049	-0.003314989
79	0x3b820409	0.003967766
80	0x3d565522	0.052327283
81	0x3dc88f33	0.09792938
82	0x3cd9349b	0.026514342
83	0xbbdfe2d1	-0.0068324585
84	0xbb3fef76	-0.0029287017
85	0x3e115529	0.14192642
86	0x3ce31fd6	0.027725141
87	0x3dd2a70f	0.1028577
88	0x3de309bb	0.1108584
89	0x3c189f98	0.009315394
90	0x3d87b3f9	0.06626124
91	0x3bf8da55	0.0075943866
92	0x3b93d6d0	0.0045116916
93	0x3c13a206	0.009010797
94	0x3e03a314	0.12855178
95	0x3c04306f	0.008068188
96	0x3e19a008	0.15002453
97	0x3d87b24f	0.066258065
98	0xbc4bce33	-0.012439298
99	0x3d212225	0.039339203
100	0x3dd58cd6	0.10427253
101	0x3cf84eae	0.030310955
102	0x3d8b4cd3	0.068017624
103	0x3e29eae9	0.16593517
104	0x3ddac214	0.10681549
105	0xbc27e32a	-0.010247031
106	0x3b70b68d	0.0036729902
107	0x3cdc54e6	0.026895951
108	0x3c9ff25b	0.019524744
109	0x3c459256	0.012058815
110	0xbc002d45	-0.007823293
111	0x3d400c5d	0.04688679
112	0x3dddf3d7	0.108375244
113	0x3d71db30	0.059046924
114	0x3d818a3a	0.06325193
115	0x3d8a8b9f	0.06764912
116	0x3b2b17d5	0.0026106734
117	0x3c881141	0.01660979
118	0x3d89c2e0	0.067266226
119	0x3d9d7f0a	0.076902464
120	0x3de08db1	0.109645255
121	0xbc30eb3b	-0.010798271
122	0xb89d7577	-7.508223e-05
123	0xbc84e68f	-0.01622322
124	0x3c1028fa	0.008798832
125	0x3c4e98b5	0.01260965
126	0x3c6c19b6	0.014410427
127	0x3b288660	0.002571486
128	0x3d6b8a19	0.057504747
129	0x3d770a10	0.06031233
130	0xbcfb7c72	-0.030698989
131	0xbc1f86ee	-0.00973676
132	0x3d1f076c	0.038825437
133	0x3e3245af	0.17409395
134	0xb8facab5	-0.00011958686
135	0x3da49355	0.08035914
136	0x3d8bdfcf	0.068297975
137	0x3db0c71c	0.08631727
138	0x3d056c26	0.03257384
139	0x3da002dd	0.07813046
140	0x3d5729a1	0.052529935
141	0xbcaa2c0f	-0.020772962
142	0xbcd07da3	-0.025450533
143	0x3c21cabb	0.009874995
144	0x3bf7fb1e	0.0075677773
145	0x3ca9421e	0.02066141
146	0xbb990622	-0.0046699205
147	0x3d82354e	0.06357823
148	0xbc9a35f5	-0.018824557
149	0x3cf8f5cd	0.030390644
150	0xbd18d7b1	-0.037315074
151	0x3e3546d0	0.17702794
152	0x3d4c05eb	0.04981033
153	0x3e001c45	0.12510784
154	0x3d2ecc50	0.042675316
155	0x3c4bb467	0.012433148
156	0xbb989df9	-0.0046575037
157	0xb99ebdd7	-0.0003027755
158	0x3ceff8ae	0.029293384
159	0xbc84fd4c	-0.016234063
160	0x3cac1de8	0.021010354
161	0xbb9524bf	-0.0045514996
162	0x3adf1103	0.001701862
163	0x3dbae761	0.09126163
164	0x3c3ad54c	0.011403393
165	0x3cd53b0d	0.026029134
166	0xbc6a7367	-0.014309741
167	0x3cc5490d	0.024082685
168	0x3c2722b5	0.010201146
169	0x3d6fd2bf	0.058550593
170	0x3bc1ac0c	0.005910402
171	0x3b0e4df5	0.0021713946
172	0x3c52637f	0.0128411045
173	0x3dbc11c7	0.09183078
174	0x3d4e5b6f	0.050380167
175	0x3d6d6add	0.05796324
176	0x3e09c0c6	0.13452443
177	0xbcd36055	-0.02580277
178	0x3ca3408f	0.019928245
179	0x3d35bc26	0.044368885
180	0x3c2a33b6	0.010388305
181	0x3d2cb5a3	0.04216541
182	0xbc5f605e	-0.013633816
183	0xbd0aa062	-0.03384436
184	0xbc0f1349	-0.008732625
185	0x3dbdc0f7	0.09265321
186	0x3d825954	0.06364694
187	0x3c8fdd82	0.017561678
188	0x3cafed66	0.021475505
189	0x3d59848a	0.053104915
190	0x3b231a0b	0.002488735
191	0x3ba21c2a	0.004947205
192	0x3b546ac0	0.003241226
193	0x3d160fb0	0.036636055
194	0x3d4a4800	0.04938507
195	0xbb9cf7db	-0.004790289
196	0x3d24bef6	0.040221177
197	0x3d8d37d1	0.06895412
198	0x3cd63293	0.026147163
199	0x3ddafdc5	0.10692934
200	0x3d4fd64a	0.05074147
201	0x3c93c303	0.018037325
202	0xbc952ef4	-0.018210866
203	0x3d28c966	0.041207694
204	0xbc38068f	-0.011232032
205	0xbc16acd5	-0.00919648
206	0x3bf54898	0.0074854605
207	0xbc1eac54	-0.009684641
208	0x3da87895	0.08226124
209	0x3e0ccc4c	0.13749808
210	0x3d91a05e	0.07110666
211	0x3d31c12c	0.043397114
212	0xbbd454d2	-0.006479838
213	0xbd1cb95f	-0.03826272
214	0x3d653213	0.055955958
215	0x3cd5b5a9	0.026087599
216	0x3df1acb2	0.11800517
217	0x3d211809	0.039329562
218	0x3d87a594	0.066233784
219	0x3d554eda	0.05207715
220	0x3c8222bc	0.015885703
221	0x3e00f7ec	0.12594575
222	0xbc1daa34	-0.009623099
223	0x3dec0468	0.11524278
224	0x3d473199	0.048631284
225	0x3d120592	0.035649844
226	0x3dcf5a4c	0.10124645
227	0xbbbcb87e	-0.005759298
228	0x3d99226a	0.07477267
229	0x3b96ac42	0.0045981715
230	0xbcc0646e	-0.023485389
231	0x3d2ac2b1	0.04168958
232	0x3e1af43c	0.1513223
233	0x3da180c0	0.07885885
234	0x3d5203fd	0.051273335
235	0x3d7a05db	0.06104074
236	0x3e03c8f9	0.12869634
237	0x3c70c94f	0.014696433
238	0x3cdc1009	0.026863115
239	0x3cfad5e2	0.030619565
240	0x3ca03ff7	0.01956175
241	0xbc8a04dc	-0.01684802
242	0x3ce03cad	0.027372682
243	0xbc55a5cb	-0.013040016
244	0x3d2123b6	0.039340697
245	0xbc6be5b4	-0.014398027
246	0x3d07bd0a	0.033139266
247	0x3de3c828	0.11122161
248	0x3daaa827	0.08332854
249	0x3d7a84f9	0.06116197
250	0xbc8c4fde	-0.017127927
251	0xbbbc6732	-0.0057496065
252	0x3d1699d7	0.036767807
253	0x3d43b758	0.047782272
254	0x3d42e1f7	0.047578778
255	0x3dff438c	0.124640554

weight f4 [256, 256]
0	0x3d8cff1e	0.06884597
1	0x3d0fa7b0	0.03507203
2	0x3dd67cd6	0.10473029
3	0x3dc0ab84	0.09407714
4	0x3d988d48	0.07448822
5	0x3d7d2f8e	0.06181293
6	0x3d6df454	0.058094338
7	0xbd4804e0	-0.048832774
8	0xbac23aa1	-0.0014818498
9	0xbda7c162	-0.08191182
10	0x3de92042	0.11383106
11	0xbc9dd19c	-0.019264989
12	0xbc912b76	-0.01772092
13	0xbcd79479	-0.026315914
14	0x3cb82260	0.022477329
15	0xbbc51b64	-0.006015228
16	0x3d70224c	0.058626458
17	0xbd048ea9	-0.032362614
18	0xbced5231	-0.028969856
19	0xbd55d00d	-0.052200366
20	0xbd68398e	-0.056695513
21	0x3b7b785d	0.0038371303
22	0xbe644bfb	-0.22294609
23	0x3ce88913	0.028385675
24	0x3e66f695	0.22555001
25	0xbd370c8b	-0.044689696
26	0x3c27cdc0	0.010241926
27	0xbc41a69a	-0.011819506
28	0x3d55855d	0.05212914
29	0x3c451cf4	0.012030829
30	0xbd00d7f3	-0.031455945
31	0x3d5fe50f	0.054661807
32	0xbcda8ce1	-0.026678504
33	0x3d95c4e7	0.07312947
34	0xbd4db5bb	-0.05022214
35	0x3d323e0a	0.043516196
36	0xbc2ad351	-0.010426358
37	0x3defbb8f	0.11705696
38	0x3c707d32	0.014678286
39	0x3bc8ef9b	0.006132079
40	0xbd42c01a	-0.047546484
41	0x3d2f4052	0.04278595
42	0x3e475e09	0.19469465
43	0x3bc356cb	0.0059612743
44	0x3dad35c5	0.08457521
45	0x3d316594	0.043309763
46	0xbd875334	-0.066076666
47	0xbcc35179	-0.02384256
48	0xbdab9adf	-0.08379149
49	0xbd43f1b0	-0.047837913
50	0x3e13d374	0.14436132
51	0x3d35a7b6	0.044349395
52	0xbd1b24be	-0.037876837
53	0xbb579e7e	-0.0032900865
54	0xbca491a7	-0.020088984
55	0xbe04e87e	-0.12979314
56	0x3d3a7cbb	0.04552911
57	0x3dcd6bec	0.1003035
58	0x3df03017	0.117279224
59	0x3c86d2ba	0.016457904
60	0xbb64f750	-0.0034937449
61	0xbd493b3d	-0.04912876
62	0x3c3b2816	0.011423131
63	0xbd60221b	-0.054720026
64	0x3e2263fe	0.15858456
65	0xbd26ccab	-0.04072253
66	0x3d81afb9	0.063323446
67	0xbce867b2	-0.028369758
68	0xbd6bee8a	-0.057600535
69	0xbd385db8	-0.045011252
70	0x3c78d4c3	0.015187445
71	0x3e205bc4	0.15660006
72	0xbe2936aa	-0.16524759
73	0xbe12ea59	-0.14347209
74	0x3c89c7df	0.016818939
75	0xbde7b7a0	-0.113143206
76	0x3daeec7b	0.08541199
77	0x3d80aafb	0.06282612
78	0xbd8c4899	-0.068497844
79	0x3db916fa	0.090375856
80	0x3d8e49e4	0.06947687
81	0x3997d6f5	0.0002896112
82	0x3d136ab0	0.035990417
83	0x3e000a12	0.12503842
84	0xbccdd4fe	-0.025125977
85	0xbb693dc9	-0.0035589805
86	0x3e23cb48	0.15995514
87	0xbd9f852a	-0.07789071
88	0xbeabbee1	-0.33544067
89	0xbd52f86c	-0.051506445
90	0x3b97579e	0.004618599
91	0x3d4a25c4	0.049352422
92	0x3c993571	0.01870224
93	0x3d016f95	0.031600554
94	0x3ca59847	0.020214213
95	0x3defafb2	0.11703433
96	0xbd291fe0	-0.041290164
97	0x3c6dff17	0.01452615
98	0x3da86cf1	0.08223904
99	0xbb413f2d	-0.0029487119
100	0xbd66888f	-0.056282576
101	0xbc82b786	-0.015956651
102	0xbce9716b	-0.028496465
103	0x3c32eec1	0.010921181
104	0xbd67bc81	-0.056576256
105	0x3d907a7c	0.07054612
106	0xbe24d957	-0.16098534
107	0xbd29fdc9	-0.041501794
108	0xbd3d6c68	-0.046245962
109	0xbde34b68	-0.11098367
110	0xbd4e0cf8	-0.050305337
111	0xbe5cf438	-0.21577537
112	0x3ca906b7	0.020633085
113	0x3bce11ad	0.006288728
114	0xbccba8e6	-0.02486081
115	0xbd6da83e	-0.058021776
116	0xbc362c36	-0.011118939
117	0xbd5f66fa	-0.054541565
118	0xbd1b4891	-0.037911
119	0x3d9f1a1a	0.0776865
120	0x3c0ccb2a	0.00859336
121	0x3e5c78e2	0.21530488
122	0xbd81220d	-0.06305323
123	0xbdca795d	-0.098864295
124	0xbdd5e6ae	-0.10444389
125	0x3d765953	0.06014378
126	0x3d27b8ce	0.040947728
127	0xbcfc2903	-0.030781275
128	0xbdc09c1d	-0.09404776
129	0x3c9f8071	0.019470425
130	0x3d346e9d	0.0440508
131	0xbdba9332	-0.091101065
132	0xbdb62e47	-0.088955455
133	0xbc9619f1	-0.018322917
134	0xbda3cc00	-0.07997894
135	0x3b6e9ffe	0.003641128
136	0x3d8eae9b	0.06966897
137	0x3cc5ad80	0.024130583
138	0x3d00bb0d	0.031428386
139	0xbcc91a0a	-0.02454855
140	0x3c844315	0.016145268
141	0x3d9a6de4	0.07540491
142	0x3dafea28	0.08589584
143	0x3dcf3cfd	0.101190545
144	0x3d36ca73	0.044626664
145	0xbd6a80e3	-0.057251822
146	0x3d958156	0.073000595
147	0xbd68d3b3	-0.056842517
148	0x3cb9e30e	0.022691276
149	0xbccf1b25	-0.025281498
150	0x3dbc2607	0.09186941
151	0x3cbf66ce	0.02336445
152	0xbd0326ba	-0.032019354
153	0xbba2568a	-0.004954164
154	0xbda74bc1	-0.08168746
155	0xbc999824	-0.018749304
156	0xbcd02e7f	-0.025412796
157	0xbe82c8c5	-0.255438
158	0xbd9f3375	-0.077734865
159	0xbe14e1ed	-0.14539309
160	0xbd1ac587	-0.037786033
161	0x3d9e4d51	0.07729591
162	0xbdbb23fd	-0.091377236
163	0x3ca7ca1a	0.020482112
164	0xbd155bbe	-0.036464445
165	0x3d9f5906	0.07780652
166	0x3d7ee64f	0.06223136
167	0x3c7773e3	0.015103313
168	0xbdd65390	-0.10465157
169	0x3d5e7d31	0.05431861
170	0x3d9653b8	0.07340187
171	0x3d07aa0b	0.03312115
172	0xbd64f2b4	-0.055895522
173	0xbcd5252a	-0.026018698
174	0x3cc31b08	0.0238166
175	0x3d365c45	0.04452159
176	0xbd11cb4b	-0.035594266
177	0x3e3d7ce0	0.18504667
178	0x3cecb604	0.028895386
179	0xbd2da60d	-0.042394686
180	0x3d8bd1a0	0.06827092
181	0xbe027195	-0.1273864
182	0x3d278fe5	0.040908713
183	0x3d57e9b6	0.05271312
184	0x3d607ad1	0.054804627
185	0xbd30be00	-0.043149948
186	0x3d19a93e	0.037514918
187	0xbd8a8824	-0.06764248
188	0xbcd44082	-0.025909666
189	0xbdba50ec	-0.09097466
190	0xbbf966d6	-0.007611136
191	0x3de3610a	0.11102493
192	0xbdc67c73	-0.096917056
193	0xbc3f198d	-0.011663807
194	0x3d53e646	0.051733278
195	0x3e98b993	0.29829082
196	0x3ae0fa8c	0.0017164513
197	0xbd6f13c6	-0.058368467
198	0xbdaff8ee	-0.085924014
199	0x3d77e3a0	0.060519814
200	0xbcf4169b	-0.029795935
201	0xbd46d41c	-0.048542127
202	0xbe03f14a	-0.12885013
203	0xbccd2b50	-0.025045067
204	0x3d45e0f9	0.048310254
205	0x3d7ed369	0.062213335
206	0x3c294b53	0.0103329
207	0x3e375f35	0.17907412
208	0xbc8b82a5	-0.01703007
209	0xbd020977	-0.031747308
210	0x3cfe1fc7	0.031021012
211	0xbc4be1a7	-0.012443936
212	0xbcc2c788	-0.023776785
213	0xbdb82407	-0.08991247
214	0x3c58a460	0.013222784
215	0xbc0b76d9	-0.008512222
216	0x3bedd683	0.007258238
217	0x3d0ad0ec	0.03389065
218	0x3cffd843	0.031231051
219	0xbcfffb2f	-0.031247703
220	0xbe368ec4	-0.17827898
221	0x3d8308ec	0.06398186
222	0xbe300f39	-0.17193307
223	0x3d5a6601	0.053319935
224	0xbc0d3e11	-0.008620755
225	0xbc4b9497	-0.012425563
226	0xbd049bba	-0.032375075
227	0x3d331338	0.0437195
228	0xbd22b1f5	-0.039720494
229	0xbd782624	-0.06058325
230	0xbd0e7ae3	-0.034785163
231	0x3da66f2a	0.081266716
232	0xbd85e822	-0.065384164
233	0xbd339f85	-0.0438533
234	0x3ad463b9	0.0016204036
235	0x3d3becbd	0.045880068
236	0x3dd20304	0.102544814
237	0xbce23ca1	-0.0276168
238	0x3d7e6c2e	0.062114887
239	0xbe25748e	-0.16157743
240	0xbd4547c9	-0.048164163
241	0x3b6d2ad4	0.0036188858
242	0xbd7907f6	-0.060798608
243	0x3d95297e	0.07283305
244	0x3d8131f4	0.06308356
245	0xbd9de161	-0.07709003
246	0x3cf9da69	0.030499654
247	0x3d93c288	0.07214838
248	0x3d583ae2	0.05279053
249	0xbd660f4a	-0.056166925
250	0xbabebec9	-0.0014552708
251	0x3dccf1f8	0.100070894
252	0xbd1f854b	-0.038945477
253	0xb9ea6d35	-0.00044713324
254	0x3da3a10f	0.07989704
255	0x3917fc0d	0.00014494378

bias f4 [256]
0	0xbd6ba9d0	-0.057534993
1	0x3ded2809	0.11579902
2	0xbd94ec10	-0.07271588
3	0x3d5b87ac	0.053596184
4	0x3d29d642	0.041464098
5	0xbdbd301f	-0.09237694
6	0xbd9b4727	-0.075819306
7	0x3d39310f	0.0452128
8	0x3c198a6d	0.009371382
9	0xbd878e7c	-0.066189736
10	0xbbab3000	-0.005224228
11	0xbc75b8fa	-0.014997715
12	0xbd99de0e	-0.07513057
13	0x3d7a4c89	0.061108146
14	0x3c7c5e58	0.015403353
15	0x3bf3d12e	0.0074407076
16	0xbd4c48ca	-0.049874105
17	0xbc7d933d	-0.015476999
18	0xbd734221	-0.059389237
19	0xbc969621	-0.018382134
20	0xbda248f4	-0.07924071
21	0x3d5495c7	0.05190065
22	0xbda59e1d	-0.08086798
23	0xbd04ccec	-0.03242199
24	0xbd834e82	-0.064114586
25	0xbce08f0f	-0.027411966
26	0xbd3fa8d8	-0.04679188
27	0xbd03c033	-0.032165717
28	0xbd641345	-0.05568244
29	0xbd09e23e	-0.033663027
30	0xbd6ba168	-0.057526976
31	0xbd3e1884	-0.0464101
32	0xbd045345	-0.032305975
33	0xbce62fc4	-0.028098948
34	0xbda82300	-0.08209801
35	0xbc549f71	-0.012977467
36	0xbdcba04b	-0.09942683
37	0xbd9473dd	-0.07248662
38	0x3cfb9583	0.030710941
39	0xbcca893c	-0.024723642
40	0xbdb1e6ef	-0.08686625
41	0xbdb87437	-0.09006541
42	0xbd5f845f	-0.0545696
43	0x3d7b9c96	0.06142863
44	0xbcf96b96	-0.030446809
45	0x3d146c17	0.036235895
46	0x3de4264d	0.11140118
47	0x3d198a4b	0.037485402
48	0x3d1cd08f	0.038284834
49	0x3e127788	0.1430341
50	0x3d21a6cd	0.039465714
51	0xbcf8b87f	-0.030361412
52	0xbd82a678	-0.06379408
53	0xbd34e5a1	-0.044164304
54	0x3dbe8e5e	0.09304498
55	0xbdbdd12f	-0.09268414
56	0x3d0e5738	0.034751147
57	0xbd9c7cb1	-0.076409705
58	0x3c9d2527	0.019182755
59	0xbc51eb20	-0.012812406
60	0x3cd311b0	0.02576527
61	0x3d1854b5	0.037190158
62	0xbcb0598a	-0.02152707
63	0x3be05974	0.006846601
64	0xbd03cbb6	-0.032176696
65	0xbdc67601	-0.09690476
66	0x3d2c6eed	0.042097975
67	0xbdc0c21c	-0.094120234
68	0xbd9aef0d	-0.075651266
69	0x3cbd4baf	0.023107378
70	0xbca0e4f7	-0.019640429
71	0xbd49b06e	-0.049240522
72	0x3c126b54	0.008936722
73	0xbbfad2ec	-0.0076545384
74	0x3d2934ac	0.041309997
75	0x3d605e94	0.054777697
76	0x3d3c25f5	0.045934636
77	0x3d034698	0.032049745
78	0xbd2348fc	-0.039864525
79	0xbd708371	-0.058719102
80	0x3cbb481d	0.022861535
81	0xbda541a8	-0.080691636
82	0x3c4ff6f9	0.01269316
83	0xbd4de7a6	-0.050269745
84	0xbd5e5c79	-0.054287408
85	0x3cc82013	0.024429357
86	0xbdac78e8	-0.084214985
87	0x3bb53445	0.0055299127
88	0xbd159115	-0.036515314
89	0x3d03e0fd	0.032196987
90	0x3c2dd879	0.010610693
91	0x3c4af0ea	0.01238654
92	0xbc9f935a	-0.019479442
93	0xbd0d8e5a	-0.034559585
94	0xbda01e30	-0.07818258
95	0x3c3da773	0.011575568
96	0x3d33e74c	0.043921754
97	0xbd70b1d3	-0.058763336
98	0x3bd17a31	0.00639274
99	0xbd190265	-0.0373558
100	0x3d098ac8	0.033579618
101	0xbd018687	-0.031622436
102	0xbd72c1aa	-0.059266724
103	0xbd99f171	-0.075167544
104	0x3d2cb3e1	0.042163733
105	0xbccda808	-0.025104538
106	0x3c9ab607	0.018885626
107	0xb99152f9	-0.00027718375
108	0xbd569998	-0.052392572
109	0x3d98fa81	0.07469655
110	0xbcc0806b	-0.023498734
111	0xbb4fc329	-0.0031702018
112	0x3d54ca91	0.051950995
113	0xbd18e37c	-0.03732632
114	0xbd9f3a64	-0.07774809
115	0xbda7e2bc	-0.08197543
116	0x3cd83373	0.02639172
117	0x3b9332f3	0.0044921576
118	0xbd49a6eb	-0.04923145
119	0x3c928aed	0.01788851
120	0x3b41fba1	0.0029599445
121	0xbd0a6c05	-0.03379442
122	0xbccc053e	-0.024904843
123	0xbd816bc1	-0.063193806
124	0x3c68a40d	0.014199269
125	0x3d75edd3	0.06004126
126	0x3df12016	0.11773698
127	0xbd887127	-0.06662207
128	0xbc38321b	-0.011242415
129	0x3d0bb857	0.034111347
130	0xbd52af6a	-0.05143682
131	0xbd219f02	-0.039458282
132	0x3be7ef17	0.0070780623
133	0x3d34b636	0.044119082
134	0xbcbc32b5	-0.022973398
135	0x3de6187d	0.112351395
136	0xbdbe17dd	-0.09281895
137	0xbd6227d2	-0.055213757
138	0x3d94e2a4	0.07269791
139	0xbcc1ed1f	-0.023672638
140	0xbd95f71d	-0.07322524
141	0xbbf12503	-0.0073591485
142	0x3c100854	0.008791048
143	0xbbead164	-0.0071660746
144	0x3c90b0d7	0.017662449
145	0xbceba38f	-0.028764514
146	0xbc860185	-0.016358146
147	0xbd78ccf9	-0.060742352
148	0xbd95c230	-0.07312429
149	0x3da69076	0.081330225
150	0xbd85cb21	-0.065328844
151	0x3d45ef59	0.048323963
152	0x3d4eb810	0.050468504
153	0xbcdb3fb7	-0.02676378
154	0xbd6468d7	-0.055764046
155	0x3c5bb990	0.013410941
156	0xbd08716a	-0.033311285
157	0x3c3ee0f1	0.01165031
158	0xbdb38778	-0.08766073
159	0xbcec378f	-0.028835086
160	0xbca7a410	-0.020463973
161	0xbd9926aa	-0.07478078
162	0xbd59c7c5	-0.05316903
163	0xbd29bfd8	-0.041442722
164	0xbd8ff38f	-0.07028877
165	0x3d99ff8f	0.07519447
166	0xbc053578	-0.008130424
167	0xbc00e258	-0.007866465
168	0x3d60ab1b	0.05485068
169	0x3d228e7e	0.039686672
170	0xbd854139	-0.06506581
171	0xbdc65d08	-0.09685713
172	0xbcaf09e0	-0.021367013
173	0xbd0f0fa4	-0.034927025
174	0xbd7ed12f	-0.06221121
175	0xbd4a9508	-0.049458534
176	0x3c64e261	0.013969989
177	0x3a872038	0.0010309285
178	0x3dd0d67c	0.1019716
179	0x3d56e57e	0.052464955
180	0xbd22cdb3	-0.03974695
181	0x3ca1b057	0.019737406
182	0xbc362e25	-0.0111194
183	0x3d3a44d1	0.045475785
184	0xbd9c122c	-0.076206535
185	0x3c1b46d1	0.009477333
186	0xbcebe597	-0.028796
187	0xbb9d80b2	-0.0048066014
188	0xbda4f1f2	-0.0805396
189	0x3db8ad9d	0.09017489
190	0xbcf57c5d	-0.029966528
191	0xbd598676	-0.053106748
192	0xbd9eb1ff	-0.07748794
193	0x3c284067	0.010269261
194	0x3cdfae38	0.027304754
195	0xbca18427	-0.019716335
196	0x3d6926dc	0.056921825
197	0x3c6e2f2e	0.014537616
198	0x3d9c37dd	0.076278426
199	0x3d1402e5	0.036135573
200	0x3d6ca4b2	0.057774253
201	0x3d4313c3	0.047626268
202	0xbdd11482	-0.1020899
203	0xbd2942e5	-0.04132356
204	0xbc3a97a8	-0.011388697
205	0xbdcf09b3	-0.10109272
206	0xbd4f6df4	-0.05064197
207	0x3d28bf10	0.041197836
208	0x3d3df076	0.0463719
209	0x3d00fa2e	0.03148859
210	0x3b00f880	0.0019679368
211	0x3c083209	0.008312711
212	0x3c36f7b3	0.0111674545
213	0xbcafe541	-0.021471621
214	0x3d1eb5a4	0.038747445
215	0xbc9de271	-0.019273015
216	0x3d2ffe59	0.042967174
217	0xbdcb74ec	-0.099344105
218	0xbd3a6be1	-0.045513038
219	0x3d974e8f	0.07388031
220	0xbcf4d2e3	-0.029885715
221	0x3cbd3a44	0.023099072
222	0xbd6ac9ba	-0.057321288
223	0xbd280056	-0.041015945
224	0x3d9e732c	0.07736811
225	0xbd12798e	-0.035760455
226	0x3d95463b	0.07288786
227	0x3bccf796	0.0062551005
228	0x3d044101	0.032288555
229	0xbd2ec582	-0.042668827
230	0xbd42f79b	-0.047599416
231	0x3d614e95	0.055006582
232	0x3c6fb29f	0.014629989
233	0xbd9c9e92	-0.076474324
234	0xbd46afda	-0.04850755
235	0x3cdbf33a	0.026849378
236	0x3e0465d0	0.12929463
237	0xbda71443	-0.081581615
238	0xbcf9cb7c	-0.030492537
239	0xbd26eadc	-0.040751323
240	0x3daef6f3	0.085431956
241	0x3cc201bb	0.023682466
242	0xbda84e9d	-0.08218119
243	0xbd265986	-0.04061272
244	0xbc82fc0b	-0.015989324
245	0xbd5df7f2	-0.054191537
246	0xbc385a14	-0.011251945
247	0x3c03cb73	0.008044112
248	0x3d6898c4	0.056786314
249	0xbd86524b	-0.06558665
250	0xbda40b98	-0.08010024
251	0x3c50d45b	0.012745942
252	0x3d21eb8f	0.039531287
253	0x3cff7df4	0.031187989
254	0x3cbf7c16	0.023374598
255	0x3d9b5468	0.075844586

weight f4 [256]
0	0x3f951348	1.1646509
1	0x3f8b25cd	1.0870911
2	0x3f9bd71e	1.2175024
3	0x3f8d7bb5	1.1053377
4	0x3f8c3ddb	1.0956377
5	0x3f89da61	1.0769769
6	0x3f8edd34	1.1161256
7	0x3f8f53c5	1.119744
8	0x3f8d3155	1.103068
9	0x3f8e2821	1.1105996
10	0x3f8b5f5d	1.0888478
11	0x3f89be0f	1.0761126
12	0x3f8f6fb4	1.1205964
13	0x3f9712bf	1.1802596
14	0x3f942c47	1.1576012
15	0x3f8ea25e	1.11433
16	0x3f8ee6ad	1.1164147
17	0x3f96bdf4	1.1776719
18	0x3f8cdf18	1.1005583
19	0x3f933c6a	1.1502812
20	0x3f8e78d7	1.1130627
21	0x3f8ee617	1.1163968
22	0x3f8e6c2f	1.1126765
23	0x3f8ee464	1.1163449
24	0x3f98d6c2	1.1940539
25	0x3f8e0a9c	1.1096988
26	0x3f8f4f3d	1.1196057
27	0x3f8a5b3a	1.080909
28	0x3f8ee8d2	1.1164801
29	0x3f8e7eb9	1.1132423
30	0x3f8e570b	1.1120313
31	0x3f8c5f7e	1.0966642
32	0x3f8a22d1	1.0791875
33	0x3f8f161c	1.1178622
34	0x3f8b366b	1.0875982
35	0x3f8dc0c9	1.1074458
36	0x3f8db9d0	1.107233
37	0x3f8c46aa	1.0959065
38	0x3f8be166	1.0928161
39	0x3f8ef61e	1.1168859
40	0x3f8ef601	1.1168824
41	0x3f8e7c16	1.1131618
42	0x3f8eb62e	1.1149347
43	0x3f9b5993	1.2136711
44	0x3f8cc9a5	1.0999037
45	0x3f8f587a	1.1198876
46	0x3f8c1a37	1.09455
47	0x3f995056	1.1977642
48	0x3f90d802	1.131592
49	0x3f8c9ba6	1.0985
50	0x3f960bac	1.1722312
51	0x3f91298d	1.1340805
52	0x3f8d013b	1.1016
53	0x3f8e57a2	1.1120493
54	0x3f8b2283	1.0869907
55	0x3f8f9242	1.1216509
56	0x3f97965d	1.1842762
57	0x3f8ee4b4	1.1163545
58	0x3f926634	1.143744
59	0x3f8e3a0e	1.1111467
60	0x3f8ddc19	1.1082793
61	0x3f8e8567	1.1134461
62	0x3f8ed100	1.1157532
63	0x3f8f905b	1.1215929
64	0x3f8ea2cb	1.114343
65	0x3f8f2bdf	1.1185263
66	0x3f8c9507	1.098298
67	0x3f8f2975	1.1184527
68	0x3f97b453	1.1851906
69	0x3f8c2c9a	1.0951111
70	0x3f8f2516	1.1183193
71	0x3f8f53ac	1.119741
72	0x3f8f85b0	1.1212673
73	0x3f93b87c	1.1540675
74	0x3f8eb214	1.1148095
75	0x3f8fbc27	1.1229295
76	0x3f8edf7a	1.116195
77	0x3f9517c3	1.1647877
78	0x3f8f4e03	1.1195682
79	0x3f8e9e43	1.1142048
80	0x3f8ea595	1.1144282
81	0x3f8ea64a	1.1144497
82	0x3f920941	1.1409074
83	0x3f900de4	1.1254239
84	0x3f8f4595	1.119311
85	0x3f8c0bb9	1.0941077
86	0x3f8e680c	1.1125503
87	0x3f9c1cb3	1.2196258
88	0x3f8f4a96	1.1194637
89	0x3f8bdbab	1.0926412
90	0x3f98c8ab	1.1936239
91	0x3f8e5b09	1.1121532
92	0x3f8f61c5	1.1201712
93	0x3f946f30	1.1596432
94	0x3f8e7c95	1.113177
95	0x3f8f3a1f	1.1189612
96	0x3f8f3564	1.1188169
97	0x3f8dd80a	1.1081555
98	0x3f954cea	1.1664097
99	0x3fa0a316	1.254977
100	0x3fa0821e	1.2539709
101	0x3f936840	1.151619
102	0x3f8e574d	1.1120392
103	0x3f8f6711	1.1203328
104	0x3fa1b5e4	1.2633634
105	0x3f93cdd0	1.1547184
106	0x3f90743d	1.1285473
107	0x3f8f8eab	1.1215414
108	0x3f896bea	1.0736058
109	0x3f907545	1.1285788
110	0x3f8ed010	1.1157246
111	0x3f8a8e8d	1.0824753
112	0x3f8fabac	1.1224265
113	0x3f8ef9e9	1.1170017
114	0x3f8c757c	1.0973353
115	0x3f8eaf18	1.1147184
116	0x3f9889e4	1.1917081
117	0x3f8a9c8e	1.0829027
118	0x3f8efd7f	1.1171111
119	0x3f937c72	1.1522353
120	0x3f92bdc5	1.1464163
121	0x3f932cd8	1.149806
122	0x3f8f09fc	1.1174922
123	0x3f8eabd2	1.1146185
124	0x3f8d9391	1.1060659
125	0x3f8bad8d	1.0912338
126	0x3f8e3107	1.1108712
127	0x3f8eda91	1.1160451
128	0x3f8eb9a6	1.1150405
129	0x3faee943	1.3664936
130	0x3f9c5623	1.2213787
131	0x3f8e35d9	1.1110183
132	0x3f8f222a	1.1182301
133	0x3f8eb6f9	1.1149589
134	0x3f8bcadf	1.0921286
135	0x3f88d6c0	1.0690536
136	0x3f8ef2ab	1.1167806
137	0x3f8e58a6	1.1120803
138	0x3f8d5bcb	1.1043638
139	0x3f8e248b	1.1104902
140	0x3f8dd798	1.1081419
141	0x3f8c28a8	1.0949907
142	0x3f8eb831	1.1149961
143	0x3f8ed850	1.1159763
144	0x3f8ef085	1.1167151
145	0x3f8ed87e	1.1159818
146	0x3f8e7ed2	1.1132452
147	0x3f8ff098	1.1245298
148	0x3f8ea560	1.1144218
149	0x3f8c2ab6	1.0950534
150	0x3f8cfc3f	1.1014479
151	0x3f8d4ce6	1.1039093
152	0x3f8a0de3	1.0785488
153	0x3f8eeacb	1.1165403
154	0x3f8f6e43	1.1205524
155	0x3f8e7739	1.1130134
156	0x3f947b68	1.1600161
157	0x3f8f4caa	1.1195271
158	0x3f8d1b10	1.1023884
159	0x3f8d55ff	1.1041869
160	0x3f8f06a7	1.1173905
161	0x3f870eee	1.0551431
162	0x3f90ae4b	1.130319
163	0x3f8ec22d	1.1153008
164	0x3f8ed90e	1.115999
165	0x3f8c7348	1.0972681
166	0x3f8f5e2b	1.1200613
167	0x3f904004	1.1269536
168	0x3f8b5158	1.0884199
169	0x3f917bfa	1.136596
170	0x3f8f3d2e	1.1190546
171	0x3f8e7a51	1.1131078
172	0x3f8cf2f8	1.1011648
173	0x3f8d84fc	1.1056209
174	0x3f8e50f5	1.1118456
175	0x3f8ec7e6	1.1154754
176	0x3f8d6544	1.1046529
177	0x3f8cc225	1.0996748
178	0x3f8b448a	1.0880291
179	0x3f8c3262	1.0952876
180	0x3f92e1ed	1.1475197
181	0x3f8d20e2	1.102566
182	0x3f8b6ddd	1.0892903
183	0x3f8d3e62	1.1034663
184	0x3f8ed896	1.1159847
185	0x3f915035	1.1352602
186	0x3f9471b5	1.1597201
187	0x3f8b679e	1.0890996
188	0x3f8e3fcd	1.111322
189	0x3f8b9696	1.090533
190	0x3f8bfb92	1.0936148
191	0x3f8f5ae2	1.119961
192	0x3f8e89aa	1.1135762
193	0x3f8d9b69	1.1063052
194	0x3f8f1f2a	1.1181386
195	0x3f8ecbcb	1.1155943
196	0x3f98217d	1.188522
197	0x3f95d0c5	1.1704336
198	0x3f9356d2	1.151087
199	0x3f8fb5ad	1.1227318
200	0x3f8b855c	1.0900073
201	0x3f909cec	1.1297889
202	0x3f8f47ab	1.1193746
203	0x3f8ce4e2	1.100735
204	0x3f8bb41a	1.0914338
205	0x3f8e030f	1.1094683
206	0x3f8f00ba	1.1172097
207	0x3f8c98b7	1.0984105
208	0x3f8da8f7	1.1067189
209	0x3f9166da	1.1359513
210	0x3f8e9a02	1.114075
211	0x3fb04455	1.3770853
212	0x3f8c43bb	1.095817
213	0x3f8db358	1.1070356
214	0x3f8d936d	1.1060616
215	0x3f8ab096	1.083514
216	0x3f97d266	1.1861084
217	0x3f8ee256	1.1162822
218	0x3f8f0631	1.1173764
219	0x3f8bcba0	1.0921516
220	0x3f9e91bc	1.2388225
221	0x3f9ba163	1.2158626
222	0x3f8f1600	1.1178589
223	0x3f8f3064	1.1186643
224	0x3f913fb7	1.1347569
225	0x3f8e8ab4	1.1136079
226	0x3f8a22f3	1.0791916
227	0x3f929947	1.1453027
228	0x3f8e3c87	1.1112221
229	0x3f8f18a5	1.1179396
230	0x3faa533d	1.3306652
231	0x3f89b4e8	1.0758333
232	0x3fa26e90	1.2689991
233	0x3f926d29	1.1439563
234	0x3f8c3876	1.095473
235	0x3f8f3215	1.1187159
236	0x3f8b3b26	1.0877426
237	0x3f89406b	1.0722784
238	0x3f8ef60d	1.1168839
239	0x3f8e11b0	1.1099148
240	0x3f9060be	1.1279523
241	0x3f8cf026	1.1010787
242	0x3f8ce1cd	1.1006409
243	0x3f8f71bd	1.1206585
244	0x3f8e8e2a	1.1137135
245	0x3f8ee3b3	1.1163238
246	0x3f8eb5f1	1.1149274
247	0x3f8d3bfc	1.1033931
248	0x3f8dd37f	1.1080168
249	0x3f8ed06d	1.1157357
250	0x3f8f538e	1.1197374
251	0x3f8b6f70	1.0893383
252	0x3f8fb0d4	1.1225839
253	0x3f8a519c	1.0806155
254	0x3f8e54df	1.1119651
255	0x3f89d99d	1.0769535
